lightning_logs/version_12/checkpoints/epoch=49-step=2500.ckpt (torch, 330670 bytes, 33 tensors)

model.param_proj.proj.0.weight f4 [1, 40]
0	0xbe00b224	-0.12567955
1	0xbea99c54	-0.3312708
2	0x3e0a57b6	0.13510022
3	0x3e6012d7	0.21882187
4	0x3e1891af	0.14899324
5	0xbf61b384	-0.88164544
6	0x3f111c9f	0.566843
7	0xbe565486	-0.2093068
8	0x3c1a5081	0.009418608
9	0x3e7666ab	0.24062602
10	0x3f9ca318	1.2237272
11	0xbf0f64b7	-0.56013054
12	0xbdb43fd4	-0.08801237
13	0xbdcf3b08	-0.10118681
14	0xbe6fd873	-0.23422413
15	0x3e36f7b5	0.1786793
16	0xbef192d1	-0.47182325
17	0xbc85da67	-0.016339494
18	0xbd2a29ea	-0.04154388
19	0x3dceb5f7	0.10093301
20	0xbdd26b8b	-0.102744184
21	0xbe2a9aef	-0.16660665
22	0xbe3eee1a	-0.18645516
23	0xbee9d807	-0.45672628
24	0x3ed116f6	0.4083783
25	0xbef27a1f	-0.47358796
26	0xbe9f5e2f	-0.31126544
27	0x3f3f9103	0.74830645
28	0xbdffcf29	-0.124906845
29	0xbea34414	-0.31887877
30	0xbf5aacbd	-0.8541983
31	0xbe755f69	-0.23962177
32	0xbd00d12c	-0.03144948
33	0x3d89e932	0.067339316
34	0xbf29dca3	-0.6635229
35	0x3f081904	0.5316317
36	0xbf2341a0	-0.6377201
37	0x3e38d388	0.18049443
38	0xbe03134f	-0.12800334
39	0xbd76b208	-0.060228378

model.param_proj.proj.1.weight f4 [1, 40]
0	0xbe5f272c	-0.21792287
1	0x3e79fcb9	0.24412812
2	0xbe15915c	-0.14606231
3	0xbdd4ddbc	-0.10393855
4	0x3dd86b23	0.1056731
5	0x3dcb1ab8	0.099172056
6	0xbca80e76	-0.020514708
7	0xbd4dba45	-0.05022647
8	0xbe574d82	-0.2102566
9	0x3e1ec9af	0.15506624
10	0x3d09ccdc	0.033642635
11	0x3ed1e974	0.40998423
12	0x3e8006cd	0.2500519
13	0xbe744a56	-0.23856482
14	0x3b1861c9	0.0023251644
15	0x3e19273d	0.14956374
16	0x3e757501	0.23970415
17	0xbdf15151	-0.11783088
18	0xbe39d0a1	-0.18145992
19	0xbde92d3f	-0.11385583
20	0xbd9e7a7c	-0.07738206
21	0xbde0f934	-0.10985032
22	0x3e6925ef	0.22768377
23	0xbd4c781b	-0.04991923
24	0x3dc2588b	0.094895445
25	0xbe2303c9	-0.15919413
26	0xbe4482fd	-0.19190593
27	0xbe9c5076	-0.30530137
28	0xbe1d0120	-0.1533246
29	0xbe27779d	-0.16354223
30	0xbe655f2d	-0.22399588
31	0xbd29675c	-0.041358337
32	0x3e09e2d7	0.13465439
33	0xbe4d4c86	-0.20048723
34	0xbe60ba38	-0.21946037
35	0xbdd02de0	-0.10165
36	0x3dfc00ee	0.12304865
37	0xbe7a202e	-0.24426338
38	0xbe164d8d	-0.14678021
39	0x3e222d22	0.1583753

model.param_proj.proj.2.weight f4 [1, 40]
0	0xbe2ecafd	-0.17069621
1	0x3ea3b95a	0.3197735
2	0x3d97c9b0	0.07411516
3	0xbe60aa3b	-0.21939938
4	0xbe78bb54	-0.2429021
5	0x3f0d20f5	0.55128413
6	0xbe5f24ee	-0.21791431
7	0x3e31c4bb	0.17360203
8	0xbdad8b39	-0.0847382
9	0xbd11f709	-0.03563598
10	0xbf5e58e3	-0.8685438
11	0x3da2423f	0.07922792
12	0x3c4090fc	0.011753317
13	0xbcf00104	-0.02929736
14	0x3ecf0d39	0.40439776
15	0xbe5d9bb4	-0.21641427
16	0x3e1cfb36	0.15330204
17	0xbeaa444f	-0.3325524
18	0x3e3bbed3	0.18334512
19	0xbc722fc4	-0.014781896
20	0x3e9ba667	0.30400392
21	0x3e194d9c	0.14971012
22	0x3e0ea29d	0.1392922
23	0x3ead9ede	0.3391027
24	0xbd02daa7	-0.031946804
25	0xbd26c85e	-0.04071843
26	0x3dcb30b4	0.09921399
27	0xbdcb7c81	-0.099358566
28	0xbdaf7576	-0.08567326
29	0x3e1eeb98	0.1551956
30	0x3e08f320	0.13373995
31	0x3e73d4f8	0.2381171
32	0xbe9edc3b	-0.31027398
33	0xbde37654	-0.11106554
34	0xbe02353e	-0.12715623
35	0xbe51d7ba	-0.2049245
36	0x3e9b43cd	0.30325165
37	0xbd80076f	-0.06251418
38	0x3e208ba8	0.15678275
39	0x3da4759b	0.08030244

model.rnn.weight_ih_l0 f4 [160, 37]
0	0x3ea58081	0.32324603
1	0x3d3feb1e	0.046855085
2	0x3cd0b790	0.025478154
3	0x3dbc9db6	0.092097685
4	0x3ef4159f	0.47672746
5	0xbe1f5cf8	-0.15562809
6	0xbdabdcf0	-0.0839175
7	0x3eb3f655	0.35148874
8	0xbcd17c59	-0.025571989
9	0xbe0cb55e	-0.13741061
10	0x3dbe0de5	0.09279994
11	0xbe8dbd12	-0.27683312
12	0xbec6e216	-0.38844365
13	0xbdf27f71	-0.11840714
14	0x3e90a8db	0.28253826
15	0x3d8b1a20	0.06792092
16	0xbe0693b2	-0.13142279
17	0x3eade9df	0.33967492
18	0x3efd997c	0.49531162
19	0x3e84ecd8	0.25961947
20	0xbe8656ba	-0.26238042
21	0xbeaff9c0	-0.34370232
22	0xbebdd7c5	-0.37078682
23	0xbed9e504	-0.42557538
24	0xbf54b35b	-0.83086175
25	0xbf8ec1a0	-1.115284
26	0xbf605816	-0.8763441
27	0x3eb4cd2f	0.35312793
28	0x3f1d0c66	0.61347044
29	0x3f9a65e6	1.2062347
30	0xbe03ab8b	-0.12858407
31	0xbb7556a5	-0.0037435677
32	0x3e098cb1	0.13432576
33	0x3f100040	0.5625038
34	0x3eb697bb	0.35662636
35	0xbf342c96	-0.7038053
36	0xbe1ce499	-0.15321578
37	0x3cccc39a	0.024995614
38	0x3d622f8b	0.05522112
39	0x3d6c2ba7	0.057658818
40	0x3e20bc67	0.1569687
41	0x3e6ce0c5	0.23132618
42	0xbcb0131e	-0.02149349
43	0x3e691e71	0.22765519
44	0x3e70b5b0	0.23506808
45	0x3d8c33a5	0.06845788
46	0x3e52fcfc	0.20604318
47	0xbd06a7fa	-0.03287504
48	0x3d474ecc	0.04865913
49	0x3d9ed7c6	0.07755999
50	0x3e67a8f6	0.22623047
51	0x3daa44f8	0.08313936
52	0x3dc08f9a	0.0940239
53	0xbd2e1f99	-0.042510603
54	0xbcce9ccc	-0.025221251
55	0x3c224c72	0.009905921
56	0x3e3b7b3e	0.18308732
57	0x3cb858fc	0.022503369
58	0xbd85cfeb	-0.06533798
59	0x3cfaca1d	0.030613953
60	0xbd81b446	-0.063332126
61	0x3b3f9011	0.0029230157
62	0x3dcd6859	0.10029668
63	0x3e0d93ee	0.13825962
64	0x3d104c1d	0.035228837
65	0xbd7b9c9a	-0.061428644
66	0xbcf17c09	-0.02947809
67	0xbe128edf	-0.14312313
68	0xbbabb2d1	-0.0052398224
69	0x3e8ac26f	0.27101466
70	0x3e1cf413	0.15327482
71	0xbf090ffb	-0.5354001
72	0xbeda61ca	-0.42652732
73	0x3e2b8046	0.16748151
74	0x3d1c951d	0.038228143
75	0x3db949a3	0.09047248
76	0x3e8e63ec	0.2781061
77	0x3e1545f6	0.14577469
78	0x3e5d8a94	0.21634895
79	0x3daa4d63	0.083155416
80	0x3e6ddfc0	0.23229885
81	0x3e73eea8	0.23821509
82	0xbcee27ab	-0.02907165
83	0x3c8841c7	0.016632928
84	0x3e8ee520	0.27909184
85	0x3e21571e	0.15755889
86	0x3e6e3d84	0.23265654
87	0x3b5e537e	0.0033924277
88	0x3dc73142	0.09726192
89	0x3e4ecdb7	0.20195661
90	0x3e2e5d3c	0.17027754
91	0xbd3351d6	-0.043779217
92	0x3db684f8	0.089120805
93	0x3d6e9855	0.058250744
94	0x3dbf1e56	0.09331958
95	0xbb1e6e8e	-0.0024174782
96	0x3e09940b	0.1343538
97	0x3dad111d	0.0845053
98	0xbda6b060	-0.081391096
99	0x3e1e3979	0.15451612
100	0xbc3f1f8f	-0.011665239
101	0x3cb75c39	0.022382842
102	0x3dc4e3af	0.0961374
103	0x3dd14453	0.1021811
104	0xbe1d2959	-0.15347804
105	0xbb2997c9	-0.0025877825
106	0x3e8f3e2e	0.27977127
107	0x3cbdaee6	0.023154687
108	0x3e273915	0.16330369
109	0xbecca708	-0.39971185
110	0x3e33a3a5	0.17542894
111	0x3e4b3bcd	0.19847031
112	0x3ebf1868	0.37323308
113	0x3e2d3157	0.16913353
114	0x3e41262f	0.18862222
115	0xbdb23de2	-0.087032095
116	0xbd8bb0b5	-0.068208136
117	0x3d670239	0.056398604
118	0x3b7f41a9	0.0038949049
119	0x3bfd2652	0.0077255154
120	0x3dd959e6	0.1061285
121	0x3d8308c8	0.06398159
122	0x3cc47911	0.02398351
123	0xbd2ca047	-0.04214504
124	0xbe65d09c	-0.2244286
125	0x3d297008	0.041366607
126	0xbd2a3f09	-0.04156402
127	0xbdcbdc89	-0.09954173
128	0xbe2a19d5	-0.16611417
129	0x3db585ec	0.08863434
130	0xbc9147cf	-0.017734436
131	0x3dcee217	0.10101717
132	0x3e59b467	0.21260224
133	0x3d068804	0.03284456
134	0x3d073ddc	0.033017978
135	0x3cc28004	0.023742683
136	0x3dbbc4b5	0.09168378
137	0x3d0570e3	0.03257836
138	0xbe8ec77c	-0.2788657
139	0xbeb1ab5e	-0.34701055
140	0xbe744987	-0.23856173
141	0x3dd8718c	0.10568532
142	0xbb828e54	-0.003984252
143	0x3e317e86	0.17333421
144	0xbc99ef36	-0.018790822
145	0x3fcfba07	1.6228646
146	0x3d90fa78	0.07079023
147	0x3e4018f8	0.18759525
148	0x3e4cf128	0.20013869
149	0xbd5f07ae	-0.054450683
150	0xbd09766c	-0.0335602
151	0x3e7741be	0.24146172
152	0x3da632d1	0.08115161
153	0x3c1a078f	0.009401216
154	0x3e371f47	0.17883025
155	0x3e5c2ea8	0.21502173
156	0x3db40091	0.087891705
157	0x3e56c0b0	0.20971942
158	0x3e38cf2a	0.18047777
159	0x3de91d0a	0.11382492
160	0xbb74f7d3	-0.003737916
161	0x3dec16e3	0.11527803
162	0x3e05120d	0.12995167
163	0x3e21c033	0.15795974
164	0xbd7f8cad	-0.06239002
165	0x3d407ed7	0.046995964
166	0x3d877f3e	0.066160664
167	0xbccb9044	-0.024849065
168	0xbdc09057	-0.09402531
169	0x3e2a18b1	0.16610982
170	0x3dec3570	0.1153363
171	0x3db22eaa	0.08700307
172	0x3e44589b	0.19174425
173	0x3e27ba99	0.16379775
174	0x3ecfb015	0.40564027
175	0xbd02b70b	-0.031912845
176	0x3e0d9a6a	0.13828436
177	0x3d8f4db4	0.069972426
178	0xbdf5dd34	-0.12005082
179	0xbbc667f8	-0.0060548745
180	0x3e4fa104	0.20276266
181	0x3e9657ec	0.29363954
182	0xbe60d142	-0.21954826
183	0xbe952d03	-0.29135904
184	0x3e9d335b	0.30703244
185	0x3e9206a2	0.28520685
186	0x3e5300c7	0.20605765
187	0xbde59f29	-0.11211998
188	0x3d4dc36d	0.0502352
189	0x3e4a1638	0.19735038
190	0xbe0291ed	-0.12750979
191	0x3d158fc7	0.03651407
192	0x3df666fb	0.12031361
193	0xbddd6a95	-0.108113445
194	0xbd46f673	-0.048574876
195	0xbd9d7831	-0.0768894
196	0x3e7aa833	0.24478225
197	0x3e110547	0.1416217
198	0x3c6ccb66	0.014452791
199	0x3deaa0f8	0.114564836
200	0xbbf82b75	-0.00757354
201	0x3e191563	0.14949565
202	0x3e06ef2b	0.13177173
203	0x3e5ad7df	0.21371411
204	0xbcecd988	-0.02891232
205	0xbcf25fcf	-0.0295867
206	0x3d442020	0.0478822
207	0x3dfd14c9	0.1235748
208	0x3e4a5e12	0.19762447
209	0x3ec79f80	0.38988876
210	0x3f20d824	0.62829804
211	0x3ee04b7f	0.438076
212	0x3eaa0d75	0.33213392
213	0x3de033da	0.1094739
214	0x3eaa7930	0.33295584
215	0x3c8b64c5	0.017015824
216	0xbb571c1c	-0.003282315
217	0x3e2fae06	0.17156228
218	0x3d0e412f	0.034730133
219	0xbea08a5c	-0.3135556
220	0xbe9eb3f5	-0.3099667
221	0x3d16a165	0.03677501
222	0xbd5a4958	-0.053292602
223	0xbdb089a5	-0.086200036
224	0x3d9bcf75	0.07607929
225	0xbd9efb86	-0.07762818
226	0xbd786450	-0.06064254
227	0x3e0a5b87	0.13511477
228	0x3dcd25e5	0.100169934
229	0xbca7e661	-0.020495595
230	0x3d8f898d	0.070086576
231	0x3c0ca3a3	0.008583936
232	0x3d92a3c5	0.07160143
233	0x3e31743d	0.17329498
234	0x3cbfa50d	0.023394132
235	0x3d9264bd	0.071481206
236	0x3d795afa	0.060877778
237	0x3e394e0b	0.18096177
238	0x3c9ca73a	0.019122709
239	0x3d9724f5	0.07380096
240	0xbd9da6f6	-0.07697861
241	0x3e49b2e7	0.19697152
242	0x3e8a2931	0.26984552
243	0x3c94ea49	0.018178122
244	0xbe3559ca	-0.17710033
245	0xbe429ed6	-0.19005904
246	0x3d271a37	0.040796485
247	0xbe1a5ad4	-0.1507371
248	0xbbb8292e	-0.0056201434
249	0xbe6fe498	-0.23427045
250	0xbdebe088	-0.11517435
251	0xbe6d38b4	-0.23166162
252	0xbdb5dbd1	-0.08879817
253	0x3c0775df	0.008267849
254	0xbdc0f8d8	-0.09422463
255	0xbf261836	-0.6488069

model.rnn.weight_hh_l0 f4 [160, 40]
0	0xbf1567c2	-0.58361447
1	0x3e5aa207	0.21350871
2	0x3e8f303b	0.27966484
3	0x3e0c3e0d	0.13695545
4	0x3c3d996f	0.011572226
5	0xbe9ce3b1	-0.30642465
6	0x3ea468d6	0.32111233
7	0xbe75d127	-0.24005567
8	0x3e93088c	0.28717458
9	0xbedf42a3	-0.43605527
10	0x3e6cfdcd	0.23143692
11	0x3e9d78e9	0.3075631
12	0x3ee43772	0.4457355
13	0x3eff8a30	0.49910116
14	0x3d474b37	0.048655715
15	0xbe8436bf	-0.25823018
16	0xbdcfb739	-0.10142369
17	0x3f5f893d	0.87318784
18	0xbd934543	-0.07190945
19	0x3e967b4a	0.29390937
20	0xbdfb3794	-0.1226646
21	0xbf407f72	-0.75194466
22	0xbe21e863	-0.15811305
23	0xbe45d1bb	-0.19318287
24	0xbe5d8e4f	-0.21636318
25	0x3f6736c6	0.9031795
26	0x3d9c0b24	0.076193124
27	0xbdf96aa1	-0.12178541
28	0xbd8aaed2	-0.067716256
29	0x3dd98237	0.1062054
30	0xbe48b49a	-0.19600144
31	0x3e0436be	0.12911507
32	0xbe397a12	-0.18112972
33	0x3dd996e7	0.106244855
34	0x3f18273e	0.5943488
35	0xbe24df5e	-0.16100833
36	0x3db5b2ec	0.08872017
37	0xbd67a4ce	-0.056553654
38	0x3e99b781	0.30022815
39	0xbe5570a6	-0.20843753
40	0xbd048b31	-0.032359306
41	0x3e073ae5	0.1320606
42	0xbe2090a3	-0.15680175
43	0xbd4cb1ee	-0.049974374
44	0x3e4db69a	0.20089188
45	0xbc05f0c5	-0.00817508
46	0xbb821650	-0.003969945
47	0xbda9c673	-0.08289804
48	0x3dbb2923	0.091387056
49	0x3e3cc302	0.18433765
50	0x3d3b0e9b	0.045668226
51	0xbba0ab52	-0.0049032355
52	0x3d36e02c	0.04464738
53	0xbd84f2cb	-0.064916216
54	0x3e21a115	0.15784104
55	0x3a5f2a21	0.00085130526
56	0x3b3492ef	0.00275534
57	0x3d0e3bbf	0.034724947
58	0x3e10e7c4	0.14150912
59	0x3e4ac1ca	0.19800487
60	0xbd7c2cc0	-0.061566114
61	0xbcbdc1fd	-0.02316379
62	0xbdcd1dd7	-0.10015457
63	0xbd9df748	-0.07713181
64	0xbea1d41a	-0.31607133
65	0xbd6e318c	-0.05815272
66	0xbdabeb01	-0.08394433
67	0x3dbb9112	0.09158529
68	0xbdc901ff	-0.09814834
69	0xbdac0081	-0.083985336
70	0x3ca17731	0.019710155
71	0xbda6ed10	-0.08150685
72	0xbe1527e2	-0.14565995
73	0x3d18a1e0	0.03726375
74	0x3d84c856	0.064835235
75	0x3d0ff251	0.0351432
76	0xbd973b66	-0.07384376
77	0xbe24da88	-0.16098988
78	0xbdd0ceba	-0.1019568
79	0x3e563935	0.2092026
80	0x3cbbd673	0.022929406
81	0xbe26cca4	-0.16289002
82	0x3d95a896	0.07307546
83	0xbdfd86ef	-0.12379252
84	0x3cb59bd8	0.022169039
85	0xbd8827fa	-0.0664825
86	0xbdbd0946	-0.092302844
87	0xbcd27c3c	-0.025694005
88	0xbe3cc375	-0.18433936
89	0xba426f95	-0.000741714
90	0x3d319d31	0.0433628
91	0xbe6dc5b1	-0.23219945
92	0xbe5a7f47	-0.21337615
93	0xbdeed9a5	-0.11662606
94	0xbd19bb0b	-0.037531894
95	0x3e65f124	0.22455269
96	0x3e6b635f	0.22987126
97	0x3d87f4eb	0.06638511
98	0xbda439dd	-0.08018849
99	0x3e5666b8	0.20937622
100	0xbdd09c7e	-0.101860985
101	0xbdb60877	-0.08888333
102	0xbdd59fb4	-0.104308516
103	0xbe77c517	-0.24196278
104	0xbdf36c09	-0.118858404
105	0xbe407928	-0.18796217
106	0xbe0af056	-0.13568243
107	0x3d6c3b0a	0.05767349
108	0xb9dddba8	-0.0004231606
109	0xbddc6974	-0.10762301
110	0xbde7065d	-0.112805106
111	0xbdf58043	-0.119873546
112	0x3d18690c	0.037209556
113	0x3e300139	0.17187966
114	0xbbc1160c	-0.005892521
115	0x3dd15a4e	0.102223024
116	0x3c9a8af4	0.018865086
117	0xbe561eeb	-0.20910232
118	0xbd7fcdd3	-0.06245215
119	0x3d809f1e	0.06280349
120	0x3e07c458	0.13258493
121	0xbcd2f03c	-0.025749318
122	0x3cc2e406	0.02379037
123	0xbd926006	-0.07147221
124	0x3b633b45	0.0034672779
125	0x3a8ef661	0.0010907167
126	0xbd740c7d	-0.059582222
127	0xbd92879a	-0.0715477
128	0xbd02e37c	-0.031955227
129	0xbdd4b763	-0.10386541
130	0xbe058783	-0.13039975
131	0x3eb3b0bc	0.35095775
132	0x3e12e9a7	0.14346944
133	0xbdcb0e5e	-0.0991485
134	0x3f09d3a1	0.53838545
135	0xbd9360eb	-0.0719622
136	0xbe0df794	-0.13863975
137	0x3dd73885	0.10508827
138	0x3ea4cd99	0.3218811
139	0x3dea1ebb	0.114316426
140	0xbd790df2	-0.060804315
141	0xbd1cf602	-0.03832055
142	0xbd912c7c	-0.07088563
143	0xba2d3ca9	-0.00066084653
144	0x3e49af5a	0.19695798
145	0x3e7a38ac	0.24435681
146	0xbe1e3b31	-0.15452267
147	0x3d17f22e	0.037096195
148	0x3cfba5b3	0.03071866
149	0x3e108108	0.14111722
150	0x3da9a301	0.08283044
151	0x3e2be3aa	0.16786066
152	0xbd172f9c	-0.03691064
153	0xbdbef976	-0.09324925
154	0xbc7e6bca	-0.015528629
155	0x3dba298d	0.090899564
156	0xbd8f0b9b	-0.069846354
157	0xbdff2ce3	-0.12459733
158	0xbd184be7	-0.03718176
159	0xbe04e77c	-0.1297893
160	0xbdc79e90	-0.0974704
161	0xbd6889ad	-0.056771923
162	0x3d67798c	0.0565124
163	0x3d364a6e	0.044504575
164	0xbd95c9a3	-0.0731385
165	0xbe824115	-0.2544028
166	0xbe0190ff	-0.12652968
167	0xbbafd99a	-0.0053665163
168	0x3de1c94b	0.11024722
169	0xbe0a6b85	-0.13517578
170	0x3c6b88c2	0.014375867
171	0x3dd6985b	0.10478278
172	0xbd33ac78	-0.04386565
173	0x3dad15f0	0.0845145
174	0xbde2dbcb	-0.110770784
175	0xbd137718	-0.03600225
176	0x3e9ce9c8	0.3064711
177	0x3e0c95a4	0.13728958
178	0x3dcd588b	0.10026654
179	0xbbd86364	-0.006603645
180	0x3c2215ff	0.00989294
181	0xbd5c1bd0	-0.05373746
182	0xbd0257c2	-0.031821974
183	0xbd4aaa5e	-0.04947888
184	0x3c71204c	0.014717173
185	0xbe2b5e5c	-0.16735214
186	0xbe2df5ee	-0.16988346
187	0xbe1d857b	-0.1538295
188	0xbdfaa6ca	-0.12238844
189	0xbc8d43ad	-0.017244184
190	0xbcba5bc8	-0.022748843
191	0xbe500335	-0.20313723
192	0xbd198617	-0.037481394
193	0xbd44f773	-0.04808755
194	0xbd14d4d5	-0.036335785
195	0xbdab395a	-0.08360548
196	0x3e0e4615	0.13893922
197	0x3cc16fd4	0.023612894
198	0x3da2cb46	0.079489276
199	0xbded077b	-0.115736924
200	0xbe2368d6	-0.1595796
201	0xbcb95aa2	-0.022626225
202	0xbc48a051	-0.012245254
203	0xbcfb0832	-0.030643556
204	0xbdd1b949	-0.102404185
205	0x3e7af0e0	0.24505949
206	0x3e1f7294	0.15571052
207	0x3cf9ffb0	0.03051743
208	0x3d81389e	0.06309627
209	0x3d6240b4	0.055237487
210	0xbe192d87	-0.14958774
211	0x3ea2f527	0.3182766
212	0x3e8708f8	0.2637403
213	0x3d2535f3	0.040334653
214	0xbee75c79	-0.4518774
215	0x3dd26be3	0.10274484
216	0x3de98642	0.11402561
217	0x3d8be2b6	0.06830351
218	0x3e7b03fd	0.2451324
219	0x3d234065	0.039856333
220	0xbc15532e	-0.00911407
221	0x3c8cabde	0.017171796
222	0xbcd123f4	-0.02552984
223	0xbeb4723e	-0.3524341
224	0xbe0c9dce	-0.13732073
225	0xbea6b3d7	-0.32559082
226	0x3e00d65b	0.1258177
227	0xbdf113e3	-0.11771371
228	0x3da42f32	0.08016814
229	0xbd9a562e	-0.07535969
230	0x3ea2c757	0.3179271
231	0xbd34d6e6	-0.044150256
232	0xbde66022	-0.11248805
233	0xbda8ecd4	-0.082482964
234	0xbc42f362	-0.011898847
235	0x3d93d907	0.07219129
236	0x3e0b8f8f	0.13628982
237	0xbd1fb68a	-0.038992442
238	0x3d17da99	0.037073705
239	0x3c173a05	0.0092301415
240	0xbecbef93	-0.39831218
241	0x3d5ad20e	0.05342298
242	0xbbbf1acb	-0.0058320514
243	0xbf1c74e5	-0.61115867
244	0x3dd84860	0.105606794
245	0x3e4a8214	0.19776183
246	0xbdf3fd23	-0.11913516
247	0x3dbb1e02	0.09136583
248	0x3db3a3d1	0.0877148
249	0xbe16748e	-0.146929
250	0xbdcff49f	-0.1015408
251	0x3d17a51e	0.037022702
252	0xbe3429cc	-0.17594069
253	0x3e9de46c	0.30838335
254	0x3e53ff34	0.20702821
255	0x3daf7bb4	0.085685164

model.rnn.bias_ih_l0 f4 [160]
0	0x3d9384e6	0.07203083
1	0x3e6a5387	0.22883426
2	0x3e66e0e6	0.2254673
3	0xbe13e973	-0.14444523
4	0x3eb24dd4	0.34825003
5	0xbdd6ae3f	-0.104824536
6	0x3de7fe1b	0.11327764
7	0x3e4bdade	0.1990771
8	0x3e6f16d0	0.23348546
9	0x3d857662	0.0651672
10	0x3dd36096	0.10321157
11	0x3e30e30d	0.17274113
12	0x3ceff686	0.029292356
13	0x3c267fba	0.010162288
14	0x3c89cb05	0.01682044
15	0x3d19376e	0.037406377
16	0x3db5afb9	0.08871407
17	0x3e2d259e	0.16908881
18	0x3e20f534	0.15718538
19	0x3e80343a	0.25039846
20	0x3cef97a8	0.02924712
21	0xbd151c52	-0.03640396
22	0x3e124d54	0.14287311
23	0x3dcaeb25	0.099081315
24	0x3d882ee5	0.066495694
25	0x3d9f2697	0.07771032
26	0x3e03c182	0.12866786
27	0x3e083011	0.13299586
28	0xbdce076a	-0.10060008
29	0x3dd088e8	0.10182363
30	0x3e06b756	0.13155875
31	0xbc8db171	-0.017296525
32	0x3dd77411	0.10520185
33	0xbdf4d3fd	-0.11954496
34	0x3dd776a4	0.10520676
35	0x3e0d712d	0.13812704
36	0x3e707890	0.23483491
37	0x3da67f3c	0.08129737
38	0xbd8bb07d	-0.06820772
39	0x3d838e5d	0.06423638
40	0x3d701baf	0.05862015
41	0x3d5e50be	0.05427622
42	0x3deb3fc6	0.11486773
43	0xbd2d330e	-0.042285018
44	0x3e28989a	0.16464463
45	0x3cb9c1fc	0.022675507
46	0x3e1bc424	0.1521154
47	0x3d6bc5e8	0.057561785
48	0x3e7f98dd	0.24960656
49	0x3ddba7ed	0.10725389
50	0xbd6a5061	-0.05720556
51	0x3e1e576e	0.1546304
52	0xbdeaa7ff	-0.11457824
53	0x3d1357d8	0.035972446
54	0x3e0a52a0	0.13508081
55	0xbdcb52e8	-0.099279225
56	0x3e03e4ca	0.12880245
57	0x3d7c1e77	0.06155249
58	0xbe0b455a	-0.13600674
59	0x3e34d565	0.17659529
60	0x3de6013b	0.112307034
61	0xbcea8b4f	-0.02863088
62	0x3e06e2ba	0.13172427
63	0xbe661bf2	-0.22471598
64	0xbe06fa2c	-0.1318137
65	0xbcd2d8c1	-0.025738122
66	0xbdca3573	-0.09873476
67	0xbd0ede9d	-0.03488027
68	0xbdc0e6fb	-0.09419056
69	0x3dccc7b2	0.09999026
70	0x3d5cbf61	0.05389345
71	0x3cc9f7ea	0.024654347
72	0x3d459705	0.048239727
73	0xbcef4462	-0.029207412
74	0xbafa54b7	-0.0019098733
75	0x3d9a140f	0.07523357
76	0x3e25bc34	0.16185075
77	0x3db75612	0.089519635
78	0x3d98b8ed	0.07457147
79	0x3d76a6eb	0.06021778
80	0x3d65d1e5	0.056108374
81	0x3e612383	0.21986203
82	0x3e4d0c41	0.20024206
83	0xbc1fba01	-0.009748937
84	0x3e38c8b0	0.18045306
85	0x3dd4b124	0.103853494
86	0x3df0a30f	0.11749851
87	0x3d97d493	0.07413592
88	0x3d0ea625	0.034826417
89	0x3da1d6f6	0.07902329
90	0x3e3a54be	0.18196389
91	0x3e0448ae	0.1291835
92	0x3d051a9a	0.032496072
93	0xb9386f80	-0.00017589144
94	0x3d900b30	0.07033384
95	0xbcb743a4	-0.02237112
96	0xbda455af	-0.08024155
97	0x3d83009c	0.063966006
98	0x3b94fe0e	0.0045468872
99	0x3c4dd437	0.012562803
100	0x3da52e63	0.08065488
101	0x3cd41321	0.025888028
102	0x3d2c7b4c	0.042109773
103	0x3abed1b4	0.0014558346
104	0x3e162093	0.14660864
105	0x3ccbc3a6	0.024873566
106	0xbc5db49d	-0.013531831
107	0x3e21cd07	0.15800868
108	0x3d4ac61e	0.049505346
109	0xbe09d8b4	-0.13461572
110	0xbdf8c6ef	-0.121473186
111	0xbda8ee1b	-0.0824854
112	0xbe06a6bf	-0.13149546
113	0x3c8388e4	0.016056485
114	0xbccf2d45	-0.02529014
115	0x3c02e91f	0.007990151
116	0xbd6e1cf1	-0.05813307
117	0x3dc50b87	0.09621339
118	0x3d9673f0	0.07346332
119	0x3dc0b1c9	0.0940891
120	0x3e8ba550	0.2727456
121	0xbe299258	-0.16559732
122	0xbdeb0855	-0.114761986
123	0x3caf2e87	0.02138449
124	0x3e0660e5	0.131229
125	0x3d84cdc9	0.06484563
126	0x3e31c81c	0.17361492
127	0xbe1a9a4a	-0.15097919
128	0xbc9b2f93	-0.018943584
129	0xbe221f4b	-0.1583225
130	0x3d1b84e3	0.037968528
131	0xbde2773e	-0.110579
132	0xbc99db22	-0.018781248
133	0xbc94e5aa	-0.018175919
134	0x3cc87218	0.024468467
135	0xbd79d12a	-0.06099049
136	0x3ddf1919	0.10893459
137	0x3e6631de	0.2247996
138	0xbe03f4a7	-0.12886296
139	0x3e35d961	0.17758705
140	0x3e573895	0.21017678
141	0x3ca1c3fc	0.019746773
142	0x3dec108a	0.11526592
143	0xbd8249b7	-0.06361716
144	0x3d86cdd2	0.06582226
145	0x3e82b52a	0.25528842
146	0x3d91a90f	0.071123235
147	0xbd2e3448	-0.042530328
148	0xbdfdab8b	-0.12386235
149	0x3d7bec30	0.061504543
150	0x3eb90014	0.36132872
151	0x3d473de4	0.048643008
152	0x3e238e04	0.15972143
153	0xbd9b8e19	-0.07595462
154	0x3d80eda6	0.06295328
155	0x3d462c72	0.04838223
156	0xbdf5ffa6	-0.12011652
157	0x3d17da10	0.037073195
158	0xbde1ea0d	-0.1103097
159	0x3ceba08a	0.028763074

model.rnn.bias_hh_l0 f4 [160]
0	0x3df98428	0.1218341
1	0x3ea14b5f	0.31502816
2	0x3e32e035	0.1746834
3	0xbd2e0532	-0.042485423
4	0x3e310bb2	0.17289618
5	0x3e2c9309	0.16852964
6	0xbd2f61b2	-0.04281778
7	0xbd92557a	-0.071452096
8	0x3eb5bb56	0.35494488
9	0xbd62923e	-0.05531525
10	0x3e43da2d	0.19126196
11	0xbdc02027	-0.093811326
12	0x3d933a1a	0.07188816
13	0xbe25aa57	-0.1617826
14	0x3e4570b4	0.19281274
15	0xbd6175a8	-0.055043846
16	0x3db8536f	0.09000289
17	0x3e950bfe	0.29110712
18	0xbd5c72fc	-0.053820595
19	0xbc376a32	-0.0111947525
20	0x3d1ec621	0.03876317
21	0x3e312ff3	0.17303447
22	0xbdb69e6b	-0.089169346
23	0xbe240383	-0.16016965
24	0x3c77c0ea	0.015121678
25	0x3d876281	0.06610585
26	0x3e464cb0	0.19365191
27	0x3cc770e0	0.024345815
28	0x3ca3e6a5	0.02000744
29	0xbc411d74	-0.011786807
30	0x3d1c860c	0.038213775
31	0x3dae33a3	0.08505943
32	0xbe02137e	-0.12702748
33	0xbe0d78c5	-0.13815601
34	0xbdcad8c1	-0.09904624
35	0x3e291ece	0.16515657
36	0x3dd0fcde	0.102044806
37	0x3db14d2c	0.086572975
38	0xbd93843b	-0.07202955
39	0x3c496744	0.012292687
40	0xbe4b80f2	-0.19873407
41	0x3e322040	0.17395115
42	0x3d5db3cd	0.05412655
43	0x3e40430b	0.18775575
44	0x3d9653ad	0.07340179
45	0x3de46c13	0.11153426
46	0xbccc5188	-0.02494122
47	0x3ccf1bc8	0.025281802
48	0x3de7c985	0.11317734
49	0xbd62e15b	-0.055390697
50	0x3e30536a	0.1721932
51	0xbc90a3b2	-0.017656181
52	0x3cc19a51	0.023633154
53	0x3e0445a7	0.12917195
54	0xbdc21397	-0.09476393
55	0x3e17ec8b	0.14836328
56	0x3e1bd958	0.15219629
57	0x3dbae114	0.091249615
58	0x3cc416d6	0.02393667
59	0x3dcabbd7	0.09899109
60	0x3e018880	0.12649727
61	0xbe1d364b	-0.15352742
62	0xbbc0f518	-0.0058885925
63	0xbc79beed	-0.015243274
64	0x3e0bfbeb	0.13670318
65	0xbd8b7bb5	-0.068107046
66	0x3d891fcb	0.06695517
67	0xbdddddfd	-0.108333565
68	0x3dd49360	0.10379672
69	0x3d4576b8	0.048208922
70	0xbb6ccfdc	-0.0036134636
71	0x3de398f0	0.11113155
72	0x3ab926c5	0.0014125934
73	0xbdb12427	-0.08649474
74	0xbd20d0f7	-0.039261784
75	0xbe02b19a	-0.12763062
76	0xbd0d0aa3	-0.034433972
77	0xbd9c1f53	-0.07623162
78	0x3db87398	0.09006423
79	0x3da9b859	0.08287115
80	0xbc80f90a	-0.015743751
81	0x3cafa9a7	0.021443201
82	0xbd604122	-0.054749615
83	0x3df09df4	0.11748877
84	0xbc7fc84c	-0.015611719
85	0x3da7e384	0.08197692
86	0xbdfb1f7f	-0.12261867
87	0x3c348b92	0.011019604
88	0xbd72155b	-0.059102397
89	0xbdde453a	-0.10853048
90	0xbd2b1e40	-0.041776896
91	0xbdc65711	-0.09684575
92	0x3dfad6e8	0.12248021
93	0xbd9dc2dc	-0.07703182
94	0xbe5883a2	-0.21143964
95	0xbe3eefdf	-0.18646191
96	0x3da4003d	0.08007858
97	0x3cf92c8c	0.03041675
98	0x3d9d0715	0.076673664
99	0x3cad754f	0.021174101
100	0xbd9e2cb1	-0.07723368
101	0x3e13184e	0.1436474
102	0x3dd686ea	0.104749516
103	0xbba42adc	-0.005009992
104	0x394a379c	0.00019284937
105	0x3db43ca9	0.088006325
106	0xbdfd8f0f	-0.12380802
107	0x3e14bd47	0.14525329
108	0x3e165085	0.14679153
109	0xbd8be5c9	-0.068309374
110	0xbadf2045	-0.0017023167
111	0xbd1c8c30	-0.03821963
112	0xbb9bc0ec	-0.0047532227
113	0xbdf4f67b	-0.11961075
114	0xbda16b15	-0.078817524
115	0x3dd28ebd	0.102811314
116	0xbe0014d0	-0.1250794
117	0x3dcde4dc	0.10053417
118	0x3d5044eb	0.050846975
119	0xbc075b02	-0.008261444
120	0x3dd2e421	0.102974184
121	0x3ddaf364	0.10690954
122	0x3dbcc1d7	0.092166595
123	0x3d076a57	0.033060398
124	0x3d828c54	0.06374422
125	0x3e16cb27	0.14725934
126	0x3ba7d9da	0.0051224055
127	0x3d177211	0.036974017
128	0x3d6be744	0.0575936
129	0xbd2eb2ba	-0.042650916
130	0xbe24766d	-0.16060801
131	0xbddc73cc	-0.10764274
132	0xbbfada50	-0.0076554194
133	0x3d417ce0	0.04723823
134	0xbcaf4a59	-0.021397756
135	0xbe0ab98c	-0.13547343
136	0xbda41e50	-0.08013594
137	0x3df81411	0.12113202
138	0x3dd6866a	0.10474856
139	0x3e058d39	0.13042153
140	0x3e12f039	0.1434945
141	0x3d8b23f2	0.067939654
142	0x3d95437c	0.07288262
143	0xbdaa2179	-0.08307166
144	0x3de6730c	0.11252412
145	0x3e60a1ca	0.21936718
146	0x3e591f86	0.21203431
147	0x3dd03b6d	0.101675846
148	0xbc503a14	-0.012709159
149	0xbdc41a10	-0.095752835
150	0x3e74d810	0.23910546
151	0xbdd0884e	-0.10182248
152	0xbd846288	-0.06464106
153	0xbd414556	-0.047185265
154	0xbe2aad59	-0.1666769
155	0x3d2fffbc	0.042968497
156	0xbd6bca40	-0.057565928
157	0xbd3d64cd	-0.04623871
158	0x3c35d8d3	0.011099058
159	0xbd30e288	-0.043184787

model.rnn.weight_ih_l1 f4 [160, 40]
0	0x3c9cedc5	0.019156346
1	0x3d0c8d22	0.034314282
2	0x3e099049	0.13433947
3	0xbcd23941	-0.025662066
4	0xb8843b2a	-6.305271e-05
5	0xbe7ec202	-0.24878696
6	0x3e5e60e2	0.21716645
7	0xbe209bf8	-0.15684497
8	0xbc9651ab	-0.01834949
9	0xbe88e9ba	-0.2674082
10	0xbd412deb	-0.04716293
11	0x3dbe4641	0.092907436
12	0xbcec9de1	-0.028883876
13	0x3e56aad8	0.20963609
14	0x3e610c69	0.2197739
15	0xbd5f70b8	-0.054550856
16	0x3d14534e	0.036212258
17	0x3f0d70dc	0.55250335
18	0x3d8dcb35	0.06923524
19	0xbe20d4b8	-0.15706146
20	0xbcd9764e	-0.02654567
21	0xbe667c8d	-0.2250845
22	0x3d9c5239	0.0763287
23	0xbe8a0997	-0.2696044
24	0x3dbede28	0.09319717
25	0x3d1364f7	0.03598496
26	0x3e17c9e6	0.14823112
27	0xbdd115f6	-0.10209267
28	0x3c36ca81	0.011156679
29	0x3e8cf39a	0.27529603
30	0x3e76ec05	0.24113472
31	0xbd58d858	-0.052940696
32	0xbd9b6267	-0.07587128
33	0xbe32f464	-0.1747604
34	0xbd88d169	-0.06680567
35	0xbe56cedf	-0.20977353
36	0xbac72d4f	-0.0015195998
37	0xbb38ca42	-0.0028196727
38	0x3d7721fa	0.060335137
39	0xbe0b10a8	-0.13580573
40	0xbebb9f20	-0.3664484
41	0xbe123e00	-0.14281464
42	0x3d0946cc	0.033514783
43	0xbe8a6ec0	-0.2703762
44	0x3da1431c	0.07874128
45	0x3b798663	0.0038074485
46	0x3e0a8ce8	0.13530314
47	0x3e1bfe21	0.15233661
48	0x3d355416	0.044269644
49	0xbe14d174	-0.14533025
50	0x3c317f5c	0.0108335875
51	0xbd91904d	-0.07107601
52	0xbcdf8876	-0.02728675
53	0xbe55a5c9	-0.20864023
54	0x3e21e59b	0.15810244
55	0x3e674138	0.22583473
56	0x3dbb183a	0.0913548
57	0x3ec57009	0.3856204
58	0x3d1ffa68	0.039057165
59	0xbd31cf90	-0.043410838
60	0xbe385fe3	-0.18005328
61	0x3ced0734	0.028934099
62	0xbe01b971	-0.12668397
63	0xbe1b6e8c	-0.15178889
64	0xbea333ac	-0.3187536
65	0xbde461bf	-0.11151456
66	0xbdd82987	-0.10554796
67	0xbda982cd	-0.082769014
68	0xbe42be27	-0.1901785
69	0x3de700c8	0.11279446
70	0x3e35e5db	0.17763464
71	0x3de6270f	0.112379186
72	0x3deb01a2	0.11474921
73	0xbd13fd7a	-0.036130406
74	0x3e0f4923	0.13992743
75	0xbd9c086f	-0.07618796
76	0xbd218365	-0.03943195
77	0x3d073225	0.033006806
78	0xbd484353	-0.04889233
79	0xbe56984f	-0.20956539
80	0x3d5359ec	0.051599428
81	0x3bf05392	0.007334181
82	0x3c5da442	0.013527932
83	0x3c2bb14f	0.010479285
84	0x3d9c73d6	0.076392815
85	0xbe740c30	-0.23832774
86	0xbda903b7	-0.08252662
87	0x3e1c7889	0.15280356
88	0x3d903085	0.07040504
89	0xbdae785b	-0.0851905
90	0xbdd627f5	-0.1045684
91	0x3d3e9efd	0.04653834
92	0xbd574449	-0.052555356
93	0x3dcedf4a	0.10101183
94	0x3c02c027	0.007980383
95	0x3d9d131c	0.076696604
96	0x3e5f0e0a	0.21782699
97	0x3e0e23de	0.1388087
98	0x3ccf5d0f	0.025312928
99	0xbe32a40a	-0.17445388
100	0xbe5ceac2	-0.21573928
101	0x3c5abb87	0.013350374
102	0xbdd82f64	-0.10555914
103	0xbe2d8ca4	-0.16948181
104	0x3e15e3d6	0.14637694
105	0xbe8d97ea	-0.27654964
106	0x3e30a06c	0.17248696
107	0x3c907c8a	0.01763751
108	0xbe829b48	-0.25509095
109	0xbdb0acd1	-0.08626712
110	0xbe0401ec	-0.12891358
111	0xbe6beb09	-0.23038878
112	0xbd88958a	-0.06669147
113	0xbda04c9e	-0.078271136
114	0x3e13c771	0.1443155
115	0x3dc71915	0.09721581
116	0x3de437d6	0.11143462
117	0xbe7bdef0	-0.24596763
118	0xbe7fdd62	-0.24986795
119	0xbce08f63	-0.027412122
120	0xbe5e5818	-0.21713293
121	0x3db5446a	0.088509396
122	0xbce0c06d	-0.027435506
123	0x3d800c8c	0.06252393
124	0xbcec1180	-0.028816938
125	0x3de61497	0.11234396
126	0xbe78b349	-0.24287142
127	0xbd1a172e	-0.037619762
128	0xbd9c02dc	-0.07617733
129	0xbca0e1bf	-0.019638894
130	0xbe1c395b	-0.15256254
131	0xbe400f89	-0.18755926
132	0x3c8f407f	0.017486809
133	0xbde539ff	-0.111927025
134	0xbcaa39d7	-0.020779533
135	0xbdf0ffd3	-0.117675446
136	0x3d3e01bb	0.04638837
137	0x3db49c8c	0.088189214
138	0x3e1ba6f9	0.15200414
139	0xbd09ef70	-0.03367561
140	0xbdcdc1a7	-0.10046702
141	0x3c3ce575	0.011529316
142	0xbdf6622b	-0.12030443
143	0xbead3eeb	-0.33837065
144	0xbdf65714	-0.120283276
145	0xbe459ae4	-0.19297367
146	0x3cd1d4ae	0.025614109
147	0xbe4efc78	-0.20213497
148	0x3d12b916	0.035821043
149	0xbd2aa37b	-0.041659813
150	0xbe6b10b8	-0.22955596
151	0x3e22bcea	0.15892377
152	0xbcc57178	-0.024101958
153	0xbe698cc5	-0.22807606
154	0x3dc5e1b3	0.09662189
155	0x3d8efe35	0.0698208
156	0x3d2494d7	0.040181007
157	0xbdded1bf	-0.1087985
158	0x3e047c3a	0.12938014
159	0xbdf396fc	-0.11894032
160	0x3e318bc4	0.17338473
161	0xbe780b9e	-0.24223182
162	0xbd3f76f0	-0.046744287
163	0x3dc2e67d	0.095166184
164	0x3d9b2b9f	0.075766794
165	0xbe868e52	-0.26280457
166	0xbea37631	-0.3192611
167	0x3e24232d	0.16029043
168	0xbcad61e0	-0.021164834
169	0xbe22a38a	-0.15882698
170	0xbe99ee50	-0.3006463
171	0xbe2032d2	-0.15644386
172	0xbdfeed60	-0.124476194
173	0xbe02c164	-0.12769085
174	0xbcef3e78	-0.029204592
175	0xbc78d223	-0.015186819
176	0x3e896b49	0.26839665
177	0x3e9aca1a	0.30232316
178	0xbcfdf026	-0.0309983
179	0xbcae2c63	-0.0212614
180	0xbe0bddd3	-0.13658838
181	0x3e1108bb	0.14163487
182	0xbe40a787	-0.18813907
183	0x3c4a0409	0.012330064
184	0x3c7a971d	0.015294817
185	0x3de1efc3	0.11032059
186	0xbd28fc0f	-0.041256007
187	0xbce00da7	-0.02735026
188	0x3c3b19e0	0.011419743
189	0x3d5847ef	0.052802976
190	0xbd142395	-0.036166746
191	0xbe865957	-0.26240036
192	0xbe7d3ea2	-0.24730924
193	0x3db4a8be	0.088212475
194	0xbd10fe29	-0.035398636
195	0x3e3c499c	0.18387455
196	0x3e6fbb05	0.23411186
197	0xbe0cc2be	-0.13746163
198	0x3d2a77a9	0.041618023
199	0x3bd44828	0.0064783283
200	0x3e9879b4	0.29780352
201	0xbcb4db80	-0.022077322
202	0xbe0c273d	-0.13686843
203	0xbe1b6b54	-0.15177661
204	0x3b93517e	0.0044957986
205	0xbd26421e	-0.040590398
206	0x3d89f6b8	0.06736511
207	0x3cbf4e8e	0.023352887
208	0x3d13c526	0.036076687
209	0xbe19265f	-0.14956044
210	0xbe0af195	-0.13568719
211	0xbecaaf4f	-0.39586875
212	0x3d03207b	0.032013398
213	0x3cb96313	0.02263025
214	0xbe8d3b25	-0.27584186
215	0xbd81c4ef	-0.0633639
216	0xbd3ffb47	-0.046870496
217	0xbe222580	-0.15834618
218	0xbe45fa95	-0.1933387
219	0x3caca495	0.021074573
220	0x3f50f1a3	0.8161871
221	0xbec3b352	-0.38222748
222	0xbe4d975c	-0.2007727
223	0x3e15e089	0.14636435
224	0xbe35c14b	-0.17749517
225	0x3e891e9f	0.26781175
226	0x3c7dba53	0.015486318
227	0xbe2612e2	-0.1621814
228	0x3d642d46	0.05570724
229	0x3e4d20b0	0.20032
230	0xbe28c5cf	-0.16481708
231	0x3e244dff	0.16045378
232	0xbc14728a	-0.009060511
233	0x3f588c24	0.8458884
234	0x3d096bf9	0.033550236
235	0x3d61da0b	0.055139583
236	0x3e0505b2	0.12990454
237	0x3e8f7f32	0.2802673
238	0x3de4edcc	0.11178169
239	0xbe292de1	-0.16521408
240	0xbe4a0337	-0.19727789
241	0xbe1d2513	-0.15346174
242	0xbd748550	-0.05969745
243	0xbe5583b6	-0.20851025
244	0x3e22155f	0.15828465
245	0x3df3f761	0.11912418
246	0x3dcbc02f	0.099487655
247	0x3e429553	0.19002275
248	0xbe32381c	-0.17404217
249	0xbe55b6da	-0.20870534
250	0x3ce5150d	0.02796414
251	0xbd808a70	-0.06276405
252	0x3da9464d	0.08265362
253	0xbd855a32	-0.06511344
254	0x3e71733d	0.23579116
255	0x3d7aa30a	0.061190642

model.rnn.weight_hh_l1 f4 [160, 40]
0	0x3dbd1135	0.092317976
1	0x3e069189	0.13141455
2	0xbd2d610f	-0.04232889
3	0x3da2e8e6	0.07954578
4	0x3dd95ee6	0.106138036
5	0x3d449016	0.047988974
6	0xbc9e22c8	-0.019303694
7	0xbda6aebb	-0.08138796
8	0xbe07e505	-0.13270958
9	0x3e013cd2	0.12620857
10	0x3e8e0cff	0.2774429
11	0xbe400684	-0.18752486
12	0xbbc7499e	-0.006081774
13	0x3e23dbd6	0.1600183
14	0xbd3cb94d	-0.046075154
15	0xbe04391b	-0.12912409
16	0xbe31fdff	-0.17382048
17	0xbdb8120e	-0.08987819
18	0x3e07f346	0.13276395
19	0xbe6e49fe	-0.23270413
20	0x3e1a4b25	0.15067728
21	0x3dbc80de	0.09204267
22	0x3db96c45	0.09053854
23	0xbda90be1	-0.08254219
24	0x3e742302	0.2384148
25	0xbe61019d	-0.21973272
26	0x3e860bb4	0.26180804
27	0x3eb639ed	0.3559107
28	0x3daea36a	0.085272625
29	0x3e0093e1	0.12556411
30	0x3d64fdc4	0.055906072
31	0xbcbd8a1a	-0.023137141
32	0xbd46541f	-0.048420068
33	0xbe89cf28	-0.2691586
34	0xbd8de43a	-0.069282964
35	0xbe91e1e6	-0.2849266
36	0x3ecbfe36	0.39842385
37	0xbe1b7591	-0.15181567
38	0x3d672693	0.05643327
39	0x3de32e65	0.110928334
40	0xbe4b65d6	-0.19863066
41	0xbbe43af5	-0.006965036
42	0xbe085f4f	-0.13317607
43	0x3d085cee	0.03329175
44	0xbd24aa81	-0.040201668
45	0x3dc00525	0.09375981
46	0x3bd62c89	0.0065360707
47	0xbdf2e4b5	-0.11860029
48	0x3dda324a	0.10654123
49	0xbd6b73fa	-0.05748365
50	0xbc8c8bdb	-0.017156532
51	0x3e3d4565	0.18483503
52	0xbdfe005c	-0.12402412
53	0xbdc8fcf0	-0.09813869
54	0x3d835f93	0.06414714
55	0x3e260077	0.16211115
56	0x3e381a12	0.17978695
57	0x3ca8c280	0.020600557
58	0xbc880d34	-0.016607858
59	0x3d4342e4	0.047671214
60	0x3dac4fe6	0.08413677
61	0xbe2d9b3d	-0.1695375
62	0x3e990d0a	0.2989276
63	0xbe254f80	-0.16143608
64	0xbcc90fa9	-0.0245436
65	0xbdfaab9d	-0.12239764
66	0x3de1e208	0.1102944
67	0x3d3ae81f	0.045631524
68	0x3dc26d52	0.094935074
69	0xbddc0be2	-0.10744454
70	0xbd209b97	-0.039210882
71	0x3bd4daf1	0.0064958264
72	0x3d2017e9	0.039085303
73	0xbe37b4b9	-0.17940034
74	0xbe5f8194	-0.21826774
75	0xbe0d04a6	-0.13771304
76	0x3e568548	0.2094928
77	0x3d5fcaeb	0.054636877
78	0x3d92ffea	0.07177718
79	0xbbbba09b	-0.005725933
80	0x3c995e7c	0.018721811
81	0x3deb30e4	0.114839345
82	0xbdd2c525	-0.102915086
83	0xbc5f2bd1	-0.0136212865
84	0xbccfb7b4	-0.025356151
85	0xbe1fb853	-0.15597658
86	0x39855b68	0.0002543584
87	0xbe07243b	-0.13197415
88	0xbcea8fed	-0.028633082
89	0x3e417ba0	0.18894815
90	0xbe1f8546	-0.15578184
91	0xbe134b0c	-0.14384097
92	0xbe0b005a	-0.13574353
93	0xbe58da21	-0.2117696
94	0x3b98f762	0.004668162
95	0x3e42288b	0.18960778
96	0x3b9672bd	0.0045913146
97	0xbd4529f0	-0.048135698
98	0x3dac6d9b	0.08419343
99	0x3d1bc945	0.038033742
100	0xbe1cc0ec	-0.15307969
101	0xbc901eaa	-0.017592747
102	0x3e65c1c3	0.22437195
103	0xbe0670df	-0.13128994
104	0xbdcbfa12	-0.099598065
105	0xbe332f12	-0.17498425
106	0x3cdcf9b4	0.026974536
107	0xbd70497e	-0.058663838
108	0xbcd8082e	-0.026371088
109	0xbe05cf53	-0.13067369
110	0xbd821c5d	-0.06353066
111	0xbe042de2	-0.12908128
112	0x3ddd3b57	0.10802334
113	0x3db8f6eb	0.09031471
114	0x3cee164a	0.029063363
115	0xbc38e37f	-0.011284708
116	0xbd3660ce	-0.044525914
117	0x3d732f1c	0.0593711
118	0x3d70051c	0.058598623
119	0xbd2e5659	-0.042562816
120	0x3d3bc01a	0.0458375
121	0x3dc6f82b	0.09715303
122	0xbc8680c4	-0.016418822
123	0xbd9111e1	-0.07083488
124	0x3cd36dd8	0.025809214
125	0xbdc15681	-0.094403274
126	0xbd1e848a	-0.038700618
127	0xbe178939	-0.1479844
128	0xbdb3afec	-0.08773789
129	0x3d9eb19e	0.077487215
130	0xbbe46f5e	-0.006971284
131	0x3dfe0b08	0.12404448
132	0x3d8ba920	0.068193674
133	0x3acd3e2f	0.0015658791
134	0x3cb902be	0.022584315
135	0x3d4f2fde	0.05058276
136	0x3d864709	0.06556518
137	0x3e1557e0	0.14584303
138	0xbe471a9a	-0.19443741
139	0x3dbaafa2	0.091155306
140	0xbe38343f	-0.1798868
141	0xbccd1e6b	-0.025038918
142	0xbc46aff0	-0.012126908
143	0x3da0eba9	0.078574486
144	0xbd610244	-0.0549338
145	0x3c78fb3f	0.0151966205
146	0x3d43c701	0.047797207
147	0xbdb8a83e	-0.09016465
148	0x3d739592	0.059468813
149	0xbe2f265c	-0.17104477
150	0x3d8058f4	0.062669665
151	0x3d8d4998	0.068988025
152	0xbdc5bc17	-0.09655016
153	0xbd71dc26	-0.05904784
154	0xbe474fb4	-0.19463998
155	0x3dcd73cb	0.100318514
156	0xbd9b398b	-0.07579335
157	0xbde39e5f	-0.11114191
158	0x3d75d588	0.060018092
159	0x3dac40f3	0.084108256
160	0x3dc4920f	0.09598171
161	0x3d333184	0.043748394
162	0x3c24c56d	0.010056836
163	0x3d1ec4ec	0.038762018
164	0x3e4739c2	0.19455627
165	0xbcd195c0	-0.025584102
166	0xbd4e5e03	-0.050382625
167	0xbe30628f	-0.17225097
168	0x3bb5fa90	0.005553551
169	0x3e026bae	0.12736389
170	0x3d581122	0.052750714
171	0x3de9af1e	0.11410354
172	0x3dab9cd1	0.0837952
173	0xbdc5e641	-0.09663058
174	0xbe46bd7a	-0.19408217
175	0x3d83a73f	0.06428384
176	0xbdb0488c	-0.08607587
177	0xbcf27b98	-0.02959995
178	0xbd4c44a7	-0.04987016
179	0xbe188987	-0.14896213
180	0xbb310c95	-0.0027015556
181	0x3daeb6ff	0.085309975
182	0xbdc2e032	-0.09515418
183	0xbcf78410	-0.03021434
184	0x3e2f211a	0.17102471
185	0x3d5d40f2	0.054017015
186	0xbc99f2b3	-0.018792486
187	0xbde6c4f2	-0.11268033
188	0xbe31555b	-0.17317717
189	0x3c05917a	0.00815236
190	0x3dc1a474	0.09455195
191	0xbdffd9c8	-0.1249271
192	0x3e05ae22	0.13054708
193	0xbd9c9418	-0.07645434
194	0xbdbb922b	-0.09158739
195	0xbe86140d	-0.26187173
196	0xbe336854	-0.17520267
197	0xbd9e2e41	-0.07723666
198	0xbe60bdce	-0.21947405
199	0xbc989849	-0.018627303
200	0x3f010995	0.50405246
201	0x3d644216	0.055727087
202	0x3d912e37	0.07088893
203	0xbd941597	-0.072306804
204	0xbcdcafcc	-0.026939295
205	0xbd0340b5	-0.03204413
206	0xbd1cb095	-0.03825434
207	0x3e151c27	0.1456152
208	0xbdb0c556	-0.08631389
209	0x3dc2a25a	0.09503622
210	0x3d02d8d1	0.031945053
211	0x3d43dcfb	0.047818165
212	0xbe8d0391	-0.27541783
213	0x3d9b218f	0.0757476
214	0xbdd187ed	-0.10231004
215	0x3be6bade	0.0070413193
216	0xbe193af4	-0.14963895
217	0x3d1f2f05	0.0388632
218	0xbd30663b	-0.043066245
219	0xbe2e349a	-0.17012253
220	0x3d5bed2c	0.05369298
221	0xbcf9ad9c	-0.030478291
222	0x3e82bcf5	0.25534788
223	0x3df62c83	0.12020209
224	0xbe04e727	-0.12978803
225	0x3e71767c	0.23580354
226	0xbe95f837	-0.29290935
227	0x3e53a3a3	0.20667891
228	0xbc919b2e	-0.01777419
229	0x3d453b42	0.048152216
230	0x3eadf3a0	0.33974934
231	0xbd0a546f	-0.03377193
232	0x3d6a29b5	0.05716868
233	0xbc9f4144	-0.0194403
234	0x3e0b4a3e	0.1360254
235	0xbe8f887e	-0.28033823
236	0x3de7a67d	0.11311052
237	0xbc1e6c1f	-0.009669333
238	0x3df2e0e0	0.11859298
239	0xbaefb74b	-0.0018288878
240	0x3dad6841	0.084671505
241	0x3db45020	0.08804345
242	0x3dcd38b4	0.10020581
243	0xbd239b06	-0.039942764
244	0xbdaee8cc	-0.08540496
245	0xbd81db82	-0.06340696
246	0x3da5a8de	0.080888495
247	0xbcb4dc1d	-0.022077614
248	0xbd42e2ac	-0.047579452
249	0x3de7b7ce	0.11314355
250	0x3d63d2d4	0.055620983
251	0xbe01326f	-0.12616895
252	0xbe0d1bed	-0.13780184
253	0xbe04dfee	-0.12976047
254	0x3c77e502	0.015130283
255	0x3deefe77	0.11669629

model.rnn.bias_ih_l1 f4 [160]
0	0xbc9add6d	-0.018904412
1	0x3e396522	0.18104985
2	0x3cd1fc7f	0.025633095
3	0x3d3ebaaa	0.046564735
4	0x3de78da4	0.11306313
5	0xbd20ffe9	-0.039306555
6	0x3da2a776	0.07942097
7	0x3e83fd6e	0.2577929
8	0xbde9b606	-0.11411671
9	0x3dc79b6e	0.09746443
10	0x3e923d1d	0.2856225
11	0x3e084cd6	0.1331056
12	0x3e408305	0.1879998
13	0x3e01170d	0.1260645
14	0xbe0ce2c1	-0.13758375
15	0x3eaf6cca	0.34262687
16	0xbdb65474	-0.08902827
17	0x3e0ea9a3	0.13931899
18	0x3cb64087	0.022247566
19	0x3b7fb43e	0.0039017345
20	0x3e5be1fe	0.21472928
21	0xbce43405	-0.027856836
22	0xbd6fcb42	-0.05854345
23	0x3dbcfb9d	0.09227679
24	0x3e1e10f7	0.15436159
25	0x3d61b40b	0.055103343
26	0xbd808c50	-0.062767625
27	0xbd072aac	-0.03299968
28	0xbbed3cde	-0.007239922
29	0x3d2ab527	0.041676667
30	0x3e04cfb1	0.12969853
31	0x3eb92994	0.36164534
32	0x3d863288	0.06552607
33	0x3d462b3c	0.048381075
34	0x3e09e631	0.13466717
35	0x3d567ef2	0.05236716
36	0x3dc52b1c	0.09627363
37	0x3e14b4a7	0.14522038
38	0x3dd982d7	0.10620659
39	0xbd90ef7c	-0.07076928
40	0xbd0a44e4	-0.033757105
41	0xbdd99061	-0.10623241
42	0x3e310358	0.17286432
43	0x3dab0f94	0.08352581
44	0xbd331f31	-0.04373092
45	0x3de29a24	0.11064556
46	0x3e2727e8	0.16323817
47	0x3def3a28	0.11681014
48	0xbd50b84c	-0.05095701
49	0xbdb492a6	-0.088170335
50	0x3ca2b317	0.019860787
51	0xbe082749	-0.13296236
52	0xbe2128e8	-0.15738261
53	0xbda5f641	-0.0810361
54	0x3d2793ba	0.040912367
55	0xbceefe88	-0.029174104
56	0x3e276889	0.16348471
57	0xbe06f3c1	-0.13178922
58	0xbd46b290	-0.048510134
59	0x3dba2a69	0.0909012
60	0x3e2bb1b9	0.16767015
61	0x3e09fecc	0.13476104
62	0xba372dab	-0.0006987701
63	0x3e25b3b4	0.16181833
64	0x3e3c33c4	0.18379122
65	0x3d3a56b0	0.045492828
66	0xbd8fb07f	-0.07016086
67	0xbc5714fe	-0.0131275635
68	0x3e05284b	0.13003652
69	0x3e25e4f2	0.16200617
70	0xbd599f03	-0.05313016
71	0x3e6bd68b	0.2303106
72	0x3deca4fb	0.11554905
73	0x3c4fd1fc	0.0126843415
74	0x3e164aa2	0.14676908
75	0x3de08cf8	0.10964388
76	0x3e074e38	0.13213432
77	0x3d86a9fe	0.06575392
78	0x3e607a43	0.21921639
79	0xbe036e4b	-0.12835042
80	0x3d51e1c6	0.051240705
81	0xbcc1cddf	-0.023657737
82	0xbb2ca5a2	-0.0026343842
83	0xbd923219	-0.071384616
84	0x3e446dc6	0.191825
85	0xbd372fad	-0.0447232
86	0xbdaf7889	-0.08567912
87	0xbdfb2860	-0.1226356
88	0xbca11c81	-0.019666912
89	0x3e30e402	0.17274478
90	0xbde67733	-0.11253204
91	0xbdeadd5a	-0.11468001
92	0x3c9481bd	0.01812827
93	0x3bb849b1	0.005624019
94	0xbe1f0488	-0.15529072
95	0x3e1b2b0e	0.15153143
96	0xbca057b3	-0.019573068
97	0x3d807988	0.0627318
98	0xbe0c9db3	-0.13732032
99	0xbdde11d0	-0.10843241
100	0xbe2f2385	-0.17103393
101	0xbdbf9433	-0.09354439
102	0x3b23ebf4	0.0025012465
103	0xbe0a3910	-0.1349833
104	0x3db36d41	0.08761073
105	0xbdec239d	-0.1153023
106	0xbcf14a9b	-0.02945452
107	0xbde46703	-0.111524604
108	0xbd82aa3a	-0.063801244
109	0x3d1b0eed	0.03785603
110	0x3d936bee	0.0719832
111	0xbe963b44	-0.2934209
112	0x3e284db2	0.16435888
113	0xbc25bc6b	-0.010115723
114	0x3c414d16	0.011798164
115	0xbd842087	-0.064515166
116	0x3e027ac1	0.1274214
117	0xbdc0767a	-0.093975976
118	0xbda8163d	-0.082073666
119	0x3d8eb872	0.06968774
120	0x3dd27691	0.10276521
121	0xbd829f7c	-0.063780755
122	0x3dc9ac4a	0.09847315
123	0x3db53fa1	0.08850027
124	0x3d4a0081	0.049316887
125	0x3d30f87e	0.04320573
126	0x3e0c3926	0.13693675
127	0x3e2519b5	0.16123088
128	0xbcc86344	-0.024461396
129	0x3d9c0a1a	0.07619114
130	0x3e260fdb	0.16216986
131	0xbd2fec9d	-0.04295026
132	0x3d8fc516	0.07020013
133	0xbb8a4d86	-0.0042206673
134	0x3e0fdb94	0.14048606
135	0x3e4408a6	0.19143924
136	0xbcf4d4d8	-0.029886648
137	0xbda18b69	-0.078879185
138	0x3d1a739e	0.037707917
139	0x3d8e1587	0.069377
140	0x3d3c9416	0.046039663
141	0x3db74a9b	0.08949777
142	0xbe01795f	-0.12643956
143	0x3d90e590	0.070750356
144	0x3e5070e8	0.2035557
145	0xbd4feaed	-0.050761152
146	0xbd918143	-0.07104733
147	0x3de144d1	0.10999454
148	0xbd81caee	-0.06337534
149	0x3c8f1830	0.017467588
150	0xbd0e7e76	-0.03478857
151	0x3e147705	0.14498527
152	0xbd91b8c1	-0.07115317
153	0x3d7132b7	0.058886256
154	0x3d157d85	0.036496658
155	0x3d07db06	0.03316786
156	0x3e2a85a3	0.16652541
157	0x3d677131	0.056504432
158	0x3cd865a8	0.026415661
159	0xbc9e1398	-0.019296452

model.rnn.bias_hh_l1 f4 [160]
0	0x3dc1c38e	0.09461127
1	0x3e2dff7b	0.1699199
2	0x3dc48a07	0.09596639
3	0x3dac7801	0.084213264
4	0x3dbe380e	0.09288035
5	0x3da0ae22	0.07845713
6	0xbc663d54	-0.014052708
7	0x3e9c2d9c	0.30503547
8	0xbdfa38f7	-0.122178964
9	0x3da53262	0.080662504
10	0x3e0f3eb1	0.13988759
11	0x3d40b1ff	0.04704475
12	0x3e084d4a	0.13310733
13	0x3e6cdeb3	0.23131828
14	0x3e14fdd8	0.14549959
15	0x3ebfe15b	0.3747662
16	0xbdebd5be	-0.115153775
17	0x3b1347c5	0.0022473198
18	0xbd10e358	-0.035373062
19	0xbce2326c	-0.027611934
20	0x3e4515b1	0.19246556
21	0x3e12f5c8	0.1435157
22	0x3e1ee76b	0.15517966
23	0x3e07f0b5	0.13275416
24	0x3b14e2e0	0.0022718236
25	0xbdc2bae2	-0.09508301
26	0x3d9e3735	0.07725374
27	0x3d0dbf84	0.03460647
28	0x3e10a47b	0.14125244
29	0xbcdbfa38	-0.026852712
30	0xbd4826b6	-0.048865043
31	0x3dfe7126	0.12423925
32	0x3d29e8fb	0.041481953
33	0x3d8c9a03	0.06865313
34	0x3daba4d2	0.08381046
35	0xbceb4c2d	-0.028722847
36	0x3d927c1b	0.071525775
37	0xbd8ba1b9	-0.068179555
38	0xbd26cb57	-0.040721264
39	0x3d811cc6	0.06304316
40	0x3d922e87	0.07137781
41	0x3ce8ad53	0.02840296
42	0x3db0a123	0.086244844
43	0xbdeec79a	-0.11659165
44	0x3dd4078a	0.103530005
45	0xbd9338db	-0.07188579
46	0xbc4fb438	-0.012677245
47	0x3caa58ee	0.020794358
48	0xbd04bd41	-0.03240705
49	0x3d932d3c	0.07186362
50	0xbd79a21d	-0.06094562
51	0x3b50ed53	0.0031879738
52	0xbdea23e7	-0.11432629
53	0xbcce0798	-0.025150105
54	0x3d932e0d	0.07186518
55	0x3d899102	0.06717111
56	0xbe067899	-0.13131942
57	0x3df7797f	0.120837204
58	0x3e0b3652	0.1359494
59	0x3e343082	0.1759663
60	0xbc0bb9ca	-0.008528182
61	0x3e4f327b	0.202341
62	0xbcbe8a1e	-0.023259219
63	0x3c4805c3	0.012208405
64	0xbdca8120	-0.0988791
65	0xbd431178	-0.04762408
66	0x3e158d13	0.14604597
67	0xbc4de1e0	-0.01256606
68	0x3e10d65d	0.14144273
69	0x3df01b9d	0.11724017
70	0x3d833ec1	0.06408454
71	0xbb272752	-0.0025505614
72	0x3df114d1	0.117715485
73	0x3d974fb9	0.07388253
74	0x3d0c0094	0.03418024
75	0x3c9e2e9c	0.019309334
76	0x3da69c26	0.08135252
77	0x3e20311f	0.15643738
78	0x3e7cd6b9	0.24691285
79	0x3d581ebb	0.05276368
80	0xbe353eb0	-0.17699695
81	0x3c870d77	0.016485913
82	0x3ca33025	0.019920418
83	0x3e21d35c	0.15803283
84	0x3e07f619	0.13277473
85	0x3e034a7d	0.12821384
86	0x3dc8d9dd	0.09807179
87	0xbe37cb25	-0.17948587
88	0x3c2a6643	0.010400358
89	0x3e214dbc	0.1575231
90	0xbdfdee24	-0.12398937
91	0x3bb9f12b	0.0056745014
92	0xbdd007c6	-0.10157733
93	0x3b3d4b1f	0.0028883887
94	0xbd403073	-0.046921205
95	0x3e1c7c06	0.15281686
96	0x3df248f5	0.11830322
97	0x3e0f0858	0.13968027
98	0xbe2b710c	-0.16742343
99	0xba7bd599	-0.00096067187
100	0xbe9a5548	-0.3014319
101	0xbe787c68	-0.24266207
102	0xbdceea52	-0.10103287
103	0xbe063744	-0.1310702
104	0x3cce02fa	0.025147904
105	0xbe12ad2d	-0.14323874
106	0xbcdf5527	-0.027262283
107	0x3dced983	0.10100081
108	0x3c28d3b8	0.010304384
109	0x3d4ba733	0.04972
110	0xbc82e0eb	-0.01597639
111	0xbe673565	-0.22578962
112	0x3d323ea1	0.04351676
113	0xbd7dbb0f	-0.06194597
114	0xbdc1b088	-0.09457499
115	0x3c8cd92a	0.017193396
116	0xbe0fb599	-0.14034118
117	0x3c40176a	0.011724332
118	0xbe3e7c7a	-0.18602172
119	0x3dc7849a	0.097420886
120	0xbd29d2dc	-0.041460857
121	0xbd461058	-0.04835543
122	0xbd669b55	-0.05630048
123	0x3e121981	0.14267541
124	0xbd2d7b0f	-0.042353686
125	0x3dfbd5ec	0.12296662
126	0xbd7697f8	-0.060203522
127	0x3e041639	0.12899102
128	0x3e30e34a	0.17274204
129	0x3c98ffaa	0.018676598
130	0xbd313f95	-0.043273527
131	0x3dc166f5	0.094434656
132	0x3db44348	0.088018954
133	0xbd8d61a5	-0.0690339
134	0x3dc8c1e5	0.098026074
135	0x3d8553d2	0.06510128
136	0x3db10c63	0.08644941
137	0x3da97481	0.082741745
138	0x3e1f2eca	0.15545192
139	0xbd5068ed	-0.050881315
140	0x3da7d994	0.081957966
141	0xbce0e283	-0.02745176
142	0x3c072a5c	0.008249845
143	0xbdb1784c	-0.08665523
144	0x3e5d7282	0.21625713
145	0xbcbe7809	-0.023250597
146	0x3dad5280	0.08463001
147	0x3d3f79a9	0.046746884
148	0xbdfaabc0	-0.1223979
149	0xbdd1b433	-0.102394484
150	0x3e5c2298	0.21497571
151	0x3d4580b7	0.048218455
152	0x3e27a63c	0.16372007
153	0xbcc0c704	-0.023532398
154	0x3e048fb3	0.12945442
155	0x3e04b4bc	0.1295957
156	0x3d6ea99e	0.05826723
157	0x3e19f1d0	0.1503365
158	0x3d2bbdd1	0.04192907
159	0x3e15fe0e	0.14647695

exp_avg f4 [1, 40]
0	0xb8b0e118	-8.434261e-05
1	0xb83669fc	-4.3490887e-05
2	0xb8a924bb	-8.0653896e-05
3	0xb8b65ccc	-8.695721e-05
4	0x384531be	4.7014786e-05
5	0x38d872c2	0.00010321058
6	0xb8819d37	-6.180483e-05
7	0xb64d89ae	-3.062752e-06
8	0x38509cd2	4.9737115e-05
9	0xb8479072	-4.7579822e-05
10	0xb9834481	-0.00025037306
11	0x38f258f2	0.000115560266
12	0xb7ab5346	-2.0423566e-05
13	0xb75ff70c	-1.3349356e-05
14	0x3854dd5f	5.0750907e-05
15	0x38190df9	3.6491056e-05
16	0x38ed3ae7	0.00011312012
17	0xb9116555	-0.00013866027
18	0xb896739c	-7.174091e-05
19	0xb889092b	-6.534377e-05
20	0xb781d0a4	-1.5475154e-05
21	0xb781629a	-1.5423913e-05
22	0x38ddf4ba	0.00010583685
23	0x384755b0	4.75251e-05
24	0xb873505a	-5.8010548e-05
25	0x38ffacd0	0.000121915364
26	0x37a4c1b5	1.9640525e-05
27	0xb8f33666	-0.000115972754
28	0xb82160d5	-3.8475573e-05
29	0xb6c21ed5	-5.78524e-06
30	0x39253960	0.00015757
31	0xb7d31c15	-2.5166237e-05
32	0xb7a31f19	-1.9445595e-05
33	0x38221699	3.8644856e-05
34	0x38f5100c	0.00011685499
35	0xb9042f0e	-0.0001260603
36	0x39241add	0.00015650266
37	0xb756434b	-1.2771062e-05
38	0xb851bfd7	-5.0008148e-05
39	0x37d758ba	2.5671314e-05

exp_avg_sq f4 [1, 40]
0	0x343762e1	1.7079175e-07
1	0x34c3a85f	3.6444087e-07
2	0x3587cde2	1.0118204e-06
3	0x35472d1a	7.419891e-07
4	0x35906bc1	1.0760197e-06
5	0x342cd799	1.6097182e-07
6	0x34d9ca61	4.056665e-07
7	0x353bdcf8	6.998448e-07
8	0x34109412	1.3464913e-07
9	0x34662d46	2.143689e-07
10	0x3455cd49	1.9911853e-07
11	0x33c117a0	8.99156e-08
12	0x34a9bb08	3.1614786e-07
13	0x34f2fcc6	4.525993e-07
14	0x34aa14a5	3.1679988e-07
15	0x359488f2	1.1066716e-06
16	0x33dafc14	1.0197269e-07
17	0x34a780b8	3.119983e-07
18	0x3591161b	1.0809775e-06
19	0x3555d79b	7.966243e-07
20	0x359d27d8	1.1709008e-06
21	0x3561c8d8	8.41113e-07
22	0x33bd0fed	8.803895e-08
23	0x35175169	5.637035e-07
24	0x34a21190	3.018763e-07
25	0x341c38e6	1.4549332e-07
26	0x3398d4dd	7.116771e-08
27	0x3489db42	2.567777e-07
28	0x34bf9401	3.568421e-07
29	0x34d3507f	3.936038e-07
30	0x34a4cd71	3.069686e-07
31	0x357c0d70	9.389687e-07
32	0x3521d8f5	6.029289e-07
33	0x3503ddcb	4.9124054e-07
34	0x33fbed9f	1.1731321e-07
35	0x34b167f2	3.304445e-07
36	0x35518aef	7.806074e-07
37	0x34326164	1.6612972e-07
38	0x3581a5ae	9.659468e-07
39	0x348cb8b1	2.6211413e-07

exp_avg f4 [1, 40]
0	0xbcaa835c	-0.02081459
1	0x3d9ac5b2	0.07557239
2	0x3e093b9a	0.13401642
3	0xbda3a374	-0.079901606
4	0xbe0ef7e0	-0.13961744
5	0x3d880433	0.06641426
6	0xbdb30469	-0.087410755
7	0x3dc008bd	0.09376667
8	0xbcf8c8ce	-0.030369189
9	0xbcde5ad7	-0.027142925
10	0xbd130079	-0.035889123
11	0xbadf2e53	-0.0017027355
12	0x3d92101c	0.07131979
13	0x3d823c25	0.06359128
14	0x3db7e644	0.089794666
15	0xbe157166	-0.1459404
16	0x3cdb3c6f	0.026762215
17	0xbd9608b6	-0.0732588
18	0x3e0662c0	0.13123608
19	0x3d9e340d	0.07724772
20	0x3e1bab0a	0.15201965
21	0x3de9f11e	0.114229426
22	0x3c14c78d	0.00908078
23	0x3de2459a	0.11048432
24	0xbd35a2aa	-0.04434458
25	0x3c6d2a9b	0.01447549
26	0x3ce02380	0.027360678
27	0x3d3aa421	0.04556668
28	0x3d5ef26a	0.054430403
29	0x3dab8006	0.08374028
30	0x3cf7b412	0.030237231
31	0x3e00d312	0.12580517
32	0xbde6be35	-0.11266748
33	0xbd8297c5	-0.06376604
34	0xbc54f2cf	-0.012997343
35	0x3d1d28b1	0.038368884
36	0x3cd0048c	0.025392793
37	0x3ca10e8f	0.019660262
38	0x3dface37	0.122463636
39	0xbd1dc9a5	-0.03852238
