lightning_logs/version_13/checkpoints/epoch=9-step=500.ckpt (torch, 330670 bytes, 33 tensors)

model.param_proj.proj.0.weight f4 [1, 40]
00000000: 2469 0e3b c88d e13d f707 a9bc 4726 683e
00000010: c38a 1bbe b1a3 4fbd 5e76 b8bb 44b0 63be
00000020: c1cd a1be 03f1 81be a6d1 7d3d 10c3 acbd
00000030: 9b6d 34be c77f 713d 80d3 5abe 8c8b edbd
00000040: 896c c73c c631 10be acd8 adbd 397a b03d
00000050: 4fab 673c 8098 09bd d79f f4bd 6f54 a6bd
00000060: 4e60 b93c 8446 b6bd 0cd0 d03c e1c2 eabc
00000070: 291e b4bd 3724 6e3d 1bf8 f23d bc6a 47be
00000080: 99a8 cebd 33e0 a9be 5a41 293c 5c3b 853d
00000090: b0a6 6bbd eead 80be 30e7 bebd 8c37 01bb
0.002173015 0.11013371 -0.02063368 0.22670852 -0.15189652 -0.050693218 -0.005629345 -0.22235209
-0.3160229 -0.2537919 0.061967514 -0.08435643 -0.17619936 0.05895975 -0.21369743 -0.11598882
0.024343746 -0.14081487 -0.084885925 0.08617062 0.014139964 -0.0335927 -0.119445495 -0.08121573
0.02262893 -0.089001685 0.02548983 -0.028657379 -0.08794815 0.058140006 0.118637286 -0.1947431
-0.10090751 -0.33178863 0.010330522 0.065054625 -0.057532012 -0.25132698 -0.09321439 -0.0019716946

model.param_proj.proj.1.weight f4 [1, 40]
00000000: 566e 97bd 3db2 0e3e c715 873d 18ae 413e
00000010: 09a2 4c3e e1d7 f63d f829 7cbc 19c8 35be
00000020: 7c91 be3d 51bb 38be ff53 313e c0bb 683d
00000030: 7bc5 3cbe 690b c9bd 1370 ae3d 0889 973d
00000040: 148c 04be 939d 00be 68f8 85bd 677c 163e
00000050: d31c 353e 1066 fdbd 74c1 21be d73a 01be
00000060: f926 05be f945 26be 18c8 c3bb 69d2 32be
00000070: 4aa0 ae3d f79f b93d bd6b 2ebe 8321 b43d
00000080: 23a8 b13d eec6 69be 9ad4 253e 09d3 613e
00000090: 0beb 993d b271 083e 6ec2 40be d45e 6dbe
-0.07394092 0.1393518 0.065959506 0.18914068 0.19983687 0.120528944 -0.0153908655 -0.17752112
0.09305093 -0.18040206 0.17317198 0.056819677 -0.18434708 -0.098166294 0.0851747 0.073991835
-0.1294406 -0.1256011 -0.0654152 0.14695893 0.17686777 -0.123729825 -0.15796453 -0.12620102
-0.13003148 -0.1623763 -0.005974781 -0.17463078 0.085266665 0.09063714 -0.17033286 0.08795454
0.08674648 -0.22829792 0.16194382 0.2205316 0.07515534 0.13324621 -0.18824169 -0.23180705

model.param_proj.proj.2.weight f4 [1, 40]
00000000: 63d7 ee3d 7d6b 693e 23f4 af3d cc39 29be
00000010: 0eab 063e d62f 7d3e e1a9 86be 03bd 523e
00000020: 26cb 9b3e 8935 873d d2c8 7e3d 52d3 6abe
00000030: 5c5f fe3d a010 78be b02f 8d3d eae8 9f3e
00000040: 062d 1a3e d38d efbd f5d3 703e 9248 873d
00000050: ee4a 563e aece 76bd 1338 423c 0b02 583e
00000060: ad9a 343e 1177 843e be8a 90be fabc 95bd
00000070: f3ac b53d 13ee b6bd 9dac 75bc 52b8 9a3e
00000080: 890a 3d3e 7a70 a83c 4926 b6ba eaee 223d
00000090: 5d90 51bd c203 d73d d625 0d3e 78e1 49be
0.116621755 0.2279491 0.08591487 -0.16525954 0.1315119 0.24725279 -0.26301482 0.20579915
0.30428427 0.06602008 0.062203236 -0.22932175 0.12420532 -0.24225092 0.06893861 0.31232387
0.15056238 -0.11696973 0.23518355 0.066056386 0.20927021 -0.0602557 0.011854189 0.2109453
0.17637129 0.2587209 -0.28230852 -0.07311435 0.08870878 -0.08932128 -0.0149947675 0.3021875
0.1846105 0.020561446 -0.0013896908 0.039778627 -0.051163066 0.104987636 0.13783965 -0.19714916

model.rnn.weight_ih_l0 f4 [160, 37]
00000000: 4ee3 083e aa21 643d 13db 52bd 0f7c 963b
00000010: 4d5b 6b3d 6feb 89bc 8dc6 10be 2809 4cbd
00000020: 4830 a2bd c849 1d37 a19f 253e 368f ca3d
00000030: 5c64 a63d bf7b bdbd 1fa7 053e 5a51 bbbd
00000040: 05f2 233d 14a5 e83d 69bf e7bd 775a f63d
00000050: 363b 0c3e 55b4 debc 1e14 a0bd 0b73 043e
00000060: b746 aabd 8a86 933c 289a 85bd 4423 8f3d
00000070: 2e4f 67bd 774f cdbd 7dd7 95bd 0677 143d
00000080: eb37 fcbd 2387 1b3e f28f 5dbe 64aa 94be
00000090: aa2a 25be a5da 8bbd c36f 833d 81ae d2bc
000000a0: ba89 193e f506 bd3d 3b74 49bc 1947 413c
000000b0: 1d2d e43b 643b b73c 0c87 edbd a18a 1d3d
000000c0: b21d 903d 0812 c73d 7b09 52bc 1312 b53d
000000d0: 12bf 293e c516 01bd 38db cebc ca70 093e
000000e0: 1236 9c3d 0d47 96bd 5781 f13d 8ea4 2c3e
000000f0: 0864 043e 0b45 f33d 1e6b 883d 6d68 323e
00000100: 2c1e 2b3e 8e93 c7bc ef23 d73d 1695 5fbd
00000110: 3ee0 17bd b6aa 1e3e af0d 1cbe 89b9 d83d
00000120: d153 573c 5b11 053d 092a b6bc 4b16 1cbc
00000130: e01f 30bd 5dd7 653d eb67 903c d44d 19bd
00000140: 8acf ec3d 9e7c ed3c 54ce fc3c 5532 bc3d
00000150: cd5a 603e 7bd1 233e 1033 95bd 012d 423e
00000160: 195d cc3c c9b3 68bd 974b 6cbd 79ae b83b
00000170: 8b74 0f3e 1194 083d 55fe 233e a49c 253e
00000180: 24d6 bb3d 342a 203e e1a4 023d 4eb1 5c3e
00000190: 4d98 f43d bc71 ae3c f0ca d03c cf34 94bd
000001a0: 75e0 cf3b 41e6 98bc 4f13 e5bc eeb7 56be
000001b0: 4d04 933b c336 2cbd 20aa dc3d 2114 0a3e
000001c0: 2b03 513e b4b9 a73d 3133 043d e2f5 263d
000001d0: 60c2 e23d 95fa 5d3c 9cc1 053e 9bd7 dc3c
000001e0: a8aa 533d 2590 173d 85de d83c d717 b9bd
000001f0: 8508 50bd f79e af3d 307d 54bd 9088 90bd
00000200: a72e e03d 6f67 083e 14be 3b3d 3f5e 0a3e
00000210: 763b 053e 74ac 7c3d 3776 b73d 2922 033e
00000220: 5b7c 613e 1b57 7a3e ffa4 12be ae6a 6abe
00000230: 2974 093c 7120 533d b2e6 453d 89e5 4dba
00000240: 0a44 5ebe 945d a0be f744 4a3c 02a8 513e
00000250: 8825 4ebd 6d30 873d b1a8 163e a982 c5bb
00000260: 54cc 303e 90f6 ea3d cd55 5c3e 6bd6 bfbb
00000270: ae05 82bd 93db 283e 345b d33d 7ca7 ebbc
00000280: 6c2e 0d3e e2c7 b3ba 1d1c 013e 183f c83d
00000290: ad00 2cbc 86b3 1a3e 4d03 bd3d 73db a53d
000002a0: 187e 8e3e ec33 c53d 7d0a 173e 50e3 b43d
000002b0: 945a 0bbe 1edc ae3d fc37 813d 8d02 913d
000002c0: fef2 3e3e b1c9 abbd 7d45 57bd a83a 7b3c
000002d0: d0ef 363e b6bc 8fbe a5bc 5bbe 69da 0a3c
000002e0: b4a1 79bc bfac cdbc bfc4 abbc 884c 1f3e
000002f0: 00c7 863d ef0c 9fbd f8f1 3f3d fb96 a5bd
00000300: 5160 a5bd 0961 843d afe0 9bbd bbc7 eabc
00000310: 78ef 123e cb4e c73d 9677 0f3e 2ab9 efbd
00000320: 83f9 383e 5882 46bd de61 da3d c551 ccbd
00000330: cde2 383e 3ef8 b7bd dd87 9a3d d2e3 df3d
00000340: be09 553e 54b8 cdbd f384 b2bd f64f 383e
00000350: ba2a 5b3c feae 673e 0806 d83d a848 3d3e
00000360: 47cf 4e3c acfd a4bc 7f06 65be 05a1 2e3e
00000370: 411a 32be c517 1cbd 0c13 ea3d 041d 4d3d
00000380: e7f9 fb3d 3ce7 513c b11a 093e 8e09 c03d
00000390: e35a 5fbe e5dd a13d 13a6 14bc 3096 013d
000003a0: 3d51 e8bd 152a 1dbe 3119 31be ac29 37be
000003b0: 5742 ecba e9e8 d53c d889 ef3d 3e02 dd3d
000003c0: 9a4e 7c3d f2e9 0abe 36e9 dcbd d53c 7b3d
000003d0: 665b 053e 44f5 703e 8ebf 57be 3ab6 ce3d
000003e0: 8809 59bb ebae 9fbe 04b8 bebd fa84 09be
000003f0: 4e9c b0bd 681e 703c 7b47 403d d025 433b
0.1336796 0.055696167 -0.051478457 0.0045924257 0.057460118 -0.016835896 -0.14138241 -0.04981342
-0.07919365 9.375108e-06 0.16174175 0.098905966 0.08124611 -0.09252118 0.13052033 -0.09146376
0.04002573 0.11359611 -0.113158055 0.120289735 0.13694462 -0.027185598 -0.07816337 0.1293451
-0.08314269 0.01800849 -0.065235436 0.06989148 -0.056471996 -0.10024922 -0.07316492 0.036246322
-0.12315353 0.1518827 -0.21636942 -0.29036248 -0.16129556 -0.068288125 0.06417801 -0.025717976
0.14993945 0.092298426 -0.012295778 0.011796736 0.0069633857 0.022367187 -0.11598024 0.038462285
0.07036914 0.09720236 -0.012819643 0.08841338 0.16576794 -0.031515855 -0.025251016 0.13421932
0.076275006 -0.073377706 0.11792248 0.16859648 0.12928784 0.11878403 0.06661056 0.17422648
0.16710728 -0.024362352 0.10504901 -0.05458554 -0.03707909 0.15494809 -0.15239595 0.10582263
0.013142542 0.032487255 -0.02223684 -0.009526799 -0.04299915 0.05611359 0.017627677 -0.03742774
0.115630224 0.028990086 0.030860104 0.091892876 0.21909638 0.15997879 -0.0728513 0.1896248
0.024946736 -0.05681208 -0.057689276 0.005636033 0.14009301 0.033344332 0.16014989 0.16173035
0.091717035 0.15641099 0.031895522 0.21552011 0.119431116 0.021294467 0.025487393 -0.07236635
0.006343896 -0.018664481 -0.027963309 -0.20968601 0.0044865967 -0.042044412 0.10774636 0.13484241
0.20411365 0.08189717 0.032275382 0.040761836 0.1107223 0.013548513 0.13062137 0.026958277
0.051676422 0.0370027 0.026473293 -0.0903775 -0.050789375 0.08575242 -0.0518772 -0.07057297
0.10946398 0.13320707 0.04583557 0.13512515 0.13010964 0.0616879 0.089580946 0.12806
0.22020094 0.2444729 -0.14320754 -0.22892258 0.008389511 0.05154461 0.04831571 -0.0007854333
-0.21705642 -0.31321394 0.012345544 0.20474246 -0.05032876 0.06601033 0.14712788 -0.006027539
0.17265445 0.11472809 0.21517105 -0.005854418 -0.063487396 0.16490011 0.1032013 -0.028766386
0.1378724 -0.0013716186 0.1260838 0.09777659 -0.010498208 0.15107545 0.09229145 0.08098497
0.27830577 0.09629044 0.14750095 0.08832419 -0.13608772 0.08538078 0.06309506 0.07080565
0.18647382 -0.08388079 -0.052556504 0.015333809 0.17864919 -0.28073663 -0.21458681 0.008474925
-0.015236307 -0.025106786 -0.02096784 0.15556538 0.06580925 -0.07766139 0.04686162 -0.08085438
-0.080750115 0.064638205 -0.07611214 -0.028659692 0.14349163 0.097318254 0.14010462 -0.11705239
0.18063931 -0.04846415 0.10663198 -0.09976534 0.18055268 -0.08982895 0.07545445 0.10932125
0.20804498 -0.100449234 -0.08716764 0.17999253 0.013376886 0.22625348 0.10548025 0.18484747
0.012622661 -0.020140491 -0.2236576 0.17053612 -0.17392828 -0.038108606 0.11429414 0.0500765
0.123035245 0.012811478 0.13389088 0.093768224 -0.21812014 0.07903651 -0.009072798 0.03163737
-0.1134362 -0.15348084 -0.17294766 -0.1788699 -0.0018025142 0.026112037 0.116962135 0.10791443
0.061598398 -0.13565806 -0.10786669 0.06133731 0.13023147 0.23531061 -0.21069166 0.10093351
-0.0033117253 -0.3118814 -0.09312442 -0.13429633 -0.08623563 0.014655687 0.04694317 0.0029777177

model.rnn.weight_hh_l0 f4 [160, 40]
00000000: 4d97 18be 87f6 d2bd 3351 a93d 1dfc 56bd
00000010: 91a1 e83d 8b5f 803c 1430 203e f67a 383e
00000020: 8e15 74bd ada9 6fbd ab2c d0bc bce9 18bd
00000030: f15b d83d 4acc 69be 956d e3bd 3cc2 d43c
00000040: 51ef c1be 8466 403c 3e28 b83c e4a8 02bf
00000050: 3d07 b4bc 0351 f7bd aaf6 37bd f2fd 18bb
00000060: 006a 8bbd e296 31bc 63f3 ce3e b4c5 f5bc
00000070: 23a1 0dbe 7003 17be e3bd a9bd 4560 4b3d
00000080: 32d5 883d 28f1 1abe 944d 9cbd 4508 d33e
00000090: 31b2 ffbd ba83 6bbe 75bd 47be 7899 353e
000000a0: 486d 0bbe fa66 37be 74f8 9abc 0d40 8fbc
000000b0: b1a0 19be 95a0 1a3e 47a5 36bd 2729 11be
000000c0: 14cc c4bd cbcb 093e e0eb 903d ea99 d1bd
000000d0: f618 333e f722 19be a4e0 013e e3ae 4c3d
000000e0: 2c6d e63d e8e7 84bd 9d0e c33c d6d3 303e
000000f0: 3042 513e 7b89 4d3d 381c 0e3e 6020 d63d
00000100: de82 0a3e 7788 9c3d 7968 813d bdda 183d
00000110: cff5 8e3d d0ef 0abe 6ec7 32be 52ea 0a3e
00000120: 1eae a23d 918a 123e 5813 0cbe 85ee 223e
00000130: cb3c a43d be86 a23c 7a4f 1cbd b753 663c
00000140: 9214 943d 04ee acbd 10c2 efbc 7225 ddbd
00000150: af79 7f3c 0a01 0cbc 9fcc a13d 5f7f 01be
00000160: 9777 a13c 5835 c73c 833a 4b3d a70b 073b
00000170: 0981 253d 9a14 b33d c9f2 a43d 25cd 9dbd
00000180: c5ca 4b3e b78c 233e b255 69be 7234 0e3e
00000190: c0ac 3cbd 4b7c 33be 1dd1 42bd 5489 1d3d
000001a0: 06d7 473e 24b4 ec3c 6364 8cbd 0ede 503d
000001b0: 034b 21bd 2f55 f23d 0a0f 8dba 74d8 0b3d
000001c0: 6e69 48be 0d85 fa3c 2bcf c23c fcdd ddbd
000001d0: e501 18bd 73c5 06be a0fc 1b3d 45f9 42bc
000001e0: f2ab a83e 6d15 96bd 4531 37bd a3a3 18bd
000001f0: 506d 20be 9876 2b3d 76f1 6fbd 1fad 863c
00000200: ecf8 36be 6243 823d a2b7 363e cffa 303d
00000210: 6ad2 37bc caf1 373e b670 24be f813 abbd
00000220: 0acc 593d ce3e 31be 53a8 98bc 6a9d 773e
00000230: be49 203e e2b4 9dbd 6e9e 043e f17d 123e
00000240: bb16 373d e3d9 463c 42db 9ebd 3e88 75bc
00000250: eaf9 d1bd 0b0f f43d 367c 27be e624 833d
00000260: e2ae 1dbe 2b0b 983e 81e3 333d 92a5 2bbe
00000270: f8dd 343e 5462 8e3d eb9c f33d ef64 a33d
00000280: caa8 96bd a3fb a0bd 4525 62be 9669 27bc
00000290: 6e50 0abe fe98 83bc 8481 50bd a4b5 42bd
000002a0: 6539 53be 027c 783e 78ce 593d 31b4 403e
000002b0: d254 e33d 8d62 c3bd d243 723d 653d 0d3e
000002c0: 5b98 db3b ff17 9f3d 0bff b1bc 94d8 e73d
000002d0: c1ce 6fbc 1e50 a6bd 085f 73bd 6372 4a3d
000002e0: eed3 1a3e b888 c5bd 4662 e03d 288d 803d
000002f0: 44f2 e53c 0b7b 4abe 048a 1cbe adae e7bc
00000300: 6b2e 743c 33e3 463e 53e3 11be 5fa1 71bd
00000310: 6bbd 773e 81e4 f5bd 9224 633d 7305 4fbd
00000320: ed3f b4bb 5adc 2abe 33ea 2cbe a665 94bd
00000330: f4da 433e ea3a 783d 3064 02be 6c67 183d
00000340: 2a57 bbbd 1b5e 5b3d fda0 dd3d 6392 f0bd
00000350: 1b5b 0a3d e5bf 2a3e 1103 d23d daf6 9cbd
00000360: f4b4 a53d cefc a03d cb24 26bd a44a b03d
00000370: 7d92 b0bd 937e 31bd c6c7 413c 55a1 1f3e
00000380: 0497 8f3d cffb f83d 6e1c 87bd b81b a53b
00000390: 29c1 0e3e 71a8 8dbd 7dbc 1bbe 3ec9 92bd
000003a0: 5b46 4fbe 5cc5 e4bc ad69 eb3d babf 45be
000003b0: 04c1 7ebd 6297 c73d a154 03bd 90df 32be
000003c0: 00d4 b83e f2e9 ccbd 6c67 ec3d 21e8 58be
000003d0: 1bc9 1c3e ea16 7a3c 11f4 1fbe c5f6 17bc
000003e0: 7395 47be 532e ff3c d42d d03c 619e 053d
000003f0: b92f 7f3e 60ba 393d d68d e7bc ed6f 4d3e
-0.14901467 -0.103009276 0.08267441 -0.052486528 0.11358941 0.015670558 0.1564334 0.18015656
-0.05959087 -0.058511425 -0.025411924 -0.03733228 0.105644114 -0.22831836 -0.111048855 0.025971524
-0.37877896 0.011743192 0.022480126 -0.51038957 -0.021976108 -0.12075999 -0.04491297 -0.0023344723
-0.06807327 -0.010839196 0.40420064 -0.030001499 -0.13831 -0.14747405 -0.08288171 0.049652357
0.06681289 -0.15131056 -0.07631984 0.41217247 -0.12485159 -0.22999468 -0.19505866 0.17734325
-0.13615906 -0.17910376 -0.0189173 -0.017486596 -0.15002705 0.1510032 -0.044591215 -0.14175855
-0.09609237 0.13456647 0.070762396 -0.10234435 0.1748999 -0.14954744 0.1268335 0.049971472
0.11251292 -0.06489545 0.02381068 0.17268309 0.20435405 0.05017994 0.13877952 0.10455394
0.13526484 0.07643216 0.06318755 0.03731798 0.06980478 -0.13568044 -0.17458889 0.13565949
0.079433665 0.14310671 -0.13679254 0.159113 0.08019408 0.01983964 -0.038161732 0.014058045
0.07230486 -0.084438354 -0.02926734 -0.10798158 0.0155929765 -0.00854517 0.079003565 -0.12646244
0.019710345 0.024317428 0.049616348 0.002060631 0.04040626 0.08744164 0.0805412 -0.07705144
0.19901569 0.15971647 -0.22786596 0.13887194 -0.046063185 -0.17527883 -0.047562707 0.038461044
0.19515619 0.028894491 -0.06855085 0.050993018 -0.039378177 0.11832654 -0.0010761928 0.034141973
-0.19571468 0.030581022 0.023780426 -0.10833356 -0.03711118 -0.13161258 0.03808272 -0.011900251
0.32943684 -0.073283054 -0.04472472 -0.03726543 -0.156667 0.041861147 -0.058579884 0.016439972
-0.17868394 0.063605085 0.17843488 0.04320794 -0.0112196 0.17963329 -0.16058621 -0.08353418
0.053173102 -0.17309114 -0.01863495 0.24181142 0.1565313 -0.07700516 0.12951061 0.14305855
0.04469941 0.012136909 -0.07756664 -0.014986096 -0.102527454 0.11916932 -0.16355976 0.06403522
-0.15398744 0.2969602 0.043918137 -0.16762379 0.176628 0.06952348 0.11895164 0.07978236
-0.07356413 -0.07860496 -0.2208453 -0.010218045 -0.13507244 -0.016064163 -0.050904766 -0.047536507
-0.20627363 0.24266055 0.05317542 0.18818738 0.111001626 -0.095402814 0.05914671 0.13792951
0.006701512 0.07768249 -0.02172806 0.11320606 -0.014636696 -0.0812075 -0.0594168 0.049425494
0.15119907 -0.09645218 0.10956244 0.062769234 0.028069623 -0.197735 -0.15287024 -0.028281534
0.014903645 0.19422607 -0.14246874 -0.058991786 0.24193351 -0.12006474 0.055454798 -0.050542306
-0.0055007846 -0.1668562 -0.16886215 -0.072459504 0.19126493 0.06060306 -0.12733531 0.037208006
-0.091474846 0.053556543 0.10821722 -0.11746671 0.03377829 0.16674764 0.10254491 -0.07664271
0.08091155 0.07860719 -0.040562432 0.086079866 -0.086216904 -0.0433336 0.011827415 0.15588887
0.07011226 0.12157404 -0.065972194 0.0050387047 0.13940872 -0.06916893 -0.15208621 -0.0716729
-0.20241682 -0.02792614 0.114947654 -0.19311419 -0.062195793 0.09745671 -0.03206313 -0.17468095
0.36099243 -0.10005559 0.11543164 -0.211823 0.1531109 0.015264252 -0.15620448 -0.009275143
-0.19490604 0.031150019 0.025412478 0.032621745 0.24920548 0.045343757 -0.028265875 0.20062228

model.rnn.bias_ih_l0 f4 [160]
00000000: 0e6d 8a3d f07d 5abd a7ad 173e 2053 bc3c
00000010: b855 6c3e dc5a a0bb 352c 2a3e 0129 213e
00000020: 0cca 3b3d 0365 5abd 102c 41bd f67b a8bb
00000030: cf24 d63c 0557 303e 6801 983d 5532 1b3d
00000040: 163b 95bd 48a5 afbd 2d4f 2ebc dec5 2f3e
00000050: c10e 3b3e ccb4 683d b269 96bd 1ec1 90bd
00000060: 747a 223e da0d 43bd d36d 863d 4c17 b13c
00000070: db40 c63d d5a4 533d 2b9a 67bd 3585 413e
00000080: d4d1 583d a737 043e bba7 f3bd 6d6a 523e
00000090: 10b9 413e 9499 28bd b60b 923d 60f4 6c3d
000000a0: 387c 243e 6e46 393e 5b45 6c3e 969b 16be
000000b0: a9b2 9e3c e1fc 4ebc 4803 58be cd32 abbd
000000c0: e629 233d 0274 14bb f64d 9c3c c42a c3bd
000000d0: 4bff 41bc 5123 f5bd 380c 07be 690c c03d
000000e0: 5d9b 183d 5882 d73c f578 a53d 4cae 25bb
000000f0: 77cb 91bd 2243 933d b93c cf3d 4622 ac3c
00000100: 769c 4abe d87e 7bbd 09b6 49be e5e8 36bd
00000110: 84b6 8f3b ea65 dd3d b637 17be 8f07 023e
00000120: f9db fbbd b609 a53d 75ec 9b3d c58f 07be
00000130: 6f8f b23d d919 e6bd 5551 7ebd 541f 823d
00000140: 9c51 31bd 29d6 1bbd c1fb 47bc be6b c33c
00000150: a8a8 dfbd 972c 7abd b54a 0cbe 8588 1ebe
00000160: 3ce0 f0bd 4bea 75bd 426f 033e 17f6 093e
00000170: 272b 31bd 37d0 d1bd be7b 8fbc eee6 ae3d
00000180: 68e4 91bc 1808 b33d bdfb 0dbc 336e 3ebe
00000190: 9aa2 94bd cf71 253e 6dd8 e3bd 651c 7bbd
000001a0: 097c 153d ea11 8e3d 1c22 333e 4ba0 10bd
000001b0: 6678 3a3c a1bc 80bd 72de 46bc 506e c23d
000001c0: d651 a03d dc80 a3bd 59e7 18be 1cb5 11be
000001d0: d899 08bd 4383 eebd 1c0a 943d 270b a03d
000001e0: da5e 923d 8e7f cbbd 2a23 4bbd 0014 9fbd
000001f0: 9e4f 773c 0d0c d3bd c3ad 5bba 5cca 61bd
00000200: 154d fc3d c373 803d 1016 a0bd 1d15 e73c
00000210: 78ec 733d 2623 053d f82c 81bd 1fb5 b33d
00000220: cc8f 403e 9cdd 6fbd 0591 a7bd 4a2e 103e
00000230: a2e6 a8bd 3611 583d 0682 183b 87eb 04be
00000240: 4037 373d 90f0 d8bd 9e26 96bd a43a cbbd
00000250: 751b bd3d 63cd 88bd 5aea b6bd 621a 02bd
00000260: 952a b33c 9152 48bd 0d6b c3bd 19dd b63d
00000270: 6ccf 043e a352 b63d 5ffd 063d 6c2c 21be
0.06759082 -0.05334276 0.14812337 0.022988856 0.23079574 -0.004893644 0.16618426 0.15738298
0.045846984 -0.05331899 -0.047161162 -0.0051417304 0.026140599 0.17220695 0.07422143 0.037889797
-0.072866604 -0.08576447 -0.010638994 0.17165324 0.18267347 0.056813046 -0.073443785 -0.07068084
0.15867025 -0.04762063 0.06563916 0.021617554 0.09680339 0.051670868 -0.05654351 0.1889847
0.052934483 0.12911855 -0.118972264 0.2054841 0.18918252 -0.04116209 0.0713114 0.05785024
0.1606301 0.18093273 0.23073332 -0.14707789 0.019372301 -0.012633533 -0.21095002 -0.08359299
0.03983488 -0.0022652154 0.019080143 -0.09529641 -0.011840652 -0.11969627 -0.13188255 0.09377367
0.03725754 0.02630727 0.08079711 -0.002528089 -0.07118886 0.07190539 0.10119004 0.021012437
-0.19786248 -0.061400265 -0.19698347 -0.0446557 0.004385771 0.10810454 -0.14767346 0.12698196
-0.12297816 0.08058493 0.0761346 -0.13238437 0.08718764 -0.11235399 -0.062089283 0.063536316
-0.04329072 -0.038046036 -0.012206019 0.023855086 -0.109208405 -0.06107768 -0.13700373 -0.15481766
-0.11761519 -0.060037892 0.1283541 0.13472782 -0.043254044 -0.10244792 -0.01751506 0.0854014
-0.017809108 0.08741778 -0.008665976 -0.18596725 -0.07257576 0.16156696 -0.11125264 -0.061306376
0.036495242 0.069370106 0.1749348 -0.035309117 0.011381244 -0.06285978 -0.012137996 0.09493697
0.07828109 -0.07983562 -0.14932002 -0.14229244 -0.03334984 -0.1164613 0.07228491 0.07814627
0.07146998 -0.099364385 -0.049594082 -0.077674866 0.015094666 -0.10305033 -0.00083800795 -0.055124626
0.1231939 0.0627208 -0.07816708 0.02820831 0.059551686 0.032504223 -0.06307405 0.087747805
0.18804854 -0.058560953 -0.08181957 0.14080158 -0.08247115 0.05275079 0.002327086 -0.12980472
0.044730425 -0.10592759 -0.073315844 -0.09923294 0.09233753 -0.066797994 -0.08931418 -0.03176344
0.02187089 -0.048906866 -0.09541903 0.0892889 0.1296975 0.089024805 0.032956477 -0.15739602

model.rnn.bias_hh_l0 f4 [160]
00000000: 3bec 823c ecf7 823d b2bf 1c3e f4b7 94bd
00000010: 5168 88bd 5f37 36bd 0524 733d 7fcb 1d3d
00000020: 62c0 893d 8e75 7f3c 4702 c33c ebc2 473d
00000030: 6503 91bd 3b0c ac3c f5fa a23d 9ec7 3e3e
00000040: 8de1 6f3e c437 77bd bf55 163e d235 823d
00000050: e7b6 aebd 8316 aabd b6e5 3bbd 25fe 433d
00000060: 53fe 2b3e 6e51 153e 67fd d6bc 793f a1bc
00000070: bf38 70bd 89bd 243e a844 283d 0730 023e
00000080: ffbd 343d abe8 2e3d 6e37 9cbd 47ac 363d
00000090: a8ec 623d 7a44 33bd ab2f 103c 1e4d 633b
000000a0: d425 6cbd 2826 07be 7ce3 763d b5a9 14be
000000b0: 6485 423d f505 dbbd 2633 c1bd eff5 243c
000000c0: fe63 173c 18a6 8bbd 9a3a 4c3c 90b4 25be
000000d0: 5a7c 593d a468 d83d 2912 1e3e 5c29 8fbd
000000e0: dcb6 a0bd 5930 673d 3803 0bbe 9367 703d
000000f0: c66b d03d 00ea bf3d a6a7 11be 9e9c fbbd
00000100: e01b 9abc 4a8b f13d bd21 36bd 56b1 87bc
00000110: 02fc 0bbe b22f f23d f00f debd 3321 b83d
00000120: 8157 3f3e 0cc4 58bd 3c65 963d 79ea 92bd
00000130: 9062 c7bc bd8d 01bd 7346 c03d cf8d dabd
00000140: 964c 593c 9f4e 963d 420a cabd 6d0c c3bd
00000150: ce6e 053d 81aa c53d 6228 093d 0d97 b9bd
00000160: 2444 1cbd 76ea d7bd 0edb 2e3e 718c bb3d
00000170: 1de1 69bd 6e75 993d d2d8 17bd dfd7 0f3e
00000180: fb53 82bd 2a47 a6bd 8c5a 94bd ce1e a7bc
00000190: df22 b03c a6a1 8dbd 5af0 0c3e bc55 2e3e
000001a0: 1e46 58bd baec 4cbe 30bf 733d 0fd5 8f3b
000001b0: 116f 153d adb7 ccbd 7884 a43d b9b6 d0bd
000001c0: 9acb 0d3e 3cd4 473d 4ddd 03be 4fbd 0b3d
000001d0: 30cd fcbd 85e5 ecbd 3c4e bf3d b084 91bd
000001e0: 678d 4f3d ced2 bbbd 159e a33d e255 863c
000001f0: 348e 253e 40e0 bdbc 5098 a53d 7cf0 17bd
00000200: bf85 8b3d 657f 933b 623e b83d a43b 58bc
00000210: b62d d23d f19f f1bd 3b26 04be ddc4 d43d
00000220: 7766 ca3d 1996 9bbb eed7 eabd 6a48 543d
00000230: 80d1 b13d 9e65 6ebc 6671 0dbe 707b 383e
00000240: 2f99 923d 0b9a 0c3e f5f4 9a3d 65ff 20be
00000250: 31ff efbd 40d8 173d a9a8 f53d 1013 07be
00000260: 4e85 e0bd a818 9abd 0a6e 24be 7f0f 9cbd
00000270: 2beb cd3c ca7e af3c 67d9 9ebb b59b 0bbe
0.015981784 0.063949436 0.15307501 -0.07261649 -0.06660522 -0.0444864 0.059360523 0.038524147
0.06726147 0.015591992 0.023804797 0.048769873 -0.070807256 0.021001926 0.079580225 0.18630835
0.23425885 -0.060355917 0.14681147 0.06357922 -0.085309796 -0.08305075 -0.045873366 0.047849793
0.16796236 0.14581844 -0.026243879 -0.019683586 -0.058647867 0.16087927 0.0410811 0.12713633
0.044126507 0.04270236 -0.0762776 0.04459789 0.055401474 -0.043766476 0.008800427 0.0034683417
-0.057653263 -0.13198149 0.06027554 -0.14517863 0.047490492 -0.106944956 -0.09433584 0.010068401
0.009240149 -0.06818789 0.012465144 -0.1618216 0.053097107 0.105668336 0.15436615 -0.069903105
-0.07847378 0.056442592 -0.13575447 0.058692526 0.10176806 0.09370804 -0.14224109 -0.12285732
-0.01881212 0.117941454 -0.04446577 -0.016564053 -0.13670352 0.118255034 -0.108428836 0.08990707
0.18685724 -0.05292134 0.07343528 -0.07173628 -0.02433899 -0.031629313 0.09388437 -0.10671579
0.013262888 0.073392145 -0.09865238 -0.095238544 0.032576375 0.09651662 0.033485778 -0.09062014
-0.03815092 -0.10542767 0.1707575 0.091576464 -0.05709945 0.07493101 -0.03707201 0.14047192
-0.06363674 -0.08119042 -0.07243833 -0.020400431 0.021501003 -0.069155976 0.13763562 0.17024893
-0.052801244 -0.20012179 0.059508502 0.0043894122 0.036482874 -0.09995971 0.08033079 -0.101911016
0.13847199 0.048786387 -0.12877388 0.034116086 -0.12343824 -0.11567215 0.09341094 -0.07105386
0.05067196 -0.09171067 0.07989136 0.016398374 0.16167527 -0.02317822 0.08085692 -0.03709458
0.068126194 0.0045012706 0.089962736 -0.013197813 0.10262625 -0.117980845 -0.12905209 0.10389111
0.09882825 -0.0047481176 -0.114669666 0.051826872 0.08682537 -0.014550595 -0.1381279 0.18015838
0.07158124 0.13730638 0.07566253 -0.15722425 -0.11718596 0.037071466 0.1199506 -0.13190866
-0.10962926 -0.07524234 -0.16057602 -0.07620143 0.02513655 0.021422762 -0.0048476937 -0.13633616

model.rnn.weight_ih_l1 f4 [160, 40]
00000000: e877 21bd 9c08 f0bd f810 1cbe e393 a5bd
00000010: 6743 96bd 95cd 413e 4852 bebd 95ba 18bd
00000020: fe22 293e bc58 383c f8f7 833c 3f7d eb3d
00000030: ddbb 2b3e 2cab 65bc 0c1b f0bd 5a52 8d3d
00000040: 063b 06bd 47a1 593e be65 1cbc 5e55 99bd
00000050: 007e a4bd 3183 a53c 696e e7bc 1f34 ea3d
00000060: 49ec ecbc 946e 44be a526 0ebe 049e 2f3e
00000070: 77d5 e03d 6f9d b4bc 2c74 8a3c dcf1 0e3e
00000080: 031c 1e3d 15fd 283e 0ef7 03bd f6b7 57bd
00000090: 76ca 233e b45b b3bc 9143 483d cf0b 4ebe
000000a0: 8ce3 6abd a59b 703d 0880 c5bd fbac 2abd
000000b0: 19ae b4bc d284 d13d 67b2 29be a470 52be
000000c0: 5e09 0bbe 39a6 69bd e3df 24bd 5d3e a2bc
000000d0: 5611 513d de87 86bd b76a 9fbd f0a6 8d3d
000000e0: fdce 2a3e 0ea3 2f3d 7d63 743d 29d9 183e
000000f0: 90eb e23d 2b78 ec3c 796f fc3d 11ce 4e3e
00000100: 69fb c6bd 39e7 193b 8740 bbbd 4b83 e4ba
00000110: a2cd 243e 514c a2bd 72e1 3a3b 79a4 23bd
00000120: 4266 ebbd c710 2f3d cf54 1cbe 5f1c 48bd
00000130: 2cd6 b2bc 82bd a43d f236 9b3d 759a 52bd
00000140: b850 763d c303 8fbd 415e acbc 6eea e1bd
00000150: d2ec 993d be4e bcbd 0e1e 23bd 2f1b 153d
00000160: ee83 bcbb 020c 423e 6279 edbd 0b39 673d
00000170: 5e49 823d 1a9f c53c f721 d7bd 4354 e13d
00000180: c961 0dbd df27 b83a 7466 0f3e aa47 763e
00000190: 7560 193e 9722 3cbe 8ff7 763d 3c7e 563c
000001a0: a3de a53d 4602 e0bd 684a 41bc 3efd 7dbc
000001b0: 2686 123e 45a6 1f3e b436 54bd 788c b33a
000001c0: 6635 d7bd 99ea 6dbd b544 ee3d 13cc fa3d
000001d0: 2461 d2bd da45 1b3e cbec 253e 23a6 9dbd
000001e0: 78d8 ccbc a611 d53d 1a70 26bd ebb7 43bd
000001f0: c260 6bbd 2504 e2bd d272 0abe 7b92 8ebd
00000200: 1a23 113e a658 99bd 9e9f 923d 249f ffbd
00000210: 03e7 cebd ea57 63bd b248 be3c 0362 a63d
00000220: 0290 223e 008a 6cbd 4cd5 d3bd 91ea 4a3c
00000230: 316d 8a3d 79fb 43be 657d d13d 35cf 95bd
00000240: c606 433e 7684 37bc 4182 23bb 2cd6 a2bd
00000250: 3c44 afbd fdff 073e 1381 43bc 4fd0 47bc
00000260: ceb7 5b3d 548d 743c c60f d1bd fa80 87bd
00000270: 9c22 363d 31c8 96bc 37e1 953d 7b11 9e3d
00000280: e01e c7b8 21f9 7fbc 3a21 06bd f3ba fbbc
00000290: 097b 9e3d a29b 943c 61a7 023e 94d3 19bd
000002a0: 55f1 953e cff6 76be d400 2dbe cc39 01bd
000002b0: edfc 0a3e 5a05 00be 21b6 60be bcbf 6f3c
000002c0: 6464 473e feed 8abd 50cc 243e f5d9 343e
000002d0: fe25 6b3d 621d 213d ed69 483e 3594 b93d
000002e0: 7053 833e 7f26 58bd 139b 54be bfe4 ac3d
000002f0: d3ce 603e 7aa3 cf3d 17f2 e23b 93e7 8f3d
00000300: ac73 42bc 3d7f 9cbd d7a9 2abe 45a2 183d
00000310: b726 7d3d a73e 113e 70a7 1abe e9cd 27be
00000320: 67fb 9f3d 9be7 32bd 0a54 adbd 21ab b3bc
00000330: 3e3e bfbd b54e 2a3e 746c 22bc 60e9 203d
00000340: 7021 173e 3c7e c73d e217 f23d 98d0 05bb
00000350: 8677 6e3d 94ca 89bd 31c1 bf3d e3e0 263e
00000360: afce abbd 90e2 09be d4ad 083e 41c6 803d
00000370: 65b3 a1bd 3f12 9abc a70d ff3d 856a d73d
00000380: d40b fd3d 5860 403d 2a3f 22be 2a2d 15bd
00000390: 8660 9b3d 40eb bebd 1c6a 7c3d 631f ee3d
000003a0: 89ef 29bd f126 92bd bdcf 29be b9c5 cebd
000003b0: aef2 0d3e 7f33 b13c da4f 66bd 3522 41be
000003c0: ba86 4d3c 51c4 13bd bc51 34be cce8 3c3e
000003d0: de62 eabd c013 2bbe 9898 b33d 55d6 c23d
000003e0: dd67 63be 790e 3e3e d326 453e 498b 263e
000003f0: 370f 08bc 9036 d53d 3e86 713d b5c5 d93c
-0.039420992 -0.11720392 -0.15240848 -0.08084848 -0.07337075 0.1892608 -0.09293038 -0.037287313
0.16517255 0.011251625 0.016109452 0.11498498 0.16770883 -0.014017861 -0.11723909 0.06900473
-0.032771133 0.21252929 -0.009545742 -0.074869856 -0.08031845 0.020204158 -0.02825089 0.114357226
-0.028921263 -0.19182807 -0.13881929 0.17150122 0.10978215 -0.022047726 0.016901098 0.1395945
0.038600933 0.16502793 -0.03221803 -0.052665673 0.15995201 -0.021894313 0.04889256 -0.20121692
-0.05734591 0.058742184 -0.09643561 -0.041668873 -0.022055672 0.102304116 -0.16571961 -0.20550781
-0.13577792 -0.057043288 -0.040252578 -0.019805128 0.051041923 -0.06568883 -0.07784026 0.069166064
0.16680522 0.04288011 0.059665192 0.1492659 0.11080086 0.028865894 0.12325949 0.20195796
-0.097159214 0.0023483767 -0.09143167 -0.0017434148 0.16094068 -0.079247124 0.0028515724 -0.039951775
-0.114941135 0.04274061 -0.15266727 -0.04885518 -0.02183064 0.08043958 0.07578839 -0.051416833
0.060135573 -0.06983139 -0.021041038 -0.11031042 0.07515873 -0.091947064 -0.039823584 0.036402877
-0.005753032 0.18949893 -0.115954176 0.056450885 0.0636165 0.024123717 -0.10504525 0.110024
-0.034517083 0.0014049968 0.14003927 0.24050775 0.14978202 -0.1837257 0.060294684 0.01309162
0.08099105 -0.109379336 -0.011797525 -0.015502272 0.14308986 0.1559077 -0.05180998 0.0013698479
-0.10508232 -0.058085058 0.116341986 0.12245955 -0.10272434 0.15163365 0.1620361 -0.07697704
-0.025005564 0.10403757 -0.040634252 -0.04778282 -0.057465322 -0.11035947 -0.13520363 -0.06961533
0.14173546 -0.074876115 0.07159351 -0.124815255 -0.10102656 -0.055503763 0.023228023 0.08124163
0.15875247 -0.057748795 -0.103434175 0.012385027 0.06759108 -0.19138898 0.10228995 -0.07314912
0.19045553 -0.011201015 -0.0024949464 -0.07951006 -0.085579365 0.13281246 -0.011932629 -0.012195661
0.053642087 0.014926273 -0.10208087 -0.06616397 0.0444666 -0.018406006 0.07318347 0.07718178
-9.4948104e-05 -0.015623362 -0.03274653 -0.030728793 0.07738311 0.018140618 0.12759162 -0.037555292
0.29285684 -0.24117588 -0.16894847 -0.03154926 0.13573046 -0.12502041 -0.21944477 0.014633115
0.1947189 -0.06783675 0.16093564 0.17661269 0.05740928 0.039334662 0.19571657 0.090614714
0.25649595 -0.052771088 -0.20762281 0.08442067 0.21953897 0.101386026 0.006925832 0.07026591
-0.011868399 -0.07641456 -0.16666351 0.037264127 0.0618045 0.14184056 -0.15102935 -0.16387142
0.07811623 -0.043677907 -0.08463295 -0.021932187 -0.09338044 0.16631587 -0.009913553 0.039285064
0.14758849 0.09740874 0.118209615 -0.002041852 0.058219455 -0.06728092 0.0936302 0.16296725
-0.08389031 -0.13465333 0.1334756 0.06287814 -0.07895545 -0.018807529 0.12453776 0.10518364
0.12355772 0.04696688 -0.15844408 -0.036420025 0.0758677 -0.09322214 0.06162463 0.1162708
-0.041488204 -0.07136334 -0.16583152 -0.10096306 0.13862106 0.021631 -0.056228496 -0.18860705
0.012544328 -0.036075894 -0.17609304 0.1844818 -0.11444639 -0.16706753 0.08769339 0.09513537
-0.2220759 0.18560208 0.19253092 0.1626407 -0.008304409 0.104107976 0.058965914 0.026583532

model.rnn.weight_hh_l1 f4 [160, 40]
00000000: 1318 cabd d4f8 70bd dbf2 0f3e c5dd b23d
00000010: 72e6 1a3e ecbd 063d c487 b93d 67ad 2abe
00000020: 0fb5 113d 7494 dcbb c677 333e cbba 70bd
00000030: 8b3a 443d 9692 2e3e d886 04be af1e d03d
00000040: f71b 58be afb6 833d c1af 303c d25c f8bd
00000050: 7654 693d 8697 eb3d 6e89 3b3d 379a ab3c
00000060: 27c8 b9bd 5bd2 dcbd ba36 0ebd f68e a5bc
00000070: 2898 a2bd 2328 1d3d 3d67 df39 7407 173e
00000080: f439 7bbd f5f9 2a3d c59a 37bd c60f b3bc
00000090: 4867 27bd e82b a53c 8d77 97bd d216 903b
000000a0: 39d6 bdbc bd65 d23d ef0d 1bbe 3d00 09bd
000000b0: 84e5 e63d 7516 253d bfd1 debc a83b 12be
000000c0: b484 4abe a44f 04be 3d3a 68bd d929 aa3d
000000d0: f099 0abd 4415 1d3e 9a8c a83c c57a 62bd
000000e0: b2ec 6cbb 7cf5 61bd 56a5 0bbe ab3f 2c3e
000000f0: b332 833d a59c 313d 5a00 94bd b578 3ebd
00000100: 922e 533c 427d 803d 2f76 93bd eba3 2bbd
00000110: 41fe a5bd 44ba 10bc a750 aebd 6801 04be
00000120: 42cb 4abd 0827 37bd 85d4 82bd 34d2 bc3d
00000130: e941 853d 82db 6fbd e04c 1ebe 0146 19be
00000140: 8669 0c3d 9d3b 2dbd 263d 273d 2a7a 253e
00000150: 1781 2abd 4845 44ba 351f 63bd 02ad b4bd
00000160: c779 06be 2a43 c138 2498 13be 94d1 b2bd
00000170: 4ea5 b4bd 6b3c 7c3d e2e6 14be 545d 813d
00000180: 779f c83b d1b4 c2bb 5c93 3fbd 55f5 333e
00000190: e2b3 473d 3d90 16bc 0a63 133e c24c b3bd
000001a0: 0154 c2bd 06eb 773d 3117 713d 1d34 053d
000001b0: 7f38 863c 5cb4 163e e8f8 c7bd fdad 113e
000001c0: 563d 11bd f190 0b3e f641 ec39 75ed 26be
000001d0: 1bca f6bc da7d 91bd 1edc eebd 90e0 11bd
000001e0: 141c 9dbd 771c 22bd 155e 49bd e875 d33d
000001f0: bcc9 c8bd 4189 04be 2c97 09bc ab32 163d
00000200: d628 13be 4555 ecbd b653 c1bd 9fac 8dbd
00000210: ce13 983c 973b 063d 34b2 e23c c1e1 7abd
00000220: b551 c43d dba6 aa3d 9846 46be deb0 05be
00000230: bd76 d93d 535e f2bd c1c8 38bd ef44 42be
00000240: a274 723c 0d69 6fbd 12a1 513d cf8b d6bd
00000250: 1a59 36bd 14e4 bfbd 52ae ac3c 6d5c 203d
00000260: 0b7c 9c3d 816b 8d3c e9ef c63c 3414 aa3d
00000270: 78ad 0d3e 9ce6 8dbd f5d3 11be 34be 17be
00000280: 395d 60bd b6c7 cbbd 4ae7 153c 5316 c4bd
00000290: 5a2d 4a3d 2843 2c3d b872 1cbe 691c 4dbd
000002a0: a36f c0bd 051c 9abc 2e64 87bd 033d aabd
000002b0: 49de 92bb 8dce f33c 9aa6 19bd d6d7 773d
000002c0: 14a5 3abd 8b67 3cbe 4246 15be a47a 063e
000002d0: d733 863c 2d80 e23c 4d70 75bd 84a8 6c3c
000002e0: 28ba d13d 0fc6 b7bc 851b 923d 3f26 f83d
000002f0: a692 25be 0cd5 153d b656 1cbb 433f ecbd
00000300: 0e10 1a3e 8aab 72bd a077 10bd cbae c43c
00000310: c727 393e 7579 4bbe f9de 663d 08c6 d7bc
00000320: fb53 da3d 26b6 1e3d 8bac f73d 1dc2 9dbd
00000330: 0b2a e93d 1f79 7a3d 4d4b 6f3d 2f78 e33d
00000340: 285e aabc dd18 d1bd 0576 0c3e 5af6 2e3e
00000350: 228a 94bc c443 5dbc b3c7 b13d 68f7 003d
00000360: 97b8 ccbd 2b06 09be b57f 33be 16fc 4abd
00000370: 6d9a 0a3e 0c67 94bc bf77 4bbd 1a64 e43d
00000380: db94 d2bd 77de a6bc 4a4d ac3d 42fd 0fbe
00000390: a9c8 b33b 258e 3a3e 5158 e6bd ae3a 2fbe
000003a0: a7a6 92bd ea98 843d 68b9 a2bc 1deb 0f3e
000003b0: 2962 ef3d 94ff 233d 6e5e 4dbd 7692 1b3d
000003c0: 4763 99bd 4eac 12be 59e7 73bc 9a02 fabd
000003d0: 355b c23d 4278 1fbe 3c66 70bd bcf7 3cbd
000003e0: 1c64 f9bd 98c5 753d d48a 063c 481c 963d
000003f0: c6b8 0cbe 621c 24bc b569 75bd baeb c83c
-0.09867873 -0.05883105 0.14057486 0.087337054 0.1512697 0.032895967 0.09059098 -0.1666771
0.03557306 -0.006731564 0.17526159 -0.05877189 0.047907393 0.17048106 -0.12942064 0.101621024
-0.21104418 0.064313285 0.0107840905 -0.12127079 0.056965314 0.1150351 0.04578536 0.020947559
-0.09071379 -0.107823096 -0.03472016 -0.02020977 -0.07939178 0.038368355 0.00042610793 0.14748937
-0.061334565 0.041742284 -0.044825334 -0.021858107 -0.04086998 0.020162538 -0.073958494 0.0043972516
-0.023173438 0.10273311 -0.15142034 -0.033447493 0.112742454 0.04030462 -0.027199624 -0.1428057
-0.19777185 -0.12921005 -0.056696165 0.08308763 -0.033838212 0.15340143 0.020574857 -0.055292863
-0.0036151824 -0.055165753 -0.1363729 0.16821162 0.064061545 0.04336228 -0.072266296 -0.046501834
0.012889521 0.06273891 -0.07200276 -0.04190437 -0.08105136 -0.008833472 -0.08511477 -0.12891161
-0.049510248 -0.044714957 -0.06388191 0.092197806 0.06506712 -0.05855895 -0.15459013 -0.1496811
0.034280322 -0.04229318 0.0408298 0.16159883 -0.041627016 -0.00074871304 -0.055449683 -0.08822061
-0.13132392 9.2154674e-05 -0.14413506 -0.0873138 -0.08820592 0.061581057 -0.145412 0.06316629
0.0061225253 -0.005941965 -0.046771392 0.17574055 0.048755534 -0.0091896625 0.14393249 -0.08754875
-0.09488679 0.06052687 0.058860008 0.032520402 0.016384361 0.14717239 -0.09764272 0.14226528
-0.035458885 0.1362951 0.00045062572 -0.1630152 -0.030125668 -0.071040824 -0.11663078 -0.03561455
-0.07671371 -0.039577927 -0.04916199 0.10325223 -0.09804103 -0.12942983 -0.008397859 0.036669414
-0.14371046 -0.11539701 -0.09439795 -0.069176905 0.018564131 0.032771673 0.027672864 -0.061250452
0.09585897 0.083326064 -0.19362867 -0.1305575 0.10618351 -0.11834397 -0.04511333 -0.18971609
0.014798315 -0.058449794 0.051179 -0.10475885 -0.044518568 -0.09369674 0.021079216 0.039150644
0.07640847 0.017263176 0.02428432 0.08304635 0.13835704 -0.06928751 -0.14241011 -0.1481865
-0.054776404 -0.09950201 0.009149382 -0.095745705 0.049359657 0.042056233 -0.15278137 -0.050075922
-0.09396293 -0.018812189 -0.06610905 -0.08312418 -0.004482065 0.029761577 -0.0375124 0.06050857
-0.045567587 -0.18398874 -0.14577582 0.13132721 0.016382141 0.02764901 -0.05992155 0.014444474
0.102405846 -0.022433309 0.07134155 0.1211667 -0.16169223 0.03658013 -0.0023855395 -0.11535504
0.15045187 -0.059245624 -0.035270333 0.024009129 0.1808158 -0.19870551 0.056364987 -0.026339546
0.10660549 0.03874793 0.12093457 -0.0770304 0.11384972 0.061150666 0.05842142 0.111069076
-0.02079685 -0.102098204 0.13716896 0.17086163 -0.018132273 -0.013504926 0.08680668 0.031485945
-0.09996145 -0.13381259 -0.17529185 -0.049556814 0.13535471 -0.018115543 -0.049674746 0.11151905
-0.10282298 -0.020369751 0.08413179 -0.14061454 0.005486567 0.18218286 -0.11247314 -0.17112228
-0.07160693 0.064744785 -0.0198638 0.14054532 0.116886444 0.04003866 -0.050138883 0.037981473
-0.07489639 -0.14323542 -0.014886701 -0.122075275 0.094900526 -0.15573218 -0.05869125 -0.046134695
-0.121772975 0.060002893 0.00821181 0.07329613 -0.1374236 -0.010016533 -0.059915263 0.024526466

model.rnn.bias_ih_l1 f4 [160]
00000000: e451 b83d ee85 3f3e 945e 283e 9578 223e
00000010: c4c4 883d c9fe 86bb 9e34 9e3d c24c e43b
00000020: ac60 90bd 8e16 333c 5d3a eb3d a661 bc3d
00000030: ef0a 233e 19b9 113e 76b1 1bbe 4f9a 203e
00000040: abc8 26bc e993 a93d d114 b13d b8f4 0a3e
00000050: 5503 6cbd b49d 773b 5cd7 e03c cecb d2bc
00000060: 4602 48bd 770a 633e c4db 8d3d db54 fb3c
00000070: ea3f 00be e7dd 573e 6475 993d 97c0 db3d
00000080: 81ec 213e 1245 48bd 0cab c6bd d3cf d4bd
00000090: 2b53 8e3c 314e 403e 3264 32bd 93ad 233e
000000a0: c4f4 573c c420 33bd 9d5c cd3d 0bf3 183e
000000b0: 31b7 f63d d1da f63d db1c ed3a 8ac1 0a3d
000000c0: 947c edbd 1546 f3bc a380 8f3c 8a12 b3bc
000000d0: 2dbc bc3d f408 f1bd 33ee ac3d 5c3a 4bb9
000000e0: f84f 11bd f9a0 b8bc 8f4e 83bd 312d 3cbd
000000f0: 44a3 0ebe 52f3 213e f8fc 04be 5b0f bb3c
00000100: f319 1d3e 3a11 f33d b049 83bd ac6a 7fbd
00000110: 79e9 05bd 278c b33d f190 233e 1b93 903d
00000120: 854c 18bd c4a5 4ebc 2471 3d3d 6516 133e
00000130: 218b 5c3d f226 6ebc a992 673d 90ba 263e
00000140: 6bff 99bd 76f7 863d 3b9d e9bb 2473 3d3e
00000150: c2d8 f5bd 3905 2b3d b536 a63c 3ef2 d5bb
00000160: 6226 f4bd 13f0 be3d 0e80 1d3e 8592 9e3b
00000170: e44e 1d3b 74b8 0c3e 3193 fcbd 9b90 03be
00000180: 6370 233d 8be4 5fbd d095 0ebe 3d6e c83d
00000190: 83d7 303d c537 04be 503d d3bc 87f0 71bd
000001a0: fab8 2bbe 0b9c 65bc 621e b53d bc21 5e3c
000001b0: b757 763d 8412 9bbd c3c9 98bd 19d5 57bd
000001c0: 9631 883d 01a5 693d 1501 94bc 1394 8bbd
000001d0: ac03 1abd 68b8 023e e5fd 0dbe 36ef 6fbd
000001e0: 10d1 5a3e 6340 c73c 00cd 853d 187a af3b
000001f0: bc1a 1cbc 30bd b6bd 8187 a93d d068 55bd
00000200: 9346 663d d56d b0bd 4570 1fbc 31ad 143e
00000210: 083f 983c af58 133e 7d9b 043e b7ef 0abd
00000220: b755 343e 005f 33be a4c2 113e b11c c53d
00000230: f749 50bd c142 adbd 56eb b83d 8141 453e
00000240: 7887 c63d 16dc 72bd d494 e3ba b1db cabd
00000250: db3c 0b3e 4771 3e3d 03b3 3fbd 8a98 d93d
00000260: 816b 073d ce0d f1bd cb40 e5bd cd1a dd3d
00000270: 8989 233e a40c d53d b898 84bd 3be0 e0bd
0.089999944 0.18703434 0.16442329 0.15866311 0.06678155 -0.004119728 0.0772488 0.006967158
-0.07049689 0.01093067 0.11485741 0.091983125 0.1592214 0.14230765 -0.15204415 0.15683864
-0.010179679 0.08280165 0.086465485 0.13569915 -0.057620365 0.0037783207 0.027446441 -0.025731947
-0.048830293 0.22171961 0.069266826 0.03068011 -0.12524381 0.21080743 0.074930936 0.10730093
0.15812875 -0.048893996 -0.09700593 -0.10391202 0.017373642 0.18779828 -0.043552585 0.15984182
0.013180915 -0.04373242 0.1002743 0.14936464 0.1204666 0.12053455 0.0018090265 0.03387598
-0.11596027 -0.029696504 0.017517393 -0.021859426 0.09215579 -0.11769286 0.084438704 -0.00019381329
-0.035476655 -0.022537695 -0.06411468 -0.045941535 -0.13929468 0.15815476 -0.12987125 0.02283447
0.1534193 0.1186852 -0.06410539 -0.06235759 -0.03269336 0.08766966 0.1597326 0.07059308
-0.03718235 -0.012612764 0.046250477 0.14364012 0.05384362 -0.0145356525 0.05653635 0.16282105
-0.0751942 0.06590168 -0.007129339 0.18500954 -0.12004234 0.041753028 0.020289758 -0.0065291217
-0.119213834 0.09323134 0.1538088 0.004839244 0.0024003321 0.13742238 -0.12332762 -0.12848131
0.039902102 -0.054661315 -0.13924336 0.09786651 0.043174278 -0.129119 -0.025786072 -0.059067275
-0.16769782 -0.014014254 0.08843686 0.013557848 0.060142245 -0.07571891 -0.07460358 -0.05269346
0.06650083 0.057042126 -0.018066922 -0.06815352 -0.037601158 0.12765658 -0.13866384 -0.05857774
0.21368814 0.024322694 0.06533241 0.005355131 -0.009527858 -0.089228034 0.082777984 -0.05210191
0.05621965 -0.08614699 -0.009731357 0.14519192 0.018584743 0.14389299 0.12949939 -0.033920016
0.17610823 -0.17516708 0.14234406 0.09624613 -0.05085179 -0.08459998 0.09029262 0.19263269
0.09693807 -0.05929192 -0.001736308 -0.09905184 0.13597433 0.04649475 -0.04680158 0.10624798
0.033061508 -0.11770211 -0.11193999 0.107961275 0.15970434 0.10402802 -0.06474441 -0.109802686

model.rnn.bias_hh_l1 f4 [160]
00000000: 2fe4 613c 569a 203c 6194 193e 1528 26bd
00000010: b815 0f3e 8309 81bc d815 f03d 8cc4 81bd
00000020: 374c 5cbd 38b1 71bd f60e 27bd 4b77 963d
00000030: 9b8b 153e bf04 463e 3672 4e3d 6f52 793e
00000040: b872 dc38 c9d1 9fbd 0aba 3d3e d730 a0bd
00000050: db41 4c3d 53e5 1a3d 0fab 01be 9221 75bc
00000060: b8a9 ae3c e1fb 13bd ca3d e2bd 4a95 533e
00000070: 6aa9 ee3d 9761 d2bc 01d6 0a3d a33c ca3d
00000080: 18bc eb3d 122f d43d 423d 13be 8e66 c53d
00000090: 6b04 1c3e 8d12 1b3e a9e7 7bbc 917a 223e
000000a0: a812 80bd b4b9 203e 840f f23d 9bb7 3c3e
000000b0: 2ef8 d4bd b498 563e 9269 69bd e19d 7ebd
000000c0: 1ee7 c23d 8686 8fbd f58c 333d bf42 073d
000000d0: ab0d f9bd f3f9 9cbd eafc c0bd 2fb4 563e
000000e0: 99a0 903c 509d 24bd 76f9 103e 5b9a 513d
000000f0: 9636 3bbd 0f1e 85bd f949 1dbd ecef ac3d
00000100: 55c9 a9bd b057 d53d 7e97 fe3d 0b60 b33d
00000110: 8648 61bd 367c b63d 4e4c 4e3c 3bb2 7b3e
00000120: ca76 493e 1176 af3d 1d2f 13be 70aa 11be
00000130: 49ba c9bd 8a04 8b3d 74e4 8d3d 9766 2d3e
00000140: 2641 05be 23b7 03be 3d02 94bc 54d9 d03d
00000150: cf1e 1e3e ec9f 07be 08b2 7e3d 7bbf f6bd
00000160: ac2e 203e 7b9a ce3d cc89 523d 25d6 bc3d
00000170: 6c64 73bd 35ac f33d af86 97bd 2e0b 083e
00000180: a3d3 f9bd f8a8 143d a435 5dbd 905c c4bd
00000190: 55fe 22bd cb5b 44bc 71d2 593d 8886 d3bd
000001a0: 61cf 403d b844 193d b118 adbd 762a 2a3c
000001b0: 60ef cdbc 2b52 613c bec6 44bd 85ce 74bd
000001c0: fb5c 93bd 0704 5c3b f792 e83c 035c 9ebd
000001d0: d898 da3d 56c9 88bd 07a3 203d 5bed 0cbe
000001e0: f208 183e e588 663e 6cf0 01bd d7c1 383e
000001f0: 00f4 de3d a52c 543d 88bd 5e3d 3656 97bc
00000200: 2301 9d3d 4301 1e3e c7c0 75bc 4dac ee3c
00000210: 5d16 84bd 830e 0e3e 7048 cc3d 0056 033e
00000220: fb01 043e 1766 46bd ed47 0f3e a49b 98bd
00000230: 6cb8 9b3d 73c8 bcbd eafe b0bd 29b9 b13d
00000240: af52 aebb 4819 4f3e 2afa 03bd e88d 323e
00000250: 5ed9 22be d9f7 ac3d 843e dabd 834b 613c
00000260: e3bd ec3c 0f80 163d 9c7a 5d3d 0d5d 1ebe
00000270: 7c6f 673d 0426 ccbd 3953 22bd a1db efbd
0.013787313 0.009802422 0.14998008 -0.04056557 0.13973129 -0.015751606 0.11722916 -0.063363165
-0.05378362 -0.0590069 -0.040785752 0.07346972 0.14604037 0.19337748 0.05040189 0.24347852
0.000105117855 -0.07803685 0.18528 -0.078218155 0.049867492 0.037816357 -0.1266291 -0.014961617
0.021321163 -0.036128882 -0.110469416 0.20662418 0.11653407 -0.0256813 0.033895496 0.09874847
0.115104854 0.103605404 -0.14378837 0.096387014 0.1523606 0.15143795 -0.015375056 0.15867068
-0.062535584 0.1569584 0.118193656 0.18429415 -0.10398899 0.20956689 -0.056985445 -0.062162284
0.09516738 -0.0700808 0.0438356 0.03302264 -0.1216081 -0.076648615 -0.094232395 0.20967172
0.017654704 -0.040189087 0.14157662 0.051172595 -0.045706354 -0.06499874 -0.038400624 0.08444199
-0.08290354 0.10417116 0.124312386 0.08758553 -0.055000804 0.0891041 0.012591435 0.24579708
0.1967422 0.08567441 -0.14373441 -0.14225173 -0.09849984 0.06787975 0.069283396 0.16933666
-0.13013133 -0.1286283 -0.018067474 0.10197702 0.1544144 -0.13244599 0.062181503 -0.12048241
0.15642804 0.100880586 0.051400945 0.09220532 -0.05942194 0.1189808 -0.07398736 0.13285515
-0.121985696 0.036293954 -0.054006234 -0.095879674 -0.03979333 -0.011984776 0.05317921 -0.10328394
0.047072772 0.03741905 -0.08451975 0.0103861 -0.025138557 0.0137525005 -0.048041098 -0.059767265
-0.07195469 0.0033571736 0.02839039 -0.077323936 0.10673684 -0.06679027 0.039217975 -0.13762419
0.14847162 0.22513159 -0.031723425 0.18042694 0.10886383 0.05180039 0.05437997 -0.018473726
0.076662324 0.15430169 -0.014999575 0.029134894 -0.06449578 0.13872723 0.09974754 0.12825775
0.1289138 -0.048437204 0.13992281 -0.07451561 0.07603535 -0.0921792 -0.08642371 0.086778946
-0.0053199152 0.20224488 -0.032220997 0.17436945 -0.15903232 0.08445711 -0.10656455 0.013750914
0.028899139 0.03674322 0.054072008 -0.15465184 0.056502804 -0.099681884 -0.03963015 -0.11711813

exp_avg f4 [1, 40]
00000000: 2e43 003a b105 59b9 2243 2339 8d26 c7b9
00000010: 636d c539 27dd 9437 1e88 1dba 537f f339
00000020: 0071 9c3a ba46 8439 d96d 4fb9 36bf 7dba
00000030: 2b23 bd39 ecb7 09ba e27f 6f39 0f48 e039
00000040: 318c dd39 1bb6 6d39 8a88 f439 dc12 6eb9
00000050: 1562 2d39 6d58 ee39 dd90 0c3a 72c2 073a
00000060: 4050 da39 2f85 043a ed16 d4b9 2650 51b9
00000070: 38bc 0d39 fd4f 9cb9 198a fe38 40e5 fa36
00000080: 6505 043a 408d e139 9c77 bab8 5845 4c38
00000090: 239b b7b9 d1b7 0e39 8dfa b339 f6e0 c036
0.0004892823 -0.00020696853 0.000155699 -0.0003798496 0.00037656268 1.7745957e-05 -0.0006009358 0.00046443436
0.0011935532 0.00025229697 -0.0001978198 -0.0009679677 0.0003607509 -0.0005253542 0.00022840456 0.00042778297
0.00042256856 0.00022669921 0.00046641036 -0.00022704474 0.00016535104 0.0004546078 0.00053621625 0.0005178816
0.0004163999 0.00050552463 -0.00040452872 -0.00019961651 0.00013516925 -0.00029814235 0.000121373865 7.477269e-06
0.0005036204 0.00043020584 -8.89145e-05 4.870197e-05 -0.00035020066 0.00013610652 0.00034328215 5.748235e-06

exp_avg_sq f4 [1, 40]
00000000: b026 3236 5f10 0d35 6b79 f835 4fc2 0436
00000010: 38e4 0635 9f92 f335 a4e3 0e36 23c8 0836
00000020: 8ef9 6b35 43fc 5535 600d 8635 3185 c834
00000030: 0470 d035 174c 5135 c563 5034 98a1 b935
00000040: a205 d035 a34f 0635 6f8f 0836 c949 6c35
00000050: 695f 5d35 7082 ae35 0306 cf34 63c5 3f36
00000060: cc23 0436 0423 f835 7b4f 8135 7e97 2135
00000070: 3dd0 1c34 b20e 0636 8226 9735 3a30 b434
00000080: b484 8736 3bb7 7c34 63f1 1535 d7a6 d534
00000090: e357 7935 f0a2 3134 cd40 d135 7dfe 9235
2.6546586e-06 5.2550416e-07 1.8512777e-06 1.9782635e-06 5.025099e-07 1.8147583e-06 2.1292153e-06 2.0382074e-06
8.790747e-07 7.971577e-07 9.987671e-07 3.7349812e-07 1.5529808e-06 7.796929e-07 1.9407805e-07 1.3830604e-06
1.5498847e-06 5.0034777e-07 2.0349069e-06 8.802422e-07 8.2467756e-07 1.3001973e-06 3.856113e-07 2.8576112e-06
1.969037e-06 1.8487631e-06 9.634381e-07 6.0197624e-07 1.4604389e-07 1.997611e-06 1.1261584e-06 3.3562702e-07
4.038762e-06 2.3535988e-07 5.585809e-07 3.9795734e-07 9.288762e-07 1.6543686e-07 1.5590573e-06 1.0951914e-06

exp_avg f4 [1, 40]
00000000: 9e1b 073c 0c10 4ebc 453b 16bc 230a 97bb
00000010: 9a5d 6ebc f1b8 3dbc 5b72 5cbb add6 e83b
00000020: 254b e6ba 09a9 a83c bc1a c4bb 29d5 2b3b
00000030: 8b20 f53b eea9 153c 9161 44bc 0855 bbbc
00000040: af05 e33b a725 8a3c bd29 ca3b 4b42 14bc
00000050: c391 5abc c00d 8e3c f63f cd3b 759e 083c
00000060: 9a5c 803b ab23 db3b cb2f cbba e8d0 c83c
00000070: 34f7 20bc 818a f1bb 1d34 ea3b 2164 a13b
00000080: 01da 4ebc 394e 263c 4bf4 12bc 3e2a 1ebc
00000090: d2e4 d1bb e8ab 34bc 6f30 db3b 8baf ef3b
0.008246331 -0.012577068 -0.009169404 -0.0046093627 -0.014548684 -0.011579738 -0.0033637497 0.0071056695
-0.0017570002 0.020588415 -0.0059846323 0.0026219583 0.007480686 0.009134753 -0.011986152 -0.022867694
0.006928168 0.016863657 0.0061695264 -0.009049009 -0.013340416 0.01734054 0.0062637283 0.00833856
0.003917289 0.0066876016 -0.0015501914 0.024513677 -0.009824563 -0.0073712473 0.0071473257 0.0049252664
-0.012625218 0.010150486 -0.008969377 -0.009653626 -0.0064054513 -0.011027314 0.0066891233 0.0073146275

exp_avg_sq f4 [1, 40]
00000000: 88fe 0f3e 9b95 dd3c 9cdd 7f3d cc46 a93d
00000010: 318d 273c ce60 c13d 4734 123e c9fc c63d
00000020: 2831 823d ca92 ec3c a80a c63c 9b9b 3d3d
00000030: 18fe 363d 0fc3 dc3c d47c a03b 9839 0f3d
00000040: 85a5 a63d 66ed 4d3c b0dc 163e 6bf2 883b
00000050: e26e c13c 9ada 0f3d 13e7 c73a 6a2e 0d3e
00000060: daa0 bc3d e97d f83d 747f e23d 9cc6 743b
00000070: e1d5 893a 6689 ee3d 5d15 763c 1dfe 4b3c
00000080: b4bc 033e 9c3c c53a a654 913c a72b 173b
00000090: 00e7 273d fad3 4e3b f1fe a83d 8733 243b
0.1406194 0.027048877 0.062467203 0.082654566 0.010226534 0.09442292 0.14277755 0.09716184
0.06357032 0.028878588 0.024175003 0.046290975 0.044675916 0.02694848 0.004897693 0.034967035
0.08137039 0.012568807 0.14732623 0.004179289 0.023612443 0.035120584 0.0015251361 0.13787237
0.092103675 0.121333905 0.11059466 0.0037349826 0.0010516011 0.116473004 0.015019742 0.012450722
0.12864953 0.001504797 0.017740559 0.002306679 0.040991783 0.0031559453 0.08251751 0.0025055127

exp_avg f4 [1, 40]
00000000: d979 ddbb fdd0 17ba 0f02 12bb 11c6 a63b
00000010: 6efb 4f3a ed65 2ebb 2c36 f03b c188 a0bb
00000020: 137c 86bb 9478 ceb8 68ac b73a 4570 953b
00000030: 9e79 63bb d7c5 103a dff5 4d3a eb66 89bb
00000040: dff6 a7bb f819 4cba ee45 e6bb 1d92 6b39
00000050: 5608 f3ba 0cf5 2f3b 59aa d6ba 7390 dabb
00000060: 677a a0bb f4f5 cebb 5a68 bd3b 1b5e 413a
00000070: a898 9d38 f6e4 b03b 3507 00bb 16dd 88bb
00000080: 5791 b2ba 0a71 fcba a6cd 1d3b 01fa 603a
00000090: 08cb 663b 26c8 bb37 b179 92bb 51cf 4bba
-0.00675891 -0.00057913346 -0.002227906 0.0050895293 0.0007933889 -0.0026611045 0.0073306765 -0.004899115
-0.0041041463 -9.845305e-05 0.0014013173 0.0045605027 -0.003470994 0.00055226445 0.0007856767 -0.004193177
-0.005125865 -0.0007785852 -0.0070273792 0.00022465778 -0.0018541913 0.002684894 -0.0016377672 -0.0066700517
-0.004897404 -0.006315941 0.005780262 0.00073763885 7.514778e-05 0.005398388 -0.0019535546 -0.004176746
-0.0013623637 -0.0019259762 0.0024078875 0.00085821754 0.003521623 2.2385339e-05 -0.004470073 -0.0007774728

exp_avg_sq f4 [1, 40]
00000000: 93a4 043a f2dc c938 d667 f439 2c8d d339
00000010: 34ab ce38 b395 9f39 002d ba39 e55c a839
00000020: 2855 2939 2000 0539 4573 9739 7704 c038
00000030: f870 b239 64dd 2739 a6ca 1738 364b c839
00000040: 9c94 9b39 06b2 0f39 234e c239 bc49 4339
00000050: 18d4 4e39 fe07 b039 6114 3a38 8c61 203a
00000060: 12b6 ef39 ad99 a539 fc8e 4e39 fd78 9e38
00000070: ab3e 7e38 dda9 a739 5d13 a439 bdf2 f138
00000080: 8c61 203a 2575 1e38 8c1b ad38 11d2 c538
00000090: 8305 f938 8fce 4b38 252e ab39 3925 8539
0.0005059924 9.625581e-05 0.0004661667 0.00040350237 9.8547345e-05 0.00030438378 0.00035510212 0.0003211267
0.00016148819 0.00012683915 0.00028886847 9.156105e-05 0.00034034974 0.00016008836 3.6189937e-05 0.0003820301
0.00029674626 0.00013703862 0.0003706078 0.00018624117 0.00019724702 0.0003357529 4.4364835e-05 0.0006118051
0.00045721285 0.0003158575 0.00019698957 7.556563e-05 6.0616683e-05 0.0003197928 0.00031294944 0.00011536989
0.0006118051 3.7779235e-05 8.254414e-05 9.43282e-05 0.00011874272 4.8591344e-05 0.00032650042 0.0002539547
