lightning_logs/version_15/checkpoints/epoch=2-step=150.ckpt (torch, 330670 bytes, 33 tensors)

model.param_proj.proj.0.weight f4 [1, 40]
000000 09 81 b0 bd dc be 0f be 16 c5 3b be 74 1a 1c bd
       -0.086183615 -0.14037651 -0.18336901 -0.038111165
000010 dd c5 b8 3c b1 8e 44 be d3 bc 71 bd af 69 bd bc
       0.022555286 -0.19195057 -0.059017967 -0.023121683
000020 9f 43 48 3e 42 bc d2 bd 10 3d 9a 3d bf 7a 4e be
       0.19557045 -0.102898136 0.07531178 -0.20164011
000030 92 d6 4a bb fb 40 2d bb f4 5f b2 bd 74 4c 9d 3d
       -0.0030950648 -0.0026436436 -0.08709708 0.07680598
000040 36 c6 24 3e a1 36 e7 3a 79 50 dd 3d bc 55 0d 3d
       0.16091236 0.0017640182 0.108063646 0.03450559
000050 20 7c 11 be 4f eb 4d 3d 24 3c 09 3e 2b f2 01 be
       -0.14207506 0.050273236 0.13401848 -0.12690036
000060 3a a6 4f bd 21 77 9c bd bc 41 63 3d 86 ab a1 bd
       -0.050695635 -0.076399095 0.05548261 -0.078940436
000070 e3 a0 f5 bd 27 1d 03 be 27 1d a9 3d e1 e8 30 3d
       -0.11993577 -0.1280409 0.082575135 0.04319084
000080 e5 e6 b4 3d 60 33 cb 3c 48 73 06 3d 2b aa 1c be
       0.08833102 0.024804771 0.032824785 -0.15299289
000090 df 5a 15 3d 03 91 0d 3e c4 3f ee 3d 49 59 07 3e
       0.036463615 0.13824849 0.11633256 0.13217653

model.param_proj.proj.1.weight f4 [1, 40]
000000 ba a8 b0 3d 86 db 07 be b7 13 35 bd 65 6a d2 3d
       0.08625932 -0.13267335 -0.044208255 0.102741994
000010 30 37 f1 bd 25 9a a0 bc a8 10 8d 3d 70 18 bc 3d
       -0.11778104 -0.019604752 0.068879426 0.091843486
000020 5d ba 63 bc f5 ef 11 be 55 97 db bd 8a 81 c0 3c
       -0.013899413 -0.14251693 -0.10722224 0.023499269
000030 f0 75 f0 bd 62 af 42 bd b4 e3 a4 bc ee e5 13 be
       -0.11741245 -0.04753054 -0.020128109 -0.1444318
000040 dd 1c 4c 3e 68 af e4 3d 8f 57 f7 bd ab 90 9b 3d
       0.19932885 0.111662686 -0.12077247 0.075959526
000050 85 2c 84 bd 20 4c dc bd 1b 29 0f 3e fd db b5 3d
       -0.06453804 -0.10756707 0.13980524 0.0887985
000060 5a f8 1d be 49 50 b3 3d 5e c9 4f be 15 94 15 be
       -0.1542677 0.087555476 -0.20291659 -0.1460727
000070 09 c0 de 3d 18 34 54 be c0 62 0f be b3 be 44 3d
       0.108764715 -0.20722997 -0.14002514 0.048033427
000080 01 61 44 be 69 5c 24 3c de 27 9b bd bf 0e c7 bd
       -0.19177629 0.010031798 -0.075759634 -0.097196095
000090 66 eb db 3b d7 9e 05 be 27 39 3d 3e 37 e4 11 3e
       0.0067114113 -0.13048874 0.18478833 0.14247213

model.param_proj.proj.2.weight f4 [1, 40]
000000 6f ae 81 3d 3d 4f 2a 3d 3e 0b 2f 3e 1b b1 1f bd
       0.06332099 0.041579474 0.17094132 -0.03898726
000010 55 cf 0f be d1 e0 ac 3d 44 d7 2d 3e ec ef 71 3a
       -0.14043935 0.08441318 0.16976649 0.00092291716
000020 fb 71 f2 bd 1d 67 2a bd 15 c4 af 3d 70 b2 20 3e
       -0.11838146 -0.041602243 0.085823216 0.15693069
000030 89 f4 3b be 7c d6 58 be 1f c7 17 3e 8d ec 4a 3d
       -0.18355002 -0.2117557 0.14822052 0.049542
000040 ec 41 e8 3b 13 70 64 be 74 7b 58 be 66 fd 60 3e
       0.0070879366 -0.22308378 -0.21140844 0.21971664
000050 d7 0c 78 3c a5 9f 93 3b ba d5 33 3c a6 57 1e 3e
       0.01513978 0.004505115 0.010976249 0.15463123
000060 c9 6a 87 bd 1b 29 cd 3d f4 66 cd bd 17 dd 2b 3e
       -0.066121645 0.10017606 -0.100294024 0.16783558
000070 f0 93 27 3e 05 fc ba 3d 35 d9 96 bc 64 d3 1e 3e
       0.16365027 0.091301 -0.01841412 0.15510327
000080 95 d8 e9 bd 36 74 8b bd a2 ba e8 bd 50 91 a1 3d
       -0.11418263 -0.06809275 -0.113637224 0.07889044
000090 6e fc 1a be 59 65 3c be e9 8c 48 bd d7 0d 1b be
       -0.15135357 -0.18398036 -0.048962507 -0.15141998

model.rnn.weight_ih_l0 f4 [160, 37]
000000 5e 15 0e bd 07 24 c5 3d 24 07 d7 3d a1 31 43 bd
       -0.034688346 0.09626012 0.10499409 -0.04765475
000010 da e8 8c 3d 74 54 49 3d e8 df 03 3e 9e 0c 4d 3e
       0.068803504 0.049152806 0.12878382 0.20024344
000020 56 65 b7 3d 77 bb 9a bd f7 14 2f 3e ee d3 00 bd
       0.08954875 -0.07555287 0.17097841 -0.031452112
000030 d9 df b5 3d 0c c8 ee 3d 26 e7 0a 3e ba a8 8b 3d
       0.08880586 0.1165925 0.13564739 0.068192914
000040 cc 02 86 bd 37 b1 99 3d f0 77 36 3e f0 b2 bf 3d
       -0.06543502 0.07504504 0.1781919 0.093603015
000050 9c 6b 29 3d a1 b0 d2 3d 19 38 85 bd 61 c5 0d 3e
       0.04136239 0.102875955 -0.065048404 0.13844825
000060 a3 12 cf bd 4c 84 73 3d 2e b8 6b 3d ca 2f a6 3d
       -0.101109765 0.05945234 0.057548694 0.08114584
000070 99 f6 8b bd 28 d3 7b bd b4 7f d3 3c 85 cd db bd
       -0.06834144 -0.06148067 0.02581773 -0.10732559
000080 7c f1 9d bd 3d bc 24 be f9 9b e4 bc de 1a 7c be
       -0.07712075 -0.16087432 -0.027906405 -0.24619624
000090 80 7c e9 3d 76 10 d2 3d cc 41 8b bd c8 bb 9a bc
       0.114006996 0.10257046 -0.06799659 -0.01888837
0000a0 a2 a3 a1 3d f6 52 95 3d 2e 03 b2 bd 3d 8e a5 3d
       0.078925386 0.07291214 -0.08692013 0.080837704
0000b0 63 06 49 3e 08 39 a8 bd 63 90 31 3e 42 f0 46 3e
       0.19631343 -0.08214003 0.17340235 0.19427589
0000c0 a3 cd 18 bd 6d c3 b7 bc f5 8f 2a 3e 78 ad 14 3e
       -0.037305485 -0.022432053 0.16656478 0.14519298
0000d0 21 fd 5a 3d a8 fe 8a bd c7 43 7c bd 96 dc ac 3c
       0.05346406 -0.06786853 -0.061588075 0.021101277
0000e0 8f 12 5c 3c 41 dd 8f 3d 3c 95 08 3e 08 e7 8f bd
       0.013432159 0.07024623 0.13338178 -0.070264876
0000f0 e4 08 f2 3d 1a 27 13 3e 8e a3 1b 3e 4d 5f 0a 3e
       0.11818102 0.14370385 0.1519911 0.13512917
000100 ae b4 50 bc bc 40 24 bd 37 41 72 3d f9 31 22 bb
       -0.01273839 -0.040100798 0.059144225 -0.0024749024
000110 e4 ff 99 bc f3 8e 8f bd ae a4 6e bc b0 56 80 bc
       -0.018798776 -0.07009687 -0.01456563 -0.015666336
000120 2c 3c 50 bd 93 40 ac bd fa 09 be bd 22 63 01 3e
       -0.050838634 -0.08410754 -0.09279247 0.12635472
000130 23 c1 15 be 38 e2 97 3d 31 24 cb bd d4 d7 d1 3d
       -0.14624457 0.07416195 -0.09919012 0.10246244
000140 89 57 17 3e b6 1f 67 bd 9f 14 95 bd cc 65 0e 3d
       0.14779486 -0.056426726 -0.07279324 0.03476505
000150 d0 ef d6 bd e1 4d a4 3d 0b 7e 76 3d fa 81 12 bd
       -0.10494959 0.08022667 0.060178798 -0.035768487
000160 d0 45 c4 bd fe 0b b2 bd 3e e0 af 3c f1 57 38 bd
       -0.09583628 -0.086936936 0.021469232 -0.045005742
000170 fe 61 ac bd 37 bf d5 3d 59 05 cf bd 99 a7 97 3d
       -0.08417128 0.10436862 -0.10108442 0.074050136
000180 80 41 40 3e b3 76 cc 3d 29 66 2e bd 3b 4c 40 bd
       0.18774986 0.099835776 -0.042577896 -0.0469477
000190 47 e8 29 3e bf 7d a0 3d 33 ae 23 be 5f 54 1f be
       0.16592513 0.07836484 -0.1598442 -0.15559529
0001a0 f3 67 b9 bc 85 53 99 bd ae 76 fe bd 30 f1 8d be
       -0.022632575 -0.07486633 -0.1242498 -0.27723074
0001b0 11 a2 59 3c 9e 01 f3 3b f8 d7 88 bd f5 e1 68 3d
       0.013283269 0.0074159643 -0.06681818 0.056856114
0001c0 71 02 6a bd d0 3f 0e bc 5a ae a7 bd 0b 5e b1 bd
       -0.057131235 -0.008682206 -0.08187552 -0.086605154
0001d0 8b 9c 7e bc 81 a6 44 3d 2a 0d 29 3e 35 37 ac 3c
       -0.015540252 0.048010353 0.16508928 0.021022419
0001e0 b7 8f d8 bc fc 1c 19 3e b3 db 03 be e4 5e 55 3d
       -0.026435716 0.14952463 -0.12876777 0.052092448
0001f0 df cb 33 3e 37 46 f2 3d 91 79 11 bd ab a1 31 bd
       0.1755824 0.11829799 -0.035516325 -0.04336707
000200 51 fc 2f 3d d0 f9 84 bd ec 35 f6 3d 1d 72 fa 3d
       0.042965237 -0.064929605 0.120220035 0.12228797
000210 2f a7 f7 3d 6f fc cb 3d 69 63 17 be 0b 87 b5 bd
       0.120924346 0.09960257 -0.14784016 -0.08863648
000220 85 52 99 3d 7a 44 94 bd d1 c2 d3 bd 5e 8a 8a bd
       0.074864425 -0.07239623 -0.10339893 -0.06764673
000230 5c 04 8b bd 4b 9c fe bd 5a 84 cb 3d 17 40 ae bd
       -0.06787941 -0.12432154 0.099373534 -0.08508318
000240 9f 94 0a 3c 6f 16 1a 3a 89 15 47 3e e5 ba 24 3e
       0.008458286 0.00058779767 0.19441809 0.1608692
000250 5b 42 42 3d e2 7a 71 3d d9 72 ef 3d a4 08 fa 3d
       0.047426563 0.05895508 0.11691827 0.12208679
000260 b4 5c 01 be 6a 95 03 3e f4 bd 62 3c e8 d0 2d 3e
       -0.1263302 0.12849966 0.013839234 0.16974223
000270 f8 5e 21 3e 83 fc ee bd 29 cf 03 3e ee 5e aa 3d
       0.15758884 -0.116692565 0.12871994 0.08318888
000280 83 8d 62 bd d8 ba f7 3d cd be df bc 65 71 06 bd
       -0.055310737 0.120961845 -0.02731266 -0.032822985
000290 23 6c 12 3e cd 95 06 bc 6a 09 ae 3c 5a da 55 bd
       0.14299063 -0.008214426 0.021244723 -0.05221019
0002a0 e5 e5 2c bd a5 01 49 bd 4d e6 9c bd 1e 72 eb bd
       -0.042211432 -0.049073834 -0.07661114 -0.114963755
0002b0 d2 26 94 3c 0f 8b 14 3e 7d 8b 59 bd da f0 9f 3d
       0.018084917 0.14506172 -0.053111542 0.07809611
0002c0 a9 0d 28 3e ec 1a 47 3d 45 9c 67 bd 6b 23 85 bd
       0.16411461 0.04860966 -0.056545515 -0.06500896
0002d0 1e 1d 26 3e 31 b6 01 3e 40 d9 85 bd 06 48 53 3d
       0.16222045 0.12667157 -0.06535578 0.05158236
0002e0 a7 f7 d5 bd b6 b3 05 3e 48 48 7c 3d 98 1f 17 3d
       -0.104476266 0.13056836 0.06159237 0.036895365
0002f0 5c d9 52 3c 8b 0f 05 3e b8 28 4a 3c 19 e0 b4 bd
       0.012869205 0.1299421 0.01233881 -0.08831806
000300 ac 94 21 3e 5d 1c 95 3d 3f 33 17 3d 28 42 e2 bd
       0.1577937 0.072808005 0.036914106 -0.110477746
000310 e8 52 0f bd b4 9c 94 3c bd c6 04 bc 7e a2 cf bd
       -0.034991175 0.018141128 -0.0081040235 -0.10138415
000320 f0 11 80 3d 1c ae e5 3c 67 17 a4 bc b7 30 ba 3d
       0.06253421 0.028037123 -0.02003069 0.09091323
000330 a2 41 fd bd e8 8f 0f 3d f5 c8 2c 3d 94 e5 ec bd
       -0.12366034 0.03504935 0.042183835 -0.11567226
000340 82 de 2f be b9 ca ea 3d d4 56 08 3e 65 bd ec bd
       -0.17174724 0.114644475 0.13314372 -0.11559562
000350 ce 44 51 3e 61 01 ee 3b 52 1a f2 3d 07 bb 45 3d
       0.20436403 0.007263348 0.118214265 0.048274066
000360 7e 07 38 bd 59 93 db bb 3b 6d b2 bd f4 79 6e be
       -0.04492902 -0.006700915 -0.0871224 -0.23288709
000370 09 c6 c5 3d c9 08 0f be 67 81 4d 3c fc 65 06 be
       0.09656913 -0.13968195 0.012543059 -0.13124841
000380 2f 1d 17 3e 25 a8 98 bd a1 41 19 3e ac 97 6d bc
       0.14757226 -0.07453946 0.14966442 -0.014501493
000390 04 5f 6e bd fa 3a 1d 3e a9 ab 1f 3d 88 c6 a3 3d
       -0.058196083 0.15354529 0.038982067 0.07996851
0003a0 10 7f 81 bb af 99 24 bd 2e 32 9a bd 8d 0a f8 bd
       -0.0039519146 -0.040185627 -0.07529102 -0.121113874
0003b0 a8 c8 69 bd 94 03 dc bd a5 e5 29 bd c7 55 6e 3d
       -0.057076126 -0.1074287 -0.04147877 0.058187272
0003c0 b2 f8 ce bd 4d 4d de 3d 0c e4 32 3d 3b 7a e4 bd
       -0.101060286 0.10854588 0.043674514 -0.11156126
0003d0 fb 23 c1 bb 31 ec 00 be f3 88 24 3e ac 0d 06 3e
       -0.005894182 -0.125901 0.16067867 0.13091153
0003e0 5a f1 09 be 27 67 01 3e e8 1b 24 3e e9 eb a2 3d
       -0.13470975 0.12637006 0.1602627 0.079551525
0003f0 4b 2d 93 3d 85 59 cb 3d bf 9b ab bd 83 4f 1d be
       0.07186373 0.09929184 -0.083793156 -0.15362363

model.rnn.weight_hh_l0 f4 [160, 40]
000000 99 c9 fb 3c a9 2a 15 be 35 70 b2 bd 55 94 81 bd
       0.030735778 -0.14567055 -0.08712808 -0.0632712
000010 31 25 ad 3d 55 b2 b9 3d b6 7c 1e 3d 41 0d ae bd
       0.08454359 0.09067217 0.038693152 -0.08498622
000020 fd 0d 13 be 82 43 91 bd be 56 3f ba 23 aa 14 be
       -0.14360805 -0.07092954 -0.00072989974 -0.14518027
000030 d1 2e 5a 3c 3c 97 1b 3e 6c 69 06 3e 9c 72 da 3c
       0.013316826 0.1519441 0.13126153 0.026665978
000040 de 14 8d 3d e7 a9 1e be 12 ce 1e bd bb b5 85 3d
       0.06888746 -0.154945 -0.038770743 0.06528803
000050 7a 51 40 3e 6f 6c 56 bd bd 9a 43 3d 5c fb 6d bd
       0.18781081 -0.052349504 0.04775499 -0.058101043
000060 01 cc d0 3b b9 d0 37 be a0 11 de 3c b9 62 a6 bd
       0.0063719754 -0.17950715 0.027108014 -0.081242986
000070 a1 7d 71 3c 34 6b 54 bd f9 20 06 3e 20 2f 27 3e
       0.014739425 -0.05186005 0.13098516 0.1632657
000080 f0 cc 0b be 1b 33 d6 3d bc c0 d7 3d 0f 12 01 bd
       -0.13652396 0.10458966 0.10534808 -0.031511363
000090 dc db 1b 3d 65 d8 ce 3d 10 a1 a0 3d 74 dc 19 3e
       0.03805147 0.10099868 0.0784322 0.15025502
0000a0 a8 39 96 3d bb 64 dc 3d cd 8b 4b 3e 9f 52 bd 3c
       0.07335216 0.107614 0.19877549 0.023110686
0000b0 a3 d9 22 3d 7b d8 9d bd 6e d4 24 3e fa c4 03 3e
       0.039758336 -0.07707306 0.1609666 0.1286811
0000c0 07 f7 4d be f9 28 83 bc 84 66 45 3e 26 a7 f1 3c
       -0.20113765 -0.016010748 0.19277388 0.029498648
0000d0 4a 69 c9 bd fa 7a cb bd 8a 63 20 3e 67 5d 75 bd
       -0.098345354 -0.09935565 0.15662971 -0.05990353
0000e0 55 4b 3b 3e 2a e3 f5 3d 5f e4 49 be cd b4 8c 3d
       0.18290456 0.12006219 -0.19716023 0.068704225
0000f0 c2 d9 60 3e 5b 6f a8 3c e1 13 0e 3d bc 7f 91 bd
       0.21958068 0.02056091 0.034686927 -0.071044415
000100 25 c4 a4 bd 8a 40 4a 3d 66 eb 07 3e c4 e3 9b 3d
       -0.08045224 0.049377955 0.13273391 0.07611802
000110 29 df ab bc 0d 6a fe bc ff 99 b0 bc 20 81 34 bd
       -0.020980434 -0.031056428 -0.021557806 -0.044068456
000120 cc 96 52 be ef ea 24 bd fd 31 30 be b7 68 be bd
       -0.20565337 -0.040263113 -0.17206569 -0.092973165
000130 72 3f 06 be 29 d0 01 bd 2b 15 72 3d 8a af 27 3d
       -0.1311014 -0.031692658 0.05910222 0.04093889
000140 7e 78 bd bd 2d e0 b7 3d e5 01 ae bd 45 4e 0f 3e
       -0.09251498 0.08978305 -0.08496455 0.13994701
000150 b5 f9 bb 3d 09 b0 72 3c aa 35 18 3e f4 6b 97 bd
       0.09178487 0.014812478 0.14864221 -0.07393637
000160 54 da a5 3d 34 fe f3 bd 67 58 d4 bd ea 83 28 be
       0.080982834 -0.1191372 -0.10368424 -0.16456571
000170 27 8b bb 3d c0 15 c6 bd dc d0 04 3d 2b 0a 97 3d
       0.091574006 -0.09672117 0.032425746 0.07374986
000180 cd 66 80 3c 54 65 8e 3c 9b 3d ab bd 63 41 80 bd
       0.01567402 0.017382301 -0.0836136 -0.062624715
000190 71 a2 28 3d 9c bc 4d bd 79 38 a6 bd 00 65 d3 bd
       0.04117054 -0.0502287 -0.0811624 -0.103219986
0001a0 41 43 3f bd 75 ae f9 3d fe 01 aa bd 48 93 8a bd
       -0.046694998 0.12191478 -0.08301161 -0.06766373
0001b0 a0 c7 32 3e 1d 40 1b bd 3c 12 5a 3d 78 15 62 3d
       0.17458963 -0.03790294 0.053240046 0.055196255
0001c0 33 95 b7 3d 26 52 3f 3d f9 ab c5 3d 7d f4 16 3e
       0.08964004 0.046709202 0.09651942 0.14741702
0001d0 dd ea 65 3d 59 21 12 be 0d 88 50 bd 1a c0 0d be
       0.056132186 -0.14270534 -0.050910998 -0.13842812
0001e0 40 68 a0 3d 1f 2a b5 3d 4a d9 ea bd 7b ee 90 3c
       0.07832384 0.088459246 -0.11467226 0.017691841
0001f0 39 ee 43 3d d5 b1 0c 3e bd 38 1c bc 75 54 37 bc
       0.04783461 0.13739713 -0.009535012 -0.01118957
000200 0c fd d9 3d 1e 71 51 3d 01 d7 38 bc 69 dd 8f bd
       0.10643968 0.051133268 -0.01128173 -0.070246525
000210 d3 be 42 3e f1 f6 b4 bc af 3e f7 3c c7 ee 65 bd
       0.19018106 -0.022090407 0.030181257 -0.05613592
000220 d8 b2 fd 3d 86 2b 82 3c 13 fd 0f be 1c 90 c2 bd
       0.12387627 0.015889894 -0.14061384 -0.09500143
000230 68 86 85 bc fc 60 2b bd 8a 97 ec bc 6a 18 0c 3e
       -0.016299441 -0.04184054 -0.028880853 0.13681188
000240 57 55 03 be b9 13 4f 3e 13 75 0d be b7 5b e4 bd
       -0.12825523 0.20222367 -0.13814192 -0.11150306
000250 f6 92 9b bd c5 bd aa bd 40 99 5e bd 5d 2c 0f 3e
       -0.0759639 -0.08336977 -0.05434537 0.13981767
000260 14 d8 21 be 1d ed 17 3e 79 8b 76 3c e9 fa cb 3c
       -0.15805084 0.14836545 0.015047901 0.024899917
000270 fe dc ec 3d 5a 2c c2 3c 7f d7 fa 3d ea 06 81 3d
       0.115655884 0.02370279 0.12248134 0.06300147
000280 3a ec 83 3c ea 3c 26 be 18 6e d0 bd 7a d6 fd 3c
       0.016103853 -0.16234174 -0.10177249 0.03098606
000290 6a b5 05 3e 4c 0a 80 bd db 52 8f 3c 0e e9 b7 3d
       0.13057485 -0.06251964 0.017495563 0.089799985
0002a0 94 54 e4 bc c9 75 37 be 15 10 3b 3e e9 d0 cc bc
       -0.027872361 -0.17916025 0.18267854 -0.02500196
0002b0 4e 81 ff bd 62 5c 8f bc 6f 47 b6 3c 26 a2 11 3c
       -0.12475835 -0.017500106 0.022250859 0.008888757
0002c0 ca e0 d8 3d 0d a9 36 be 00 46 ce bc 49 4f 90 bd
       0.1058975 -0.17837925 -0.025179863 -0.070463724
0002d0 b8 b4 7b bd 80 51 83 bc 73 5c 9b 3d a6 4a ec bd
       -0.061451644 -0.016030073 0.07585993 -0.115376756
0002e0 90 aa 3b 3d f4 54 01 3e 7b 0f 65 3d d2 1d 2a be
       0.045816958 0.12630063 0.055922966 -0.16612938
0002f0 3c 50 18 bd fc 24 d1 3d ae 68 60 bd 01 54 6b 3c
       -0.037185892 0.10212132 -0.05478733 0.01436329
000300 ec 3e 3a be 25 b6 80 3d df 4a 05 be d2 8e 1c 3e
       -0.18188065 0.06284741 -0.13016842 0.15288857
000310 0c 96 b8 bc 26 4f 3c bd 9c fe 05 3e 45 4f 57 3d
       -0.022532485 -0.04597392 0.13085407 0.05256583
000320 9e 27 05 be 76 b8 07 be 42 3c 4d 3d 1f 11 58 bc
       -0.13003394 -0.1325396 0.050106294 -0.013187676
000330 dc ab b6 3d 67 4d de bd 3b 3c 02 bc 3b 85 0f be
       0.08919498 -0.10854607 -0.00794893 -0.14015667
000340 26 76 9e bd 04 09 48 3e cf 49 2b 3d 6e b6 e3 3d
       -0.07737379 0.19534689 0.041818436 0.1111878
000350 87 1a c6 bd d8 2b 0d 3c 8a 1b d1 3c 3a e5 0f 3e
       -0.096730284 0.00861641 0.025525827 0.14052287
000360 a0 ea c3 3d ee 51 99 bd c8 79 ed 3d 7f c2 49 bd
       0.095662355 -0.0748633 0.115954936 -0.04925775
000370 fb 10 9a bc 69 0a a3 3c f6 94 45 3d c3 1b f4 bd
       -0.018806925 0.019902425 0.048237763 -0.11919358
000380 d7 58 26 3d bf 41 23 be 48 f5 f0 bd f0 b5 d6 3d
       0.040612068 -0.15943049 -0.11765534 0.104839206
000390 2b 75 ea bc 16 e8 01 3c 75 b5 82 bd 3e 23 46 3c
       -0.028620323 0.007928869 -0.063822664 0.012093363
0003a0 5d e1 89 bd fa d5 d1 3c 8e 36 24 3e 17 ce d6 bc
       -0.06732438 0.025614727 0.16036436 -0.026221318
0003b0 51 21 10 bd 44 29 99 bc 2c f4 bf bd 2f 1c b2 bc
       -0.035188023 -0.018696435 -0.09372744 -0.021741955
0003c0 fa 65 cd 3d 01 e5 a6 bd 7f 15 cb 3d a0 c2 a2 3d
       0.10029216 -0.08149148 0.099162094 0.07947278
0003d0 b5 b6 fd 3d 8c 17 11 bd d1 2f da 3d e0 55 e8 3d
       0.12388364 -0.035422847 0.106536515 0.11344504
0003e0 07 a4 ad bd 55 c8 5d 3d 6f 54 83 3d 91 c0 2b be
       -0.08478551 0.05414613 0.06412589 -0.16772677
0003f0 60 e8 02 3e cf 6f 21 3e d5 24 b8 bd a4 07 a8 bd
       0.12783957 0.15765308 -0.089914 -0.08204582

model.rnn.bias_ih_l0 f4 [160]
000000 02 7b eb 3d 3d 1a 66 3b b2 ef bd bd a7 89 1d 3e
       0.11498071 0.0035110854 -0.09274234 0.15384541
000010 5a e2 ad bd ab ce e1 bd 33 3a a3 3d 2f 93 ea 3c
       -0.08490439 -0.11025747 0.07970085 0.028634636
000020 8c 04 4f 3e c4 fa 0c 3d 95 f0 c6 3d e8 55 c1 3d
       0.20216578 0.034418836 0.09713856 0.094402134
000030 58 19 6d bd bf e6 ac bd 30 a4 38 3e 7d fe 91 3d
       -0.057885498 -0.08442449 0.18031383 0.07128618
000040 18 06 8d 3d 70 15 18 be 4e 27 e8 3d d8 b5 d9 bd
       0.06885928 -0.14851928 0.11335622 -0.10630387
000050 ea 5c 39 3e 27 f9 af bd 7d 00 e2 3d 2f 69 73 bd
       0.1810185 -0.08592444 0.110352494 -0.059426483
000060 01 5e 38 3d af c4 ae bd df 8a 0c 3e 5a 35 2c bb
       0.045011524 -0.08533608 0.1372485 -0.0026276917
000070 5d d1 65 bd 57 ac a4 bd b6 57 26 bd 3b da 05 3d
       -0.056107868 -0.08040684 -0.04061099 0.032678824
000080 d1 6c b1 bd 12 83 43 3d be 31 02 3e e3 06 a5 3d
       -0.08663333 0.04773242 0.12714288 0.08057954
000090 3b cb 1e bd 59 6f 42 bd e5 a0 45 3d ae 54 d6 bd
       -0.038768034 -0.04746947 0.048249144 -0.1046537
0000a0 b6 9b 8e 3c b1 a7 e9 bd a1 e5 52 3d cd f1 ad bd
       0.017408233 -0.11408938 0.051488522 -0.084933855
0000b0 02 20 e6 bd 68 23 2d 3e 86 9f df bd f4 22 de 3d
       -0.11236574 0.16908038 -0.109190986 0.108465105
0000c0 08 79 08 3c 7f b6 0c bd fd 6a 08 3e 81 d0 9b 3d
       0.008329637 -0.03435373 0.13322063 0.07608128
0000d0 9e 17 6c bc d3 a8 14 be e5 26 fd 3b 6d 84 a3 bd
       -0.014409928 -0.14517526 0.007725584 -0.079842426
0000e0 70 e6 ed 3d 6f 93 10 be c5 f6 c3 bd 8b b3 3b 3e
       0.11616218 -0.14118741 -0.09568552 0.18330209
0000f0 8c 15 30 3d ea 38 fc 3d 8e be 82 3c f7 e2 f8 bd
       0.0429893 0.12315543 0.015960004 -0.12152665
000100 7b db 18 3e 42 26 ae bd f4 39 1b 3e 5e 33 dd 3d
       0.14927475 -0.08503391 0.15158826 0.10800813
000110 14 3a a0 3c 79 21 e3 bb 8e 13 fa 3d 44 a3 59 bc
       0.019558944 -0.0069314805 0.12210761 -0.013283554
000120 ff 0c a7 bc 8c fe 44 bd b9 c7 0b be 92 3b 07 bb
       -0.02039194 -0.048094317 -0.13650407 -0.0020634872
000130 e9 fe a7 3a 31 62 fb 3c a5 ad f3 bd fc b2 ba 3d
       0.0012817058 0.03068647 -0.118983544 0.0911617
000140 91 37 9c 3d 22 75 fb 3d 88 9d 43 3c b8 bd d9 bd
       0.07627786 0.12278201 0.011939414 -0.10631889
000150 bf cc dd bd 5f cd 14 be c5 b6 86 bd 8e a1 f5 3d
       -0.10830068 -0.14531468 -0.06577829 0.11993705
000160 f0 70 8e ba 53 2d 66 3d 3b cb f7 3c da 83 71 3c
       -0.0010867398 0.05619557 0.030248275 0.0147409085
000170 0f a1 b1 3d c2 18 83 bd 94 cf 03 3b 15 b6 0c be
       0.086732976 -0.064012066 0.002011274 -0.13741334
000180 e8 de da bc 5a 46 cc 3c 5b 5b d5 3d 0c 5f 1d 3e
       -0.026717618 0.02493589 0.10417815 0.15368289
000190 2b 5c b7 bd 91 d2 ed bd 97 5c 1b 3d 0e 89 18 3e
       -0.089531265 -0.11612428 0.037930097 0.14896032
0001a0 5c 22 04 be aa ca f7 bd 63 2e 7f 3d 42 82 d5 3d
       -0.12903732 -0.12099202 0.062300097 0.10425235
0001b0 5d f0 ec 3d e9 49 27 3d dc 9a 5a bd 6e db c6 bc
       0.11569283 0.04084197 -0.05337034 -0.024274554
0001c0 92 1b a8 bd 0f b1 74 bc 0e d2 5c bc 68 fa fe 3c
       -0.082083836 -0.014934792 -0.013477815 0.031125262
0001d0 92 44 44 bd 83 26 9f bd 40 cc e0 bd e1 af ee bd
       -0.047916956 -0.077710174 -0.109764576 -0.1165464
0001e0 48 c1 87 bd 49 b8 09 3e 92 da 4a bc 58 72 ac 3d
       -0.06628662 0.13449205 -0.012381213 0.08420247
0001f0 38 91 6c 3d b8 f4 21 3e ca 31 a7 bd fa e8 92 3c
       0.05775568 0.15816009 -0.081637934 0.017933358
000200 cd 88 b7 bc a6 e5 7c bc bd 92 17 be f8 51 e0 bd
       -0.022404099 -0.015435612 -0.1480207 -0.10953134
000210 c0 2c 12 3d fa 49 99 3d b3 1e c4 3d 6e 79 cb b8
       0.03568721 0.07484813 0.09576168 -9.702412e-05
000220 12 e3 9d 3d 75 4d 0f be 3c ba 20 3e 93 ce ce 3d
       0.07709326 -0.13994391 0.15696043 0.10097995
000230 05 0f 70 bd a6 b0 0f be c6 58 e7 bd 4d 57 26 3d
       -0.058608074 -0.1403223 -0.11296229 0.0406106
000240 e4 f1 c2 bd 3c e6 c2 bd d1 00 38 3e 4c 6d 3c be
       -0.09518793 -0.0951657 0.17969061 -0.18401068
000250 e3 a3 22 bd 21 68 e3 bc 0d 51 2d bd 8b 10 ad 3c
       -0.039707076 -0.027759613 -0.042313624 0.021126052
000260 ac 04 01 be 0a e4 e9 bd 11 85 12 3e 9c 00 01 be
       -0.12599438 -0.11420448 0.14308573 -0.12597889
000270 d1 ec af bc 34 98 b6 ba 4a 03 58 3d a1 7f 1f 3e
       -0.021475228 -0.0013930858 0.05273751 0.1557603

model.rnn.bias_hh_l0 f4 [160]
000000 c0 50 ca bc d1 11 bf 3d 0b dc 31 3e 87 c4 4c 3d
       -0.024696708 0.0932957 0.17369096 0.04999211
000010 14 59 53 3d bf 51 2d 3e b2 c5 e6 3d a9 d7 71 bd
       0.051598623 0.16925715 0.11268176 -0.05904356
000020 35 c4 13 3e 16 44 96 bd e2 af e5 bd 3d 15 ca bd
       0.14430316 -0.07337205 -0.112151876 -0.09867332
000030 5d 16 d3 bd dd c6 3d 3e c0 45 90 bc d0 3e cb 3d
       -0.10307 0.18532892 -0.017611384 0.0992409
000040 33 c0 ff 3d 66 41 06 be 0e 58 15 3e 74 f6 00 3e
       0.12487831 -0.13110885 0.14584371 0.12594014
000050 25 11 81 bd 41 bd 13 bd 41 65 d4 3b f4 fd 2a 3e
       -0.06302098 -0.03606916 0.006481797 0.16698438
000060 e2 df e7 bd 90 ad a2 3d 32 6e 2d bd 3c 61 2f bd
       -0.11321999 0.07943261 -0.04234142 -0.04281734
000070 96 80 1a be 1d 33 39 3e 08 49 1b 3e 21 47 16 bd
       -0.15088114 0.18085904 0.15164578 -0.036688928
000080 ad 93 dc ba dc a1 2d 3e a7 fc 7e 3c 3b 3b cd bd
       -0.0016828679 0.16956276 0.015563167 -0.10021063
000090 9c ec 2e 3e 9f c4 be bd eb 47 2c 3d 33 28 c0 3d
       0.17082447 -0.09314846 0.042060774 0.093826674
0000a0 f0 8f 00 3e 34 76 28 be 09 4d 74 3b 75 0e 7b 3d
       0.12554908 -0.16451341 0.0037277362 0.061293084
0000b0 52 7b 28 3e 0b bb e1 bd a0 f2 5f 3d aa a1 21 be
       0.16453293 -0.11022004 0.054674745 -0.15784326
0000c0 eb 81 40 bd 13 4f c6 3d 32 3b ed 3d 99 1c b9 3d
       -0.0469989 0.09683051 0.11583556 0.09038658
0000d0 5a 75 5a 3c ff 4f ce 3d ed 2d f7 bd 7a d3 03 3e
       0.013333643 0.10073852 -0.120693065 0.1287364
0000e0 14 49 b9 3d 8e 76 2f 3d 75 7f 13 3e 7c a9 e5 3d
       0.09047142 0.042837672 0.1440409 0.11213967
0000f0 b2 f7 18 be 18 1d e4 3d a6 66 e6 bd e5 7c af 3d
       -0.14938238 0.11138362 -0.112500474 0.085687436
000100 02 a2 2b 3d 8b 79 9a 3d 63 f0 b1 bd 6d 92 09 3e
       0.04190255 0.07542714 -0.08688428 0.13434763
000110 04 13 51 3d 9a 6c c3 3d 66 d7 30 bd 74 0f 15 3c
       0.051043525 0.095421985 -0.04317417 0.009097923
000120 fc 9f a6 3d 7d f5 68 bd 7e 97 25 be dc 53 17 bd
       0.08135983 -0.05687474 -0.16171071 -0.03694521
000130 71 23 00 3e 63 7e 83 bd 83 0c 95 bc 45 72 bc bc
       0.1251352 -0.06420591 -0.018194443 -0.023003707
000140 1e 5d 03 3e a1 ef b7 bd 52 5a 43 bd 0b e6 dc 3d
       0.1282849 -0.089812525 -0.047693558 0.10786065
000150 09 bc fe bb 4b 28 0b bd f7 af 88 3d bb 5c d8 3a
       -0.0077738804 -0.033973973 0.06674188 0.0016507128
000160 8e f3 1f be 03 9e 81 bd 7f 09 4a 3d 23 95 ee 3d
       -0.15620252 -0.063289665 0.049325462 0.11649539
000170 f9 d7 f1 bd 8b 09 e7 bd 8e 82 2b 3e 9b 16 8c bd
       -0.11808772 -0.11281117 0.16749021 -0.06840249
000180 f4 0e c2 bd 9e 56 18 3e 42 bb ac bd 56 8d fe 3d
       -0.09475508 0.14876792 -0.08434154 0.124293014
000190 da 89 a6 3d 04 70 b4 bc d8 9b 61 bd 2f 86 2c 3e
       0.08131762 -0.02202607 -0.055080265 0.16848062
0001a0 a6 e2 69 3d 29 09 0e 3e d3 c5 83 3c 5b 45 36 be
       0.057100914 0.13870682 0.01608554 -0.17799895
0001b0 c7 50 91 bd 24 84 97 3d 9c 8b a9 bd e6 14 29 bd
       -0.07095485 0.07398251 -0.082785815 -0.041279696
0001c0 12 6d 13 be 04 c6 33 3d ba b3 01 3e cc 73 33 3e
       -0.14397076 0.043890014 0.12666216 0.17524642
0001d0 63 44 02 3e 4f d9 b8 bd cc 9c ee 3d 45 dc fa 3d
       0.127214 -0.09025823 0.116510004 0.12249044
0001e0 b4 ce 89 bd ce b7 91 bd 4b f2 49 bd e2 31 81 3d
       -0.067288786 -0.07115136 -0.049303334 0.063083425
0001f0 b2 f7 0c 3e fd 89 99 bc c9 bc b8 3c ec 5d 2a 3d
       0.13766363 -0.018742556 0.022550957 0.041593477
000200 4f a0 64 3e 54 18 04 3e 0b 11 20 3e d0 eb d2 3d
       0.22326778 0.12899905 0.15631501 0.10298884
000210 8d 65 52 bd 82 dc 14 3e 03 95 fc bc 92 f7 5a bc
       -0.051366378 0.14537242 -0.030832773 -0.013364689
000220 39 bb e8 bd 53 f4 cf 3d 8c b3 aa bd f8 4c e2 3c
       -0.11363835 0.10154023 -0.08335027 0.027624592
000230 c3 95 67 bd 8f d9 a3 bd d6 8e ff 3d c3 e8 b4 3d
       -0.05653931 -0.080004804 0.12478416 0.08833458
000240 7b 57 8f 3d 59 ca 99 3d 98 e4 72 bd 32 a3 3f be
       0.069991075 0.07509298 -0.059300035 -0.18714598
000250 d5 03 0c 3e 61 82 37 3e 6b 41 19 3e 9d bf b1 bd
       0.13673337 0.1792083 0.14966361 -0.086791255
000260 74 79 b9 bc 04 33 f8 bc 20 0e 94 bd dc 0f 64 bd
       -0.022640921 -0.030297764 -0.07229257 -0.055679187
000270 8c 53 12 be 60 a5 d9 3d b2 38 13 be f0 3f 9d bc
       -0.14289683 0.10627246 -0.14377096 -0.019195527

model.rnn.weight_ih_l1 f4 [160, 40]
000000 6b eb ed 3d 97 f8 56 3e 60 82 4c bb a8 82 1b 3e
       0.11617168 0.20993267 -0.003120564 0.1518656
000010 eb d3 af bd af 24 be 3d 53 d1 18 3e 6c df de bc
       -0.08585342 0.092843406 0.14923601 -0.027206145
000020 94 52 d3 bd 27 7e b3 bd 4a 2e 54 bc 65 89 b6 3d
       -0.10318485 -0.08764296 -0.012950489 0.08912925
000030 f8 41 f2 3d e7 4b bf bd 29 d1 44 bd 13 b5 c4 3c
       0.11828989 -0.09340649 -0.048051033 0.024012124
000040 ea 35 80 39 e8 cf da 3c 11 e3 29 3e b2 50 04 be
       0.00024454232 0.026710466 0.16590525 -0.12921408
000050 64 c3 f2 3d 77 5f b1 3d b3 67 e5 3d 3d 8d 27 3d
       0.11853674 0.086607866 0.1120142 0.04090618
000060 2c 58 e5 3d 11 45 ed 3c 60 e2 d0 bc 83 74 cc bd
       0.11198458 0.028963597 -0.025498569 -0.0998316
000070 b1 f3 2f 3e fb 40 fd bd 0b 74 2c bd 9e 72 22 3e
       0.17182805 -0.1236591 -0.042102855 0.15864035
000080 4e 04 3b bd 13 43 9b bd 62 e2 03 be d4 95 17 3e
       -0.045658402 -0.07581153 -0.12879327 0.14803249
000090 a0 dc c0 3d ee d6 9e bd 7f 7c d4 3c 68 11 1d 3e
       0.09417081 -0.07755838 0.02593827 0.15338671
0000a0 35 68 08 bd 05 e0 28 3e ea d4 b5 3d b9 1b eb 3d
       -0.033302505 0.16491707 0.08878501 0.11479897
0000b0 73 79 c2 3d 60 cb d3 bc 61 5a f3 3d 86 9f ac bd
       0.09495821 -0.025853813 0.11882473 -0.08428864
0000c0 4f c8 16 be 97 b5 28 be 73 7c 3a 3e 1b df 5f 3d
       -0.14724849 -0.16475521 0.18211536 0.05465613
0000d0 58 47 e2 bd e4 59 3e bc 5a d6 a8 bb 3e 5c f6 bd
       -0.11048764 -0.011618111 -0.005152506 -0.120293126
0000e0 4d dc fc bd 0f 40 15 be 6b f2 15 be 65 9e 3c 3e
       -0.123467065 -0.14575218 -0.14643256 0.18419798
0000f0 ef 9d 27 3e ff 71 d9 bd 17 99 cd bd 3b 13 a6 bd
       0.1636884 -0.10617446 -0.10038965 -0.08109137
000100 87 75 f9 3d a1 e3 0b be 9a 82 36 3d 7e ab c7 bd
       0.1218062 -0.13661052 0.044558145 -0.097495064
000110 8e c5 dc 3d fe 9a 05 be 6e 87 09 be 32 a8 ce bd
       0.10779868 -0.13047406 -0.13430569 -0.100906745
000120 7f b9 ad 3d c8 05 a9 3d 0c 2c 37 3c 17 49 75 bd
       0.08482646 0.08253056 0.011179935 -0.059884157
000130 7f 79 94 bb 27 7b c9 bc c1 b5 89 bd d3 9b b6 bc
       -0.004531085 -0.024594856 -0.0672412 -0.0222911
000140 62 69 80 3d 35 89 79 3c eb 92 2d 3e 54 a8 1f be
       0.062701 0.015230467 0.16950576 -0.15591556
000150 ff 16 99 bd fd 47 b5 3d 0b a6 6c 3d 74 49 85 bd
       -0.07475089 0.08851621 0.05777554 -0.06508151
000160 4a 85 c6 bd f6 4c 98 3c 49 44 a0 bd 32 73 03 be
       -0.096933916 0.018591385 -0.07825524 -0.12836912
000170 6b ef f8 3c 09 19 c2 bd 0c cb 95 bd 63 64 3d be
       0.0303876 -0.09477431 -0.07314119 -0.18495326
000180 a5 7e c4 3d 16 42 46 bc 56 c6 16 bd 86 b4 56 3c
       0.09594468 -0.012100717 -0.03681024 0.013104564
000190 aa 96 94 bd 70 c5 50 be ad 55 57 3d aa d9 bb 3d
       -0.072552994 -0.20387816 0.05257194 0.091723755
0001a0 0d 8d 06 be 49 74 34 be 57 21 fa 3c 83 dc 0f 3d
       -0.13139744 -0.17622484 0.030533476 0.035122406
0001b0 46 cd 72 3b cb 26 4e be 1e b3 03 be 0e 54 0d 3e
       0.0037048622 -0.20131986 -0.12861297 0.13801596
0001c0 a3 c1 2a be 2f f7 12 be 87 35 12 bc 2a b4 ca bb
       -0.16675429 -0.14352106 -0.008923895 -0.006186028
0001d0 c3 d6 45 be 55 5d 47 be 78 a5 a8 bd 70 0e 28 be
       -0.19320206 -0.19469197 -0.08234686 -0.16411757
0001e0 60 3d 8d bd 28 3e db 3d c6 cd 03 bc 81 d7 ff 3d
       -0.06896472 0.10705215 -0.008044666 0.12492276
0001f0 d3 cc de 3d c2 b1 af bd dc 64 13 3e f6 cf a9 3d
       0.10878911 -0.085788265 0.14393944 0.082916185
000200 df c0 fb bd 84 09 72 bd 6e 94 84 bd 1c 28 e9 3d
       -0.122926466 -0.059091106 -0.06473623 0.113846034
000210 8f cb 94 bc fb 6f 2a 3e 43 f5 d1 3d 62 ec 2f be
       -0.01816347 0.1664428 0.10251858 -0.17180017
000220 e7 56 c8 3d a6 9f e0 bb 61 5c f3 bd c3 cd b0 bd
       0.097822 -0.006854969 -0.11882854 -0.08632996
000230 a4 d4 1f 3e 68 33 d3 bd 9f bd 7d bd 8e de d9 3d
       0.1560846 -0.10312539 -0.061948415 0.10638152
000240 86 9d ae 3d 2a 7e 14 be ab 36 7c bd 5d 2f d9 3c
       0.08526139 -0.14501253 -0.061575573 0.026511842
000250 b8 cc e0 3d 05 a9 a5 3c d0 0c 24 3e ac a2 41 3e
       0.10976547 0.020222196 0.16020513 0.1890971
000260 9c 81 d9 3c ab bf cd bc a9 84 a0 3b b6 81 b1 bd
       0.02655106 -0.025115808 0.004898627 -0.086673185
000270 e1 c0 25 3c 83 ca cb 3d 1a 5f 0d bc 4f 72 aa bc
       0.010116787 0.099507354 -0.008628631 -0.02080646
000280 b7 15 32 bd e9 2b a1 3d 19 1e 7e 3d 72 62 6c bc
       -0.04347774 0.07869703 0.062040422 -0.014427768
000290 ef 39 27 3e 66 4a a1 bd 2c 07 2a bd 4d 8d dd bd
       0.16330694 -0.078755185 -0.041510746 -0.108179666
0002a0 c9 4e 11 3d 46 d6 7f bd b0 61 b3 bd 3d 8c f7 3d
       0.035475526 -0.062460206 -0.08758867 0.12087295
0002b0 96 4d 65 bd 49 bd 09 3c 0a 3c df bd f0 df 3b bd
       -0.055982195 0.0084069455 -0.109001234 -0.04586786
0002c0 ee 48 a8 3d 2c ac d7 bc 43 be 29 3c b1 38 0a 3d
       0.08217035 -0.026327215 0.010360303 0.03374547
0002d0 2a 6b cd 3d 6a 31 20 bd 6e c4 03 be 90 a0 f8 bd
       0.100302055 -0.039109625 -0.128679 -0.1214
0002e0 19 b0 53 3d b6 ed 4c 3d ac cc ff 3d c9 03 13 be
       0.05168161 0.050031386 0.1249021 -0.14356913
0002f0 d1 65 2c 3e f4 4f d5 bd c4 8a 00 3e db cc ff bd
       0.16835715 -0.104156405 0.12552935 -0.12490245
000300 8d 87 3b 3d d3 d5 42 3d 8e 96 b9 bd 5e 37 6f 3d
       0.04578357 0.0475672 -0.09061919 0.05840241
000310 d6 83 87 3c 1b 76 ff bc a7 21 30 bc 02 54 db bd
       0.016542356 -0.031184247 -0.010750211 -0.107093826
000320 89 3c 7a 3d 76 ca 01 be f5 2b db 3d 53 69 8e bd
       0.061092887 -0.12674889 0.107017435 -0.06953683
000330 e5 60 f0 3d 8c 77 b4 bd 8e e6 75 bd ba 76 cc bc
       0.11737231 -0.08811864 -0.060034327 -0.024958957
000340 9d 9a 9f bc c4 8e a0 3d 6a c9 f7 3d 6d 1f ab bc
       -0.019482905 0.078397304 0.120989636 -0.020889008
000350 03 12 e1 bd f5 11 81 bc d0 fb 0c 3e f8 98 fc bd
       -0.109897636 -0.015755633 0.13767934 -0.12333864
000360 2f 3d 00 3e bc 65 0a 3e f2 07 5d 3d ea 5d 52 3d
       0.1252334 0.13515371 0.053962655 0.051359095
000370 f9 c9 17 3e 84 1c 3b bd e5 ec 09 bd c1 39 0d 3e
       0.1482314 -0.04568149 -0.033673186 0.13791563
000380 8c 22 17 bd b2 67 20 be 06 f7 18 3e 97 6b d3 bd
       -0.03689818 -0.15664557 0.14937982 -0.103232555
000390 a3 1d 0d 3e 0d 53 d1 bc 21 0d 64 bd 13 5f eb 3d
       0.13780837 -0.025552297 -0.055676583 0.11492743
0003a0 3c cc fe bc 38 6b 22 be 69 66 f5 3d 4a a6 75 bd
       -0.031103246 -0.15861213 0.11982424 -0.05997304
0003b0 1c 52 08 be dc 2d f2 3d a0 d1 d8 3d 13 9f d6 3c
       -0.13312572 0.11825153 0.10586858 0.0261989
0003c0 fd b1 5e bd b7 bc 23 3e e4 0c ed 3d 92 bd df 3d
       -0.05436896 0.15989958 0.11574724 0.109248295
0003d0 cf 91 15 3e 88 27 af 3c f4 c2 67 bd 7e 40 57 be
       0.14606403 0.021381155 -0.056582406 -0.21020696
0003e0 f4 01 fe 3d 25 f6 8e bc bf 51 60 bd d4 46 c0 3d
       0.12402716 -0.017451355 -0.05476546 0.093885094
0003f0 1f ae 87 3d 35 94 59 bd 0a e6 f4 bd 70 2e de bd
       0.06625008 -0.053119857 -0.11957939 -0.10848701

model.rnn.weight_hh_l1 f4 [160, 40]
000000 f5 94 89 3b 31 5c 12 3e ba ab f1 3d c2 f4 83 bc
       0.0041986653 0.1429298 0.11800332 -0.01610792
000010 7c 56 4a be b1 73 c7 bd bb 4f ea bd bd 2f ea bd
       -0.19759554 -0.09738863 -0.11440989 -0.114348866
000020 ad 20 ce 3d d7 4f 8b 3d a9 b7 f4 3d 81 fc a8 3d
       0.10064826 0.068023376 0.11949093 0.08251286
000030 7c 33 84 3d 5f 94 db bd 9e 78 f0 3c 89 72 2d 3d
       0.06455132 -0.10721659 0.02935439 0.042345557
000040 2e 48 35 bd 89 d5 09 3e a6 b7 78 3d ae 0e a9 3d
       -0.04425829 0.13460363 0.060722016 0.08254753
000050 02 c5 01 3e 3f 3a de bd f7 4b 93 bc a5 21 90 bd
       0.12672809 -0.10850953 -0.017980559 -0.07037667
000060 a9 5d ba bd 40 d3 10 be d8 a8 ec 3c 57 bd cf bd
       -0.090998955 -0.14143085 0.028889105 -0.101435356
000070 f1 ae 08 3e 13 d7 2a 3c 4a 4a 1f be 80 a1 5c 3d
       0.13347985 0.010427254 -0.15555683 0.053864956
000080 92 d7 0a bd 56 c2 bb 3c ce 91 b3 bd 63 32 0b bd
       -0.03389699 0.022919815 -0.087680444 -0.0339836
000090 57 87 a5 bd 5b bb ab 3d c3 4e e1 3d 65 dc aa bc
       -0.08082455 0.083853446 0.11001351 -0.020857045
0000a0 1d 45 85 bd 98 68 1e bd a2 c3 46 bc 3f d0 eb bd
       -0.06507323 -0.038673967 -0.012131603 -0.11514329
0000b0 04 7e a1 3d f6 4e fc bd 78 78 a1 bd 52 3f 08 3e
       0.07885364 -0.12319748 -0.07884306 0.13305405
0000c0 3c 04 54 3d 9c 88 2f be 45 a7 de 3c 2a e0 32 3c
       0.05176185 -0.17141956 0.02717937 0.010917703
0000d0 e7 ff d8 3b 96 70 47 bd 9f 8b 03 bd 5d 66 2f 3c
       0.006622303 -0.048691355 -0.032115575 0.010705558
0000e0 b7 b3 5a 3d 5d 60 c5 3d 5f 70 e7 3d a3 32 29 be
       0.053394046 0.096375205 0.1130073 -0.16523223
0000f0 9d 7d 88 bd 03 6b b8 bd 96 41 d2 bd 2b 2e 3b bd
       -0.06664584 -0.09004786 -0.10266416 -0.045698326
000100 41 8f 9a bd ff e9 06 3e 84 5a 02 3d e0 d6 99 3d
       -0.07546855 0.131752 0.031824604 0.07511687
000110 55 dd dc bd f9 25 c5 bd 8c 2d ff 3d 1f 4b da bd
       -0.10784403 -0.09626383 0.12459859 -0.106588595
000120 86 5b 70 3d 87 d0 34 3e 53 a5 ce 3d 96 d0 c4 3d
       0.058681034 0.17657672 0.10090127 0.09610097
000130 38 9c cb bd 97 a9 75 bd 93 e4 a2 3d cf e3 9f bd
       -0.09941906 -0.059976187 0.07953753 -0.07807123
000140 43 a9 90 3d 17 d4 65 3b 50 14 20 be 8a 44 f2 3d
       0.07063534 0.0035069042 -0.15632749 0.11829479
000150 87 18 1d 3c 59 c8 8c 3d 1f 43 10 3e 0f ab 78 3d
       0.009588367 0.06874151 0.14088105 0.06071001
000160 8b fe 2d 3e f4 e1 fa bd 8c dc 56 3d 1b 7a b0 bd
       0.16991632 -0.122501284 0.052456424 -0.0861704
000170 21 ab f1 bd 62 52 ea bd b1 07 02 3d 0f f7 26 bd
       -0.118002184 -0.114414945 0.031745616 -0.040762957
000180 9c 41 d1 3c 70 81 61 3d 52 fb f6 bc 95 23 35 bd
       0.02554398 0.05505508 -0.030149136 -0.044223387
000190 3b c6 d8 3d 07 d8 12 be d7 1f 91 bd 3c 11 8b bd
       0.105846845 -0.1434022 -0.07086151 -0.067903966
0001a0 fb 19 e3 3c 48 c0 eb 3d 35 d0 2e be 28 f5 ef bd
       0.02772235 0.11511284 -0.17071612 -0.11716682
0001b0 41 f3 4f be 64 40 2a 3d 71 e9 00 be e3 7c 2a be
       -0.20307638 0.041565314 -0.12589051 -0.16649203
0001c0 b4 0d 8a 3d b4 79 37 bd 77 2c df bd 26 c2 dd 3d
       0.06740895 -0.0447938 -0.10897153 0.108280465
0001d0 0d bc 19 bb 57 c9 b8 3d 23 6b a3 bd 6e a8 54 3d
       -0.0023458034 0.090227775 -0.07979419 0.05191844
0001e0 f1 c1 33 3e 74 38 d3 3d b8 70 39 3d 23 ee 83 3d
       0.17554452 0.10313502 0.045273513 0.06441905
0001f0 3c c6 06 3e 2d db fb bd 5a 0a 22 bd cf ce e9 3d
       0.13161558 -0.12297664 -0.039560653 0.11416399
000200 1d 9e 86 3d 7c 9b 55 bc 13 94 7e 3d 15 e4 dd 3c
       0.065731265 -0.013037559 0.062152933 0.027086297
000210 aa 48 f0 3d 1f ce 93 bd d2 17 cb bd a0 40 9b 3d
       0.117326096 -0.07217049 -0.09916653 0.075806856
000220 c8 14 19 3e ac b7 96 3d 1c 02 06 3e 4e 14 7b bd
       0.14949334 0.073592514 0.13086742 -0.06129866
000230 11 30 0c 3d 5f 35 6e 3d bd 5b 24 3d 8a 9a 25 bd
       0.034225527 0.058156367 0.04012655 -0.040430583
000240 e3 1a 46 3d a3 3f 32 3e 79 fe 20 be f3 24 a2 bd
       0.048365485 0.17407088 -0.15722074 -0.07917204
000250 f1 7f ff bc 80 a1 ef 3d 90 25 6a bd bb e7 47 be
       -0.031188937 0.117007256 -0.05716473 -0.19521992
000260 87 40 05 be 38 17 19 bd 7b 76 e0 bd 00 91 74 3d
       -0.13012896 -0.03737566 -0.10960098 0.059708595
000270 c5 9b 0a 3e 2b 57 87 3d a0 41 18 3e 80 bd 27 bc
       0.13535984 0.06608423 0.14868784 -0.010238051
000280 0c d8 ce bd 1f b2 9a 3c de ab 11 3e ca 9e c9 bd
       -0.100998014 0.018883763 0.14225718 -0.0984474
000290 60 0d 78 bd e9 7a ab 3d 0b 2d 02 3e 2e 24 d5 3d
       -0.06055963 0.083730526 0.12712495 0.10407291
0002a0 b9 06 11 bd 07 da 11 bd 0c 9e 42 ba c1 ec ce 3d
       -0.0354068 -0.035608318 -0.00074240635 0.10103751
0002b0 c2 e3 65 3d 35 f3 00 be 0c b4 8f bd 6f 84 9d 3d
       0.05612541 -0.12592776 -0.07016763 0.07691275
0002c0 f8 57 b0 3d 8c 96 f8 3d 90 f7 e2 bd 49 c6 c0 3c
       0.08610529 0.121380895 -0.11082375 0.02353205
0002d0 22 c5 73 3d e3 70 9a bd c7 f2 3f 3e ba 8f 40 3d
       0.059514172 -0.07541063 0.18744956 0.04701207
0002e0 74 c0 0a be 10 04 ff bc 1c 2e c6 3d 96 ad 8b bd
       -0.13549978 -0.031129867 0.096767634 -0.06820218
0002f0 54 2e 4a 3d 32 48 ff bd f9 50 33 be 99 f4 94 3d
       0.04936059 -0.12464942 -0.17511357 0.07273216
000300 be 59 8b 3d f1 14 9c bd 21 cc c4 3d e2 27 8a 3d
       0.06804226 -0.07621182 0.09609247 0.06745888
000310 c2 07 2a 3e a1 4d 3f be 02 2c 04 3e 9e f0 50 3c
       0.16604522 -0.18681957 0.12907413 0.01275268
000320 45 58 37 bd bf a9 12 be 0a e2 bd 3c 2a cd 15 3e
       -0.044761915 -0.14322565 0.023179073 0.14629045
000330 d4 16 04 bd 6c 22 d9 3d 84 90 08 bd 40 ae d8 bd
       -0.032248333 0.106022686 -0.033340946 -0.105801105
000340 29 a8 2d bc 73 99 99 bd 2f c7 98 3d 0c 62 96 bb
       -0.010599175 -0.07499971 0.07459866 -0.004589325
000350 01 8a 1a be aa 74 67 3d da cb 97 bd 2e 7b 9b 3d
       -0.15091707 0.056507744 -0.074119285 0.07591854
000360 57 02 a3 3d 37 f7 00 3e 8d 28 39 3d ba f0 8a 3c
       0.07959431 0.12594305 0.045204688 0.01696049
000370 f2 4d f8 bd c2 9a ac 3d 2a a8 de bb a2 ce 30 3e
       -0.12124242 0.08427955 -0.006794949 0.17266324
000380 bb d3 d7 3b b5 93 d8 bd 05 98 1e be bd 68 29 be
       0.0065865195 -0.10575048 -0.15487678 -0.1654386
000390 7e 72 5a bd 01 6f 35 be 24 49 cf bd 1c 3c 48 3d
       -0.053331845 -0.17718126 -0.10121372 0.04888545
0003a0 76 e8 6b bd 8b 73 e6 3d 68 5e 96 3d 72 4e ea 3d
       -0.05759474 0.11252507 0.07342225 0.114407435
0003b0 f8 5c 10 be 4e 27 dd 3d 0f d0 f7 bd 73 90 16 3e
       -0.14097965 0.107985124 -0.12100231 0.1470354
0003c0 95 23 de bd 0e b1 2e 3d 9b dc 39 3d 7c 0e ff 3d
       -0.108466305 0.04264932 0.0453764 0.124539346
0003d0 94 fa ff 3d 84 a7 c7 bd 73 f4 9b bd e9 8a 09 be
       0.12498966 -0.09748748 -0.07614984 -0.13431896
0003e0 fd d0 1c be 86 d1 24 be b0 78 5a bd 3a 0e 90 bd
       -0.15314098 -0.16095552 -0.053337753 -0.070339635
0003f0 7a 56 93 bb 3d f2 a6 3c d9 58 67 bc db 9f 90 bd
       -0.004496393 0.02037918 -0.014120304 -0.0706174

model.rnn.bias_ih_l1 f4 [160]
000000 d1 9d 15 3e 78 70 03 3e c7 8a 21 3d 04 7c 97 3d
       0.14610983 0.12835872 0.03943899 0.07396701
000010 fc 50 14 39 fc 29 21 bd 24 dd b2 bd 45 d8 15 3e
       0.00014144549 -0.03934668 -0.087335855 0.14633282
000020 11 71 86 3d 08 dc 18 3e 09 9f e7 3d d0 20 de 3b
       0.065645345 0.14927685 0.113096304 0.006778814
000030 7b cc d5 3d d3 19 7b 3d 3a b7 b9 3c f7 af b6 3d
       0.10439392 0.061303925 0.022670377 0.089202814
000040 24 bb 4b bb 00 47 f0 3d 13 fa 46 3e d9 2e ce bb
       -0.0031086886 0.11732292 0.19431333 -0.006292206
000050 42 09 25 3e 36 8a 07 3e 9c 5c 02 be dc 7d 5b 3d
       0.16116813 0.13236317 -0.1273064 0.053586826
000060 cd 9e 15 be 02 68 b6 3d 0f c4 e7 bd e9 fb f5 3d
       -0.14611359 0.08906557 -0.11316692 0.12010939
000070 12 8a 19 bd 05 b4 ef bd e7 e6 36 3e 73 15 0e 3d
       -0.03748519 -0.11704258 0.1786152 0.034688424
000080 1a b5 8e bd 83 24 12 3e f2 b4 60 3d cb 36 8f 3c
       -0.06968136 0.1427174 0.054860063 0.017482182
000090 a5 09 50 3d ed 4d f1 3b df 59 06 bd f1 19 bd 3d
       0.050790448 0.007364026 -0.03280055 0.092334636
0000a0 23 41 03 be c2 8d 47 bd a9 f4 93 3d 1a c9 39 bd
       -0.12817816 -0.048719175 0.072243996 -0.0453578
0000b0 3c f8 a9 bd dd 35 51 bd fa c5 85 bb 36 ad 8a bd
       -0.082993 -0.05107676 -0.0040824385 -0.067713186
0000c0 7e fe a3 bd 6d 24 0f be 58 14 47 bc 36 3d d3 3d
       -0.08007525 -0.13978739 -0.012150846 0.103144094
0000d0 e2 19 03 bd 73 8c 04 3e a0 b6 07 3e 39 1c a8 3d
       -0.032007106 0.12944202 0.1325326 0.08208508
0000e0 07 33 69 3d 80 a0 df bc ec c8 7c bd 9d 8f e8 3d
       0.05693343 -0.027298212 -0.06171505 0.11355517
0000f0 4f 04 72 3d 33 ba df 3d 76 1e 1e be 74 52 f0 bd
       0.05908614 0.109241866 -0.15441307 -0.11734477
000100 4e 32 03 3e a2 21 1b be 6c 9c 1e 3e 97 2c b8 3d
       0.12812158 -0.15149549 0.15489358 0.0899288
000110 02 90 5b 3d 7f 19 b8 3c fe 79 b3 bb 05 ff 1d 3b
       0.053604133 0.022473095 -0.005477189 0.0024108302
000120 93 69 c3 3c f9 56 13 3e fa 11 a8 bd c9 74 cf bd
       0.023854053 0.14388646 -0.08206554 -0.10129697
000130 c5 16 09 3e d2 be e0 bc 6f 4b 54 bd 4f 58 41 3d
       0.13387592 -0.02743474 -0.05182975 0.04720336
000140 88 8f 13 3e ea 39 88 3c c8 24 85 bc 8f fc 23 3e
       0.14410222 0.016629178 -0.01625289 0.16014312
000150 fe 7c a4 3d 0c 90 b4 3d e6 13 c8 3d 37 97 41 3d
       0.08031653 0.08816537 0.0976942 0.04726335
000160 09 e6 5a 3c 30 60 e4 bd 9c 91 11 be 59 12 be 3d
       0.013360509 -0.11151159 -0.14215702 0.09280843
000170 b2 cc c1 bd 79 12 04 3e 65 8f b3 3d 89 bc d6 bd
       -0.09462871 0.12897672 0.08767585 -0.10485179
000180 6e c3 08 3e a5 2b c4 bc b1 be 41 bc b7 8c 19 be
       0.133558 -0.023946593 -0.0118252495 -0.14995085
000190 7e cd 2b be d6 76 49 3c a6 e8 be bd 61 a0 e8 3d
       -0.16777608 0.012296399 -0.09321718 0.11358715
0001a0 3f 94 25 be 5f c2 fb 3d 54 16 94 3d 1a e0 0f be
       -0.16169833 0.12292933 0.07230821 -0.14050332
0001b0 54 0d cb bd 82 77 91 bd 0d ed 96 bd ee ac 1c bd
       -0.099146515 -0.071028724 -0.073694326 -0.038250856
0001c0 78 3b e9 bd 2c 72 98 3d ee cc 0f 3e 3e 49 96 bd
       -0.11388296 0.074436516 0.14043018 -0.073381886
0001d0 06 85 ea 3c e7 96 3f 3d d7 8a c0 3c de 5e d9 3d
       0.028627884 0.04677477 0.023503704 0.106137976
0001e0 f8 83 97 3d 02 3a b1 3d 4b 73 c8 ba d1 88 c5 bd
       0.07398218 0.08653642 -0.0015293149 -0.09645236
0001f0 c6 38 41 3e 54 50 ff 3d 37 67 50 3d c5 86 a6 3c
       0.18869314 0.12466493 0.050879683 0.020327935
000200 1a f2 cc 3d 35 ff 4f 3e 88 dc 12 bd 29 b6 86 bb
       0.10007115 0.20312198 -0.035854846 -0.0041110707
000210 6e ce 0b 3e e6 f9 3a 3e c9 0d be 3d 2e 46 84 3d
       0.13652965 0.18259391 0.09279973 0.06458698
000220 0e 33 3e 3e c8 3b ef 3d b2 15 87 bd 6b 56 97 3d
       0.18574163 0.11681324 -0.06595935 0.0738953
000230 21 74 57 3d 92 52 9a 3d c8 6c 95 3d 90 fe ba 3d
       0.052600984 0.0753528 0.07296139 0.09130585
000240 f9 c0 0e 3e 5d 59 7c 3d 3c ba 83 3d 58 6e 12 3e
       0.139408 0.06160866 0.06432006 0.14299905
000250 aa fc cf 3d 42 b1 08 3e db 09 ec bd 3e 89 29 3e
       0.10155614 0.13348868 -0.11525317 0.1655626
000260 4f e6 a4 3d 43 36 fa 3d 14 e3 04 3e b8 27 23 bb
       0.080517404 0.12217381 0.12977248 -0.00248955
000270 e3 0d e0 bc 97 b4 12 3e 8b fa 8b 3d f7 48 d0 3d
       -0.027350372 0.14326702 0.06834897 0.10170167

model.rnn.bias_hh_l1 f4 [160]
000000 ab 39 21 bd 04 f1 20 3e 77 5e e4 3b e3 42 2a 3e
       -0.039361637 0.1571694 0.006969269 0.16627078
000010 70 ea c4 3d 12 e7 dd 3d 95 f9 10 be 83 71 f7 bd
       0.09615028 0.10835089 -0.14157708 -0.120821975
000020 c8 e9 a2 3c 14 a8 40 3e c5 a1 d8 3d a2 a9 71 bd
       0.019886866 0.18814117 0.1057773 -0.058999665
000030 f3 77 a4 bd 1e 23 29 3e 32 49 3f 3e f1 e7 df bd
       -0.08030691 0.16517302 0.18680266 -0.10932911
000040 33 aa a3 3d 7d 8e 9b bd e6 74 0f bd 70 a3 c5 bd
       0.07991447 -0.07595537 -0.035023592 -0.09650314
000050 db 90 3e 3e 22 77 d9 bd fa 7a 91 bd f0 25 6e 3d
       0.18609945 -0.10618426 -0.07103534 0.05814165
000060 97 99 ab 3c 37 cc 80 3d d9 ce 81 bb 62 e9 d5 3d
       0.02094726 0.06288951 -0.0039614257 0.10444905
000070 e4 77 9e 3d ea 19 91 bd 09 84 48 3e f1 fc e8 3c
       0.07737711 -0.07085021 0.19581617 0.028440924
000080 83 51 d0 3c 8a 4d aa bd c0 90 cc 3d 05 57 f7 3d
       0.025429493 -0.08315571 0.09988546 0.120771445
000090 4d e2 ae bd 0f ff 91 bd 8c 60 02 bb dc fc e8 bc
       -0.08539257 -0.07128727 -0.0019893972 -0.028440885
0000a0 d6 b8 20 3e d2 d1 cd bd 64 38 9b bb 49 37 8f 3b
       0.1569551 -0.10049786 -0.004736947 0.004370604
0000b0 6c ed e8 bc c9 73 41 3e a4 45 88 bd 4b 6d 1c 3e
       -0.028433524 0.18891825 -0.06653908 0.15276067
0000c0 ef 38 23 3e 1d 59 17 3e f9 33 84 3c 90 d5 e4 bd
       0.15939687 0.14780088 0.016138064 -0.11173546
0000d0 94 4b e4 bd 81 66 8a bd 5e 36 1e 3e 33 f9 ef 3b
       -0.11147228 -0.06757832 0.15450427 0.007323408
0000e0 aa 56 f3 bc 3e ec ee bd c9 d3 7a bc b3 d3 32 3d
       -0.02970441 -0.11666153 -0.015309283 0.043658923
0000f0 d4 14 98 3d 00 17 ac 3d ad fa 05 3e fb ec 42 bd
       0.07425848 0.084028244 0.13083906 -0.047589283
000100 cd 0d 96 3d 49 f7 dc bc e1 7b 68 3d 88 56 0a 3e
       0.07326851 -0.026973384 0.056758765 0.13509572
000110 7d 5b 56 3d c5 e3 f8 3d 87 03 69 bd 08 bc 6f bd
       0.052333344 0.121528186 -0.05688813 -0.05852893
000120 b0 5c 25 bc 88 a4 d6 3d a4 56 99 3d 18 af 47 3c
       -0.010092899 0.104806006 0.074872285 0.012187742
000130 63 62 66 3d 79 a3 bd 3d bd 41 0b bd 6d 79 55 3c
       0.056246173 0.092596956 -0.03399824 0.013029438
000140 1b 3a 01 be 92 3a 08 3d 85 c7 e1 bb 38 c7 b0 bd
       -0.12619822 0.033258982 -0.0068902397 -0.08631748
000150 9a 8c 6d 3d 41 45 9f 3c 5c 57 0e 3e a7 d2 b1 3d
       0.057995416 0.019442203 0.13900512 0.08682757
000160 35 8c c9 3c 99 12 d8 3d e6 6a a8 3d bc 50 0c be
       0.024602989 0.10550422 0.08223514 -0.13702673
000170 82 79 5e bd 71 b7 c8 bc df eb 2f bd 24 be 2c be
       -0.054315098 -0.024501534 -0.042949554 -0.16869408
000180 9c 25 07 bd 80 ba 1d bc eb c0 2c 3d e1 9c ce 3c
       -0.03299485 -0.009626985 0.04217617 0.02522129
000190 55 80 b9 3d bc 71 8e 3c 5a 5e b5 bd 32 24 f0 3d
       0.090576805 0.017388217 -0.08855887 0.11725654
0001a0 50 db 9c 3d 67 2f 1b 3e cc c9 07 bc 5f 85 40 bc
       0.07659018 0.15154801 -0.008287858 -0.011750548
0001b0 b3 85 19 3a 07 fa e6 bd 90 b3 8a bd 49 df 67 3d
       0.00058564096 -0.11278158 -0.0677253 0.056609426
0001c0 5e 14 5e 3d c1 2e d3 3d 45 88 ef 3d 70 09 00 bd
       0.054218642 0.10311652 0.11695913 -0.031259
0001d0 f6 aa c2 bd 9f a5 00 be f4 e3 03 bd 58 31 fb 3d
       -0.095052645 -0.1256318 -0.032199815 0.12265271
0001e0 2e 67 bc 3d ab 19 49 3d dd f6 af 3d 0c 9e bc 3d
       0.091993675 0.049096745 0.08592007 0.092098325
0001f0 26 e9 d0 bd 0a 6e 13 3e 27 77 c2 bd 67 50 fe 3d
       -0.102007195 0.14397445 -0.09495383 0.12417679
000200 14 9e 35 3e e1 03 42 3d 52 0e f2 3c 80 52 8a 3d
       0.17736083 0.04736698 0.029547844 0.06754017
000210 b7 08 94 3d cc b7 ec 3d e1 98 4c 3e 16 0b 90 3d
       0.07228225 0.11558494 0.19980194 0.070333645
000220 2a c2 8b bd 7a 42 13 3e 9d 0d da 3d c1 ec 89 bc
       -0.06824143 0.14380828 0.10647128 -0.016836526
000230 7b f0 34 3e 54 19 ec bd ac ae 47 3c 5c 8f f7 bd
       0.17669861 -0.115282685 0.012187641 -0.120878905
000240 83 2f fd 3d aa 1f bd bd 13 fa 15 3e 42 11 03 3e
       0.12362578 -0.09234555 0.14646177 0.12799552
000250 ef 4b 33 bd f9 ee 2f 3e e3 e0 07 3e 04 fa ee bd
       -0.043773588 0.17181005 0.13269381 -0.116687804
000260 f3 0f 27 3d ed 58 7e 3c 98 b1 82 3d c5 0d b9 3d
       0.040786695 0.015524131 0.063815296 0.090358295
000270 c7 b0 a2 3d 17 16 cd 3c 45 1c 26 3e 1a 78 3a 3e
       0.07943874 0.025034947 0.16221721 0.18209878

exp_avg f4 [1, 40]
000000 69 ec 10 ba d0 69 0c ba 1f f5 ed b9 31 9c 9e 39
       -0.0005528392 -0.00053563435 -0.00045386792 0.0003025248
000010 5c ab 0b 3a c4 f1 20 ba 68 06 53 b9 39 5f e8 39
       0.0005327964 -0.00061395415 -0.00020124915 0.00044321435
000020 76 c9 4c 3a c5 89 70 b9 6c 0b 09 ba b7 d7 8c ba
       0.00078120024 -0.00022939507 -0.0005227837 -0.001074544
000030 e5 a5 a6 3a 0f 6b 90 3a 66 6d 18 ba 5a 65 28 ba
       0.0012714235 0.0011018234 -0.00058146415 -0.0006423794
000040 50 b5 5c b8 48 b8 26 3a 0a d0 43 b7 11 73 a4 ba
       -5.2620948e-05 0.00063598575 -1.1671344e-05 -0.00125465
000050 2b 92 0c ba da 54 2f b9 2e b9 1a b9 9c e5 59 ba
       -0.0005362357 -0.0001672091 -0.0001475557 -0.00083121075
000060 90 f7 4d 3a b3 a1 b4 b9 ed bf 96 3a 94 da 09 ba
       0.0007857019 -0.0003445275 0.001150129 -0.0005258706
000070 c0 92 19 bb bd 3c f1 b9 23 7c 9f b8 8e 7a 78 ba
       -0.0023433417 -0.00046012356 -7.604833e-05 -0.0009478711
000080 f2 b5 0a 39 2d fb ec 39 5c 9c 48 3a c5 ae 02 ba
       0.00013228485 0.00045200568 0.0007652694 -0.0004985149
000090 b8 60 a5 39 1b eb 31 ba 67 04 10 b9 5b 77 09 3a
       0.00031543314 -0.00067870476 -0.0001373455 0.00052439206
