lightning_logs/version_8/checkpoints/epoch=10-step=550.ckpt (torch, 330670 bytes, 33 tensors)

model.param_proj.proj.0.weight f4 [1, 40]
0	0xbb60fd7b	-0.0034330774
1	0x3c26b893	0.010175842
2	0xbd1c0e16	-0.03809937
3	0x3c415ffd	0.011802671
4	0xbd30da4b	-0.04317693
5	0x3b917aa4	0.0044396687
6	0x3eb29f5c	0.34887207
7	0xbd20d8d6	-0.03926929
8	0xbe580e53	-0.21099214
9	0xbd1402ce	-0.036135487
10	0xbdfd625a	-0.12372275
11	0xbd377613	-0.04479034
12	0x3d4cf349	0.050036702
13	0x3e024c9d	0.12724538
14	0x3cefa3b6	0.029252868
15	0xbdd4b548	-0.10386139
16	0xbe505b5d	-0.20347352
17	0xbd18f5e5	-0.03734388
18	0xbd9a20d0	-0.0752579
19	0x3c8ff7e9	0.017574267
20	0x3cc8579d	0.02445584
21	0xbcae7664	-0.021296687
22	0xbe345a25	-0.17612512
23	0xbe617fb0	-0.22021365
24	0x3caa5904	0.0207944
25	0x3e0bae07	0.13640605
26	0xbd7ca8ac	-0.061684296
27	0x3ca11404	0.019662865
28	0x3dfb4f59	0.12270994
29	0xbd85fe7e	-0.06542681
30	0x3ebb8bee	0.36630195
31	0xbddb7d1b	-0.10717221
32	0xbdea388f	-0.11436569
33	0xbe6b9497	-0.23005901
34	0x3e3db1c0	0.18524837
35	0xbd969436	-0.07352488
36	0x3e10b721	0.14132358
37	0x3dc86da1	0.09786535
38	0x3d4fe0c0	0.050751448
39	0x3df012e0	0.1172235

model.param_proj.proj.1.weight f4 [1, 40]
0	0x3dc7db91	0.09758676
1	0xbe24b62b	-0.16085117
2	0x3e4188ba	0.18899813
3	0x3e20b037	0.1569222
4	0xbe5d9b2b	-0.21641223
5	0xbe44f098	-0.19232404
6	0x3c98db8d	0.018659377
7	0x3c879c24	0.016553946
8	0xbcbc3939	-0.022976505
9	0x3c6b25c9	0.01435227
10	0xbd42f8bf	-0.047600504
11	0xbe47f888	-0.19528401
12	0xbdac2106	-0.08404736
13	0x3dfe8096	0.124268696
14	0x3e28c3bc	0.16480917
15	0x3e05f441	0.13081457
16	0x3d00bdc3	0.03143097
17	0x3e0f1963	0.13974528
18	0x3e42a3f2	0.19007853
19	0xbd0b06cf	-0.03394204
20	0xbdaef03a	-0.08541913
21	0xbaa55dbc	-0.0012616436
22	0xbe087630	-0.13326335
23	0x3d7bf7e4	0.061515704
24	0x3e476778	0.19473064
25	0xbe5d90be	-0.21637246
26	0x3d5db604	0.05412866
27	0xbe1fb06d	-0.15594645
28	0x3d9eb146	0.07748656
29	0x3e3f68d0	0.18692327
30	0x3d7db182	0.061936863
31	0x3e19a62c	0.15004796
32	0x3d1fa60a	0.038976707
33	0xbd492cd6	-0.049115025
34	0x3de65197	0.11246031
35	0xbe125f84	-0.14294249
36	0xbe880e11	-0.26573232
37	0x3e2f1e40	0.17101383
38	0xbe0b8e8d	-0.13628598
39	0x3e081e24	0.13292748

model.param_proj.proj.2.weight f4 [1, 40]
0	0xbe1b714e	-0.15179941
1	0xbdaad53e	-0.08341454
2	0x3e3fff9e	0.18749854
3	0xbe298ad4	-0.16556865
4	0xbca2863c	-0.019839399
5	0xbd7948fd	-0.060860623
6	0xbe9a6d44	-0.30161488
7	0x3e364c24	0.17802483
8	0x3e7d2522	0.24721196
9	0xbdd9f683	-0.106427215
10	0x3e2cb87d	0.16867252
11	0xbdb87472	-0.09006585
12	0x3d145a37	0.036218848
13	0x3d1859f2	0.037195154
14	0x3d5cc5c7	0.053899553
15	0x3e4ce141	0.20007803
16	0x3e4f52da	0.20246449
17	0x3d65a1ad	0.05606239
18	0x3daf5887	0.08561807
19	0xbe451559	-0.19246425
20	0xbe2abbef	-0.16673253
21	0xbd80168f	-0.06254303
22	0x3c000aae	0.007815046
23	0x3e33e47c	0.17567629
24	0x3e30a83d	0.17251678
25	0xbeab78ff	-0.3349075
26	0xbe836201	-0.2566071
27	0x3e3cc025	0.18432672
28	0xbe75ab92	-0.2399123
29	0xbd7a267b	-0.061071854
30	0xbe32a7c9	-0.17446817
31	0x3d87f273	0.066380404
32	0x3dc9a54f	0.09845983
33	0x3dfd20ac	0.12359747
34	0xbe2203f0	-0.15821815
35	0xbd3e044d	-0.04639082
36	0xbe74b37f	-0.23896597
37	0xbc9402a2	-0.018067662
38	0x3e5b37c5	0.21407993
39	0x3d10b4f7	0.03532883

model.rnn.weight_ih_l0 f4 [160, 37]
0	0x3e0a8fea	0.13531461
1	0xbd9aa9f2	-0.07551946
2	0x3c8104dd	0.01574939
3	0xbca9fd86	-0.020750772
4	0xbd01b35b	-0.031665187
5	0xbc29f46e	-0.010373218
6	0x3e512ab9	0.20426454
7	0x3e063292	0.13105229
8	0xbd1fd6f8	-0.03902337
9	0x3d16030a	0.036623992
10	0x3e45c888	0.19314778
11	0x3e6d3cde	0.2316775
12	0x3e4d9dd6	0.20079741
13	0xbd864fd6	-0.06558196
14	0x3be97d97	0.007125567
15	0xbcc82837	-0.024433238
16	0x3e3b8c9d	0.18315358
17	0x3e035527	0.12825452
18	0xbd08fc5c	-0.033443794
19	0x3e4be0f9	0.19910039
20	0x3ced6bd0	0.028982073
21	0x3d7dc0ee	0.06195157
22	0xbd61ba8f	-0.055109557
23	0xbb786e49	-0.0037907532
24	0xbd9ab902	-0.07554819
25	0x3e05b9fb	0.13059227
26	0x3d13cc21	0.036083344
27	0x3da2f6fa	0.07957263
28	0x3d826adb	0.06368037
29	0xbd5f8a45	-0.054575223
30	0xbd1857bc	-0.037193045
31	0x3d046cec	0.03233044
32	0xbd0d45d2	-0.034490414
33	0x3bb953da	0.005655748
34	0x3dc34ac0	0.09535742
35	0x3ce9523b	0.028481593
36	0x3d8aabf8	0.06771082
37	0x3e37cad0	0.1794846
38	0xbd1eb7c0	-0.038749456
39	0x3e229d7a	0.15880385
40	0x3c208bcf	0.009798958
41	0x3d1f384c	0.03887205
42	0xbde7fc03	-0.11327364
43	0x3dfcf160	0.12350726
44	0x3cd89fbb	0.026443353
45	0xbd8758ae	-0.06608711
46	0xbd745ea2	-0.05966056
47	0x3aeb5285	0.001795367
48	0xbda79397	-0.081824474
49	0x3c38fc89	0.011290678
50	0xbdfee9f8	-0.1244697
51	0xbe134fa5	-0.1438585
52	0x3d799a49	0.060938153
53	0xbe128789	-0.14309515
54	0x3de4ccc2	0.11171867
55	0x3cf6538b	0.030069133
56	0xbdce967b	-0.100872956
57	0x3e127c98	0.14305341
58	0x3e49361d	0.19649549
59	0x3dce1662	0.10062863
60	0x3e58f814	0.21188384
61	0xbdd39860	-0.103317976
62	0xbd92764d	-0.0715147
63	0x3e47d081	0.19513132
64	0x3d3f494a	0.046700753
65	0xbd5d4c25	-0.054027695
66	0xbd18e1b5	-0.037324626
67	0x3e1b9700	0.1519432
68	0xbd8b46e4	-0.06800631
69	0xbd0585de	-0.03259837
70	0xbe5605e4	-0.20900685
71	0xbd705837	-0.05867788
72	0x3d92fd03	0.071771644
73	0x3ddd6719	0.1081068
74	0x3e59e9b8	0.21280563
75	0x3dc9ee14	0.09859863
76	0x3d942b5c	0.07234833
77	0xbb84a471	-0.0040479233
78	0xbdf24692	-0.118298665
79	0xbbb422bf	-0.005497306
80	0x3e214d5b	0.15752165
81	0xbdae630b	-0.08514985
82	0x3d4419c0	0.04787612
83	0x3dc9993d	0.09843681
84	0x3e03f4e9	0.12886395
85	0x3dcbe030	0.0995487
86	0xbcd528a0	-0.026020348
87	0x3d41dcdc	0.04732977
88	0xbd5b7308	-0.0535765
89	0x3d0bfffe	0.03417968
90	0xbd9c3a2d	-0.07628284
91	0xbad62288	-0.0016337195
92	0x3dc9cdc3	0.09853699
93	0xbe0e30bd	-0.1388578
94	0xbe382a8b	-0.17984979
95	0x3def5fe5	0.11688212
96	0x3df67c60	0.120354414
97	0xbbd1ceee	-0.006402842
98	0xbd7bec2c	-0.061504528
99	0x3e1e63d0	0.15467763
100	0x3e1429a4	0.1446901
101	0x3db8c026	0.090210244
102	0xbe05eff4	-0.13079816
103	0x3e25f518	0.16206777
104	0xbd2ad28d	-0.041704703
105	0x3da16415	0.07880417
106	0xbd272419	-0.04080591
107	0xbec3ec84	-0.38266385
108	0xbea6bda0	-0.32566547
109	0xba485ebc	-0.0007643511
110	0xbde7ca3a	-0.113178685
111	0x3d46323f	0.048387762
112	0xbe06de50	-0.13170743
113	0x3d23fb68	0.04003468
114	0xbdd4759d	-0.103739955
115	0xbe1dce0d	-0.15410633
116	0x3e1abdc9	0.1511146
117	0xbdf13019	-0.11776752
118	0xbd584d69	-0.0528082
119	0xbcf9f15f	-0.030510603
120	0xbc95537f	-0.01822829
121	0x3daedf07	0.08538633
122	0xbb8805d0	-0.0041510835
123	0x3de36ed4	0.11105123
124	0x3da59520	0.08085084
125	0xbe247656	-0.16060767
126	0xbda611cb	-0.081088625
127	0x3e0a3961	0.13498451
128	0x3d290cc8	0.041271955
129	0xbddc09db	-0.10744067
130	0xbd8c57e6	-0.06852703
131	0xbdfbaa3f	-0.12288331
132	0xbdaeee86	-0.085415885
133	0x3d90600d	0.0704957
134	0x3e3fff9e	0.18749854
135	0x3d92e262	0.07172085
136	0xbd67060d	-0.056402255
137	0xbc03b078	-0.008037679
138	0x3e1a28bd	0.15054603
139	0x3e385126	0.17999706
140	0xbcdc3caa	-0.026884396
141	0xbc9e6c78	-0.019338831
142	0xbd1f91cd	-0.038957406
143	0x3c70f113	0.014705914
144	0x3d834d72	0.06411256
145	0xbe2b72be	-0.1674299
146	0xbe0f1ddd	-0.13976236
147	0xbdd63a95	-0.104603924
148	0xbb0aedd1	-0.0021198879
149	0x3d97ac83	0.07405951
150	0x3d809242	0.062778965
151	0x3d5a43a2	0.053287156
152	0x3dca1c2a	0.09868653
153	0xbd8a8ae6	-0.06764774
154	0x3d80a028	0.062805474
155	0xbdab26f7	-0.08357041
156	0x3e2c577b	0.16830246
157	0xbd976185	-0.07391647
158	0x3de21e72	0.11040963
159	0xbd85c78b	-0.065322004
160	0x3e0cd71d	0.13753934
161	0xbcad0113	-0.021118676
162	0x3b6fea34	0.0036608102
163	0xbe0d157f	-0.13777731
164	0xbe01b9b0	-0.1266849
165	0x3dc32d9a	0.09530182
166	0xbe0477a0	-0.12936258
167	0x3ca0fbff	0.019651411
168	0xbe0008c9	-0.12503351
169	0xbe001b08	-0.12510312
170	0x3d9fd244	0.07803777
171	0x3e104d3e	0.14091966
172	0xbdc83d42	-0.09777309
173	0x3df16592	0.11786951
174	0x3d35bd31	0.04436988
175	0xbe147e2d	-0.14501257
176	0xbe15041b	-0.14552347
177	0x3d32061e	0.043462865
178	0x3c5e501b	0.013568903
179	0x3d9c6ce5	0.076379575
180	0xbddac557	-0.10682171
181	0x3dc00a72	0.09376992
182	0x3e198811	0.14993311
183	0xbe07b444	-0.1325236
184	0x3e0b0ee6	0.13579902
185	0x3e02294b	0.12711065
186	0x3d2a104e	0.041519456
187	0xbcc1e34f	-0.02366796
188	0xbe03653b	-0.12831585
189	0x3d735bb0	0.059413612
190	0x3e130ddd	0.14360757
191	0xbd9d4334	-0.076788336
192	0xbdd2ddfc	-0.102962464
193	0x3e32f987	0.17478
194	0x3cf56f99	0.02996044
195	0x3e4ffeaa	0.2031199
196	0x3e0e6ba9	0.13908257
197	0x3dd74608	0.10511404
198	0x3c9f13ff	0.019418715
199	0x3e3509e7	0.17679559
200	0xbdaae696	-0.08344762
201	0x3df04746	0.11732344
202	0xbdd3f435	-0.10349313
203	0x3d576750	0.05258876
204	0xbd711aeb	-0.05886356
205	0x3e3c3dfb	0.18383019
206	0x3d47fdf0	0.048826158
207	0x3e33dd4b	0.17564885
208	0x3e133650	0.14376187
209	0x3e2451a7	0.16046773
210	0xbd97f556	-0.07419841
211	0x3cae162e	0.02125081
212	0xbd71117c	-0.058854565
213	0x3dadf0a3	0.084931634
214	0xbdceaa9d	-0.10091136
215	0xbc4a2043	-0.012336793
216	0xbd938da8	-0.07204753
217	0xbd210597	-0.03931197
218	0xb9e50499	-0.0004368171
219	0xbde9dcc9	-0.114190646
220	0xbe53e662	-0.20693353
221	0x3e4492c4	0.19196612
222	0x3e022caa	0.1271235
223	0xbd88bfa3	-0.06677177
224	0xbd9267a9	-0.07148678
225	0x3e2192d6	0.1577867
226	0x3b0ca0bf	0.0021458117
227	0x3e3c87ff	0.18411253
228	0x3e2eef56	0.17083487
229	0xbca0650b	-0.019579431
230	0xbcfe3d66	-0.031035136
231	0xbd87a2e7	-0.06622868
232	0x3d6ad6b0	0.05733365
233	0x3d82a3a9	0.06378872
234	0x3c274e50	0.010211542
235	0xbd678532	-0.05652351
236	0xbd867e78	-0.06567091
237	0x3c5d5623	0.013509306
238	0xbdad8419	-0.08472461
239	0x3e1d4683	0.1535893
240	0x3ca59ae0	0.020215452
241	0x3d81a615	0.06330506
242	0xbd14b139	-0.036301825
243	0xbd197acb	-0.03747062
244	0x3e794828	0.24343932
245	0x3d988416	0.074470684
246	0xbd8b4fcc	-0.068023294
247	0xbd974c39	-0.07387585
248	0x3e4dee3e	0.20110413
249	0x3e5dc570	0.21657348
250	0xbd732883	-0.059364807
251	0x3df17e30	0.117916465
252	0xbc2dc2b4	-0.010605503
253	0xbd0150d2	-0.031571217
254	0x3e533d68	0.20628893
255	0xbda15b5e	-0.07878755

model.rnn.weight_hh_l0 f4 [160, 40]
0	0xbe19f37a	-0.15034285
1	0xbd14959c	-0.03627549
2	0xbc86afe8	-0.0164413
3	0x3d565b3b	0.052333098
4	0xbe417fd0	-0.18896413
5	0xbdf2ef05	-0.118619956
6	0x3d3a3b51	0.045466725
7	0xbd3f37db	-0.046684127
8	0x3e8caaea	0.27474147
9	0x3b89657a	0.004193005
10	0xbdee616c	-0.116396755
11	0x3e3b38f5	0.18283446
12	0x3d6844d8	0.05670628
13	0x3e21f7ab	0.15817134
14	0x3d7e0ec0	0.062025785
15	0xbd823a53	-0.06358781
16	0x3ddb2871	0.10701073
17	0xbda9cfc4	-0.08291581
18	0xbd4f4ed0	-0.05061227
19	0xbe1f923f	-0.15583132
20	0xbe431aa7	-0.19053136
21	0x3dda49b1	0.10658587
22	0x3e49e481	0.19716074
23	0xbe26daec	-0.1629445
24	0x3e103eac	0.14086407
25	0x3d399e55	0.045317013
26	0xbb9a5608	-0.0047099628
27	0xbe1f3d0d	-0.15550633
28	0x3e124178	0.14282787
29	0xbdb5c9b2	-0.08876361
30	0xbcb52f70	-0.022117347
31	0x3e39b5e0	0.18135786
32	0x3dc8db0e	0.09807406
33	0x3e06c890	0.13162446
34	0x3de11ae3	0.10991456
35	0xbc0e366a	-0.0086799655
36	0x3cad827c	0.021180384
37	0x3cdf199c	0.027233891
38	0x3c500f0a	0.012698898
39	0x3d57b748	0.052665025
40	0xbe05777b	-0.1303386
41	0x3e099dfd	0.13439174
42	0x3dc91058	0.098175704
43	0xbe018e17	-0.12651859
44	0x3cc2f4eb	0.023798427
45	0x3e063775	0.13107093
46	0xbc2438bf	-0.010023295
47	0x3e0e7778	0.13912761
48	0xbd6feec9	-0.058577333
49	0x3d68c70b	0.056830447
50	0x3daeddac	0.08538374
51	0x3dd6d235	0.104893126
52	0x3de11847	0.10990959
53	0x3de73c1a	0.1129076
54	0xbe463e30	-0.1935966
55	0x3d177c8a	0.036984004
56	0x3dcb0c19	0.09914417
57	0xbe2b21af	-0.16712068
58	0xbcf95ae5	-0.03043885
59	0x3e0603de	0.13087413
60	0xbdfd9a88	-0.1238299
61	0x3c0b859a	0.00851574
62	0xbb619593	-0.0034421429
63	0xbe21e561	-0.15810157
64	0x3d875d48	0.06609589
65	0xbde41f43	-0.11138775
66	0x3e204606	0.15651712
67	0x3d24b816	0.04021462
68	0xbdc0c725	-0.09412984
69	0xbcfea71c	-0.031085543
70	0xbd95a32a	-0.07306512
71	0x3e4626b2	0.19350699
72	0x3d61b091	0.055100027
73	0xbd975b12	-0.07390417
74	0x3e202692	0.15639713
75	0x3e7e3662	0.24825433
76	0xbe22b6b2	-0.15890005
77	0x3d41a633	0.04727764
78	0x3d35c97a	0.044381596
79	0xbd4510fe	-0.04811191
80	0x3e2cb904	0.16867453
81	0x3debb154	0.11508432
82	0xba3ff039	-0.0007321868
83	0xbd977213	-0.07394805
84	0xbcee9b5e	-0.02912682
85	0x3e058b0a	0.1304132
86	0xbe132535	-0.14369662
87	0x3c1580a5	0.0091249095
88	0x3e0cf58d	0.13765545
89	0x3a019f1c	0.00049446686
90	0x3d004a80	0.03132105
91	0x3d45c349	0.04828194
92	0xbdadf380	-0.084937096
93	0xbcb8fc75	-0.022581318
94	0x3e18c96a	0.14920583
95	0x3e32bc3f	0.17454623
96	0xbdf61ca9	-0.12017185
97	0xbd2ff232	-0.042955585
98	0xbdac14cf	-0.084024064
99	0x3e0fd56e	0.1404626
100	0x3de54804	0.111953765
101	0xbc1d1f8f	-0.009590044
102	0xbe371fd9	-0.17883243
103	0x3cd3563b	0.025797954
104	0x3d76cb33	0.06025238
105	0xbdb8de70	-0.090268016
106	0xbdb057a9	-0.0861047
107	0xbe0bf9eb	-0.13669555
108	0x3d7e87af	0.062141117
109	0xbe4d97b8	-0.20077407
110	0x3d4ecbca	0.050487317
111	0xbe27d078	-0.16388118
112	0x3dc77144	0.097384006
113	0x3cd5d43b	0.026102176
114	0xbd20ba34	-0.039240077
115	0xbd250400	-0.040287018
116	0xbd9ee08a	-0.07757671
117	0x3ca32109	0.019913213
118	0xbd837a95	-0.06419865
119	0x3dc469e8	0.095905125
120	0x3ddd36d7	0.108014755
121	0xbda301cc	-0.07959327
122	0xbcd67b9e	-0.026181992
123	0xbe2a5f09	-0.16637816
124	0x3e0359e8	0.12827265
125	0xbc15fc46	-0.009154385
126	0x3e379277	0.17926966
127	0x3e0216e3	0.12704043
128	0xbddfbbaa	-0.10924466
129	0xbd47331a	-0.04863272
130	0xbc946313	-0.018113649
131	0x3e07dad6	0.13267073
132	0x3df5e269	0.12006075
133	0xbd8aa2d9	-0.06769342
134	0x3dd4e086	0.10394387
135	0xbe1ced05	-0.15324791
136	0xbe376204	-0.17908484
137	0x3e0d5d88	0.1380521
138	0x3e02fa8b	0.12790887
139	0x3dc63894	0.0967876
140	0x3e0e1834	0.1387642
141	0x3c7ed231	0.015553043
142	0xbe01fb77	-0.12693582
143	0x3d087232	0.03331203
144	0xbe255f4b	-0.16149633
145	0xbca7178f	-0.020396976
146	0x3e2c23e4	0.16810566
147	0xbe15516d	-0.14581843
148	0xbdec9dc9	-0.11553533
149	0x3d8cb863	0.068711065
150	0x3e18b234	0.14911729
151	0xbe045069	-0.12921299
152	0xbd901c28	-0.070366204
153	0x3dd00e4a	0.101589754
154	0xbe1bb3f6	-0.15205368
155	0xbd6c0d98	-0.05763015
156	0x3d070918	0.032967657
157	0x3e3c2991	0.18375231
158	0xbd954d91	-0.07290185
159	0x3c6268cc	0.013818931
160	0xbe0e3216	-0.13886294
161	0x3ded0b12	0.11574377
162	0xbda06b10	-0.078329206
163	0x3e13d310	0.14435983
164	0xbe016d0a	-0.12639251
165	0x3c3c1b91	0.011481182
166	0x3d98f7b3	0.0746912
167	0x3e112091	0.1417258
168	0xbe22c1cd	-0.15894242
169	0xbe4dbceb	-0.20091598
170	0xbe053b3e	-0.1301088
171	0xbe1710be	-0.1475248
172	0x3e3bfdc6	0.18358526
173	0xbe282253	-0.16419344
174	0xbe21ebed	-0.15812655
175	0x3ddfa0e5	0.1091936
176	0xbbb453b8	-0.005503144
177	0xbd48a30f	-0.04898363
178	0x3caddc52	0.021223221
179	0x3de93aa0	0.11388135
180	0x3de15b35	0.110037245
181	0x3e0b3830	0.13595653
182	0xbde23a37	-0.1104626
183	0xbe13d83a	-0.14437953
184	0x3e0a4c84	0.13505751
185	0x3d87ccf5	0.06630889
186	0x3dc1e33e	0.09467171
187	0xbdbc1c6d	-0.09185109
188	0x3c8145e7	0.015780402
189	0x3d82ab5c	0.063803405
190	0xbbe56250	-0.007000245
191	0xbb184b0a	-0.0023238086
192	0x3e0d5fa6	0.13806018
193	0x3d34b304	0.044116035
194	0x3c836c42	0.016042832
195	0x3d492468	0.049106985
196	0x3d225296	0.03962954
197	0x3e187624	0.14888817
198	0xbdaade2e	-0.08343159
199	0x3d15861e	0.036504857
200	0xbe265f26	-0.16247234
201	0x3e056e91	0.13030459
202	0x3dc21c53	0.09478059
203	0x3dd1a01c	0.102356166
204	0xbde96f37	-0.11398166
205	0xbe136acd	-0.1439621
206	0xbdceaaa4	-0.10091141
207	0x3e2be2e9	0.16785778
208	0x3e3cce49	0.18438067
209	0xbb85c338	-0.00408211
210	0x3bb7cf47	0.005609426
211	0xbd1cb4f1	-0.038258497
212	0x3cc738dd	0.024319107
213	0xbde4e304	-0.11176112
214	0xbd869db6	-0.0657305
215	0xbe1cd75e	-0.15316531
216	0xbe3c17d0	-0.18368459
217	0x3d6f2bb6	0.058391295
218	0xbc65f487	-0.014035351
219	0x3d2c1123	0.04200853
220	0x3dc9a828	0.098465264
221	0x3e49fe87	0.19726
222	0x3c0197bf	0.007909714
223	0x3da7cca7	0.08193331
224	0x3e0208b4	0.12698632
225	0xbe0ca9ac	-0.137366
226	0xbda3e546	-0.08002715
227	0x3d039d1e	0.03213226
228	0x3dd6a53d	0.104807355
229	0xbdaf63a4	-0.08563927
230	0x3e4e5d77	0.20152842
231	0x3b2508a8	0.0025182161
232	0xbdaa2a74	-0.083088785
233	0x3d954cbe	0.07290028
234	0xbdac9178	-0.084261835
235	0x3e36878e	0.17825148
236	0x3b0502a4	0.0020295763
237	0xbd974dcb	-0.07387885
238	0xbb886ebf	-0.0041635926
239	0xbbf2f134	-0.0074140076
240	0xbdf039be	-0.117297634
241	0xbd898a88	-0.06715876
242	0xbe356998	-0.17716062
243	0xbcc8b4e1	-0.024500312
244	0xbdfa6775	-0.12226764
245	0x3c64ff3d	0.013976869
246	0xbdf2805d	-0.118408896
247	0xbdb8c0b7	-0.090211324
248	0xbc40461c	-0.011735465
249	0xbdda6cae	-0.1066526
250	0xbda8d595	-0.082438625
251	0xbae16d0b	-0.0017198635
252	0x3e47b74e	0.19503519
253	0xbd982b99	-0.074301906
254	0x3dc0f191	0.09421075
255	0x3dc4e747	0.09614425

model.rnn.bias_ih_l0 f4 [160]
0	0xbd4ba012	-0.0497132
1	0x3ca040fe	0.01956224
2	0x3d9db32e	0.077001914
3	0x3d57460d	0.05255704
4	0x3e00c243	0.12574105
5	0xbc8a82e0	-0.01690811
6	0x3ba662d6	0.0050777
7	0x3e290013	0.16503935
8	0x3c7d6031	0.015464828
9	0xbd8e65da	-0.069530204
10	0x3ccc8545	0.024965892
11	0xbdbad8e5	-0.091234006
12	0x3e7d010c	0.2470743
13	0x3e4038b4	0.1877163
14	0x3e739d64	0.23790509
15	0x3e48ac1f	0.19596909
16	0x3d444abe	0.047922842
17	0x3c6fafe9	0.014629343
18	0x3dcc2fe6	0.099700734
19	0x3d96eaef	0.07369029
20	0x3d7df5bc	0.06200193
21	0x3e5c7671	0.21529557
22	0x3d745110	0.05964762
23	0xbdbe64fc	-0.09296605
24	0x3dade79e	0.08491443
25	0xbdacad61	-0.08431507
26	0x3d7cb745	0.061698217
27	0x3d417e8e	0.047239833
28	0x3e4e9673	0.2017458
29	0x3e17f931	0.14841153
30	0x3e359608	0.17733014
31	0x3e981f2f	0.2971129
32	0x3e0da4ec	0.13832444
33	0x3dead586	0.114665076
34	0x3dc2489b	0.09486505
35	0x3d63a2d8	0.05557522
36	0x3d8828be	0.06648396
37	0x3e5c6a9e	0.21525046
38	0xbd3fb46c	-0.046802923
39	0x3e3865a2	0.1800752
40	0x3e20895a	0.15677395
41	0xbc24011d	-0.010010031
42	0xbdb09161	-0.08621479
43	0x3d9a6a4e	0.07539807
44	0x3d73284e	0.05936461
45	0x3e363954	0.17795306
46	0xbe12c18b	-0.14331643
47	0xbda5aa79	-0.08089156
48	0x3e15e81a	0.14639321
49	0xbe020e36	-0.12700734
50	0x3b62926a	0.0034572133
51	0x3dd82ac9	0.105550356
52	0xbe16ef4a	-0.14739719
53	0xbdd530e2	-0.10409714
54	0x3e10a5e6	0.14125785
55	0x3d6c5d07	0.057705905
56	0x3d5e3a84	0.054255024
57	0xbd844b14	-0.064596325
58	0x3b39d354	0.002835472
59	0xbd8c966e	-0.0686463
60	0xbb51c34d	-0.0032007277
61	0x3d953f90	0.07287514
62	0x3d8f898c	0.07008657
63	0x3d926936	0.07148974
64	0x3ce50ae2	0.02795929
65	0x3cb6842f	0.022279827
66	0x3ddb14c4	0.1069732
67	0xbcf4bc14	-0.029874839
68	0x3e3eaf45	0.18621548
69	0x3c873bf1	0.016508074
70	0xbb4de33b	-0.0031415957
71	0x3e299719	0.16561545
72	0x3d9003cd	0.07031975
73	0x3d90b8d7	0.070665054
74	0x3d81ab3e	0.0633149
75	0x3c8378ea	0.016048867
76	0x3e138bfc	0.14408869
77	0xbd93166e	-0.071820125
78	0x3d894a8f	0.06703674
79	0x3d8c7a9c	0.068593234
80	0xbe3d0b2c	-0.18461293
81	0x3d593bee	0.05303567
82	0xbe05751a	-0.13032952
83	0xbd8f7e2c	-0.07006487
84	0xbcf51e53	-0.029921686
85	0xbdd60a66	-0.10451202
86	0x3e39cf3c	0.1814546
87	0xbe1d6cf2	-0.1537359
88	0x3da47d89	0.080317564
89	0xbe066e66	-0.13128051
90	0x3d9a984d	0.0754858
91	0xbc8868cd	-0.016651535
92	0x3d1263c6	0.035739683
93	0x3bc4e102	0.0060082683
94	0xbe0e7b18	-0.13914144
95	0x3d8ab1ea	0.06772216
96	0x3de26284	0.110539466
97	0xbbcd2167	-0.0062600854
98	0x3d2e2b95	0.04252203
99	0xbdf18696	-0.11793248
100	0xbdefee16	-0.11715333
101	0x3e1c52b4	0.15265924
102	0xbcce4e53	-0.025183832
103	0x3da644ba	0.08118577
104	0x3df8339b	0.12119218
105	0x3cc09951	0.023510607
106	0x3e340dea	0.17583433
107	0xbe0b23c2	-0.1358786
108	0xbbecd9d1	-0.007228114
109	0x3e0549d1	0.1301644
110	0x3e0d6cc7	0.13811027
111	0x3b836ef6	0.0040110303
112	0xbc87614f	-0.016525893
113	0x3d0e5196	0.034745775
114	0x3d20c719	0.039252374
115	0xbdc039f0	-0.09386051
116	0x3e0332ce	0.12812349
117	0x3dc67a95	0.096913494
118	0x3e120408	0.1425935
119	0xbdfc020e	-0.123050794
120	0xbd66aabf	-0.05631518
121	0xbd17593d	-0.03695034
122	0xbe1910f8	-0.1494788
123	0xbddc6adf	-0.107625715
124	0x3da471e9	0.08029539
125	0x3e1c8007	0.15283214
126	0x3ddc7444	0.107643634
127	0x3dcab2fb	0.09897419
128	0xbdabe686	-0.08393578
129	0x3de98847	0.11402946
130	0x3c1c354e	0.009534193
131	0xbd89aea2	-0.06722762
132	0x3e9293f8	0.28628516
133	0xbd24cf25	-0.04023661
134	0xbde29437	-0.11063426
135	0xbdd40dfd	-0.103542306
136	0xbe0df1c7	-0.13861762
137	0xbd64b402	-0.05583573
138	0xbdc69ac9	-0.09697492
139	0x3db43ccf	0.08800661
140	0x3e09d9db	0.13462012
141	0x3cf9390f	0.030422715
142	0x3e2f92f5	0.17145903
143	0x3d993207	0.07480245
144	0x3e2d8adb	0.169475
145	0x3ce5e856	0.028064888
146	0x3db20ca9	0.08693821
147	0x3e2957ec	0.16537446
148	0xbd74e327	-0.05978694
149	0x3d946427	0.07245665
150	0x3ced4c63	0.028967088
151	0xbdce9864	-0.1008766
152	0x3cd11a41	0.025525214
153	0x3dcd13ed	0.10013566
154	0x3db1eca2	0.08687712
155	0x3e12f728	0.14352095
156	0x3dd0d725	0.101972856
157	0xbdcb254f	-0.099192254
158	0xbb52bbde	-0.0032155435
159	0x3e4f8ac3	0.20267777

model.rnn.bias_hh_l0 f4 [160]
0	0x3d7ee176	0.062226735
1	0xbd47c1d9	-0.048768852
2	0xbd9d54f2	-0.07682218
3	0xbda453a4	-0.08023766
4	0x3e07618f	0.1322081
5	0xbd85ae1c	-0.06527349
6	0xbcea47f4	-0.028598763
7	0xbd0379ac	-0.032098457
8	0xbe12e8d2	-0.14346626
9	0x3e4f2836	0.20230183
10	0x3e3658d8	0.17807329
11	0x3e113bae	0.14182922
12	0xbc8ed084	-0.017433412
13	0x3e1d5cfd	0.15367503
14	0x3ca24ee8	0.019813016
15	0x3dbef8e6	0.09324817
16	0x3d99dc63	0.075127386
17	0xbd34a721	-0.0441047
18	0x3dcfd2d1	0.10147632
19	0x3bb61fbc	0.0055579823
20	0xbdf56a1c	-0.119831294
21	0x3e1138ff	0.14181899
22	0x3e0f314e	0.13983652
23	0xbd8de2c3	-0.06928017
24	0xbc003afe	-0.007826565
25	0xbd2e15ac	-0.042501137
26	0x3e3d5a74	0.18491536
27	0xbd96d257	-0.07364338
28	0x3d40a5b5	0.04703303
29	0xbc84f83b	-0.016231647
30	0xb9d5bb73	-0.00040766186
31	0x3de60479	0.11231322
32	0xbdc5160e	-0.09623347
33	0x3dc86c7c	0.09786317
34	0x3dc4a5ea	0.09601958
35	0x3e4c6d68	0.1996361
36	0x3e3c391c	0.1838116
37	0x3e46378a	0.19357124
38	0x3ddf49ac	0.10902724
39	0x3e6e5cb6	0.23277554
40	0x3cc8c9be	0.02451026
41	0xbde4c820	-0.11170983
42	0x3d6693dc	0.056293353
43	0xbd283897	-0.041069593
44	0xbe196bfd	-0.149826
45	0xbc9c776b	-0.019099912
46	0x3da3be78	0.079953134
47	0x3d4f5671	0.050619546
48	0xbb72e0b6	-0.0037060208
49	0xbd7dc9cb	-0.061960023
50	0x3df782dd	0.12085507
51	0xbd1e0247	-0.03857639
52	0xbdee16ca	-0.116254404
53	0xbde7a1ad	-0.11310134
54	0xbd84e084	-0.064881355
55	0x3d107ad2	0.03527338
56	0x3d254908	0.04035285
57	0x3db2f413	0.0873796
58	0x3d28bff3	0.041198682
59	0x3d0145f7	0.031560864
60	0xbd3396b1	-0.043844882
61	0xbc4c9be9	-0.012488344
62	0x3dda9d59	0.10674543
63	0xbdc68345	-0.096930064
64	0x3dea54af	0.11441933
65	0xbdbbf25f	-0.09177088
66	0xbca02293	-0.019547736
67	0x3e4eec43	0.20207314
68	0x3e2881b2	0.16455725
69	0xbe05ebdc	-0.13078254
70	0xbda03da1	-0.07824255
71	0x3caffce3	0.02148289
72	0x3de88527	0.11353522
73	0x3e11b982	0.14230922
74	0xbc953dd8	-0.018217966
75	0xbe25fb96	-0.16209254
76	0x3d36f5cc	0.044668004
77	0x3dcee88f	0.10102951
78	0x3cbaa853	0.022785341
79	0x3db9edd9	0.09078569
80	0xbe1ba734	-0.15200502
81	0xbcdddaa7	-0.0270818
82	0x3e1e7b7b	0.15476792
83	0x3d81ab6b	0.063315235
84	0x3d8f1590	0.069865346
85	0xbdba47fa	-0.0909576
86	0xbdd72812	-0.1050569
87	0x3dbbe8c6	0.091752574
88	0xbdaf67a0	-0.08564687
89	0xbe0fe9ba	-0.14054003
90	0x3e02757a	0.12740126
91	0x3d73c3a8	0.059512764
92	0x3dfa1fc0	0.12213087
93	0xbd0e1769	-0.034690294
94	0xbe0db43f	-0.1383829
95	0xbd68fc08	-0.05688098
96	0x3d3c0f40	0.04591298
97	0xbd2f1cce	-0.04275208
98	0x3d66ed5d	0.05637871
99	0x3db54049	0.08850152
100	0x3d5f76e8	0.054556757
101	0x3e3a65f8	0.1820296
102	0x3df58c72	0.119896784
103	0x3da8a708	0.08234984
104	0x3db51a97	0.08842962
105	0xbd8e5a2b	-0.06950792
106	0xbd23ef93	-0.040023398
107	0xbdd3c4c2	-0.10340263
108	0x3c8d7a17	0.017270131
109	0x3de6aa24	0.112629205
110	0x3d373a54	0.04473336
111	0x3e77fa8f	0.24216674
112	0x3d1f51f6	0.038896523
113	0x3e02e4ba	0.12782565
114	0xbca96593	-0.020678317
115	0xbd9c36f4	-0.07627669
116	0xbe275fdc	-0.16345161
117	0x3d2785e2	0.040899165
118	0x3c24b109	0.010051974
119	0xbe0287f5	-0.12747176
120	0xbce38829	-0.027774887
121	0x3d88eeaa	0.066861466
122	0x3df15120	0.117830515
123	0x3dd8308e	0.10556136
124	0x3deb54ba	0.1149077
125	0xbda33219	-0.0796854
126	0xbdfb585c	-0.122727126
127	0x3e09ca4d	0.13456078
128	0x3daa2f13	0.0830976
129	0xbd74ae86	-0.05973675
130	0xbd9063a8	-0.07050258
131	0xbe019938	-0.12656105
132	0x3dc64754	0.096815735
133	0x3d9014a4	0.07035187
134	0x3d2612c8	0.040545255
135	0x3de1a4f6	0.11017792
136	0xbc4913f4	-0.012272824
137	0xbe28caf3	-0.16483669
138	0xbd22d6ed	-0.03975575
139	0xbd428f45	-0.047499914
140	0x3e36d0f0	0.17853141
141	0xbd272215	-0.040803988
142	0xbc727301	-0.014797927
143	0xbdaf2203	-0.08551409
144	0x3d67d5bf	0.05660033
145	0x3e0b5a54	0.13608676
146	0x3d748bac	0.059703514
147	0x3df00bdb	0.11721011
148	0x3e2de6bb	0.16982548
149	0xbcd00188	-0.025391355
150	0xbd3181f7	-0.043336835
151	0x3c1b1805	0.009466176
152	0x3d2ef201	0.04271126
153	0xbd0b8b6c	-0.03406851
154	0xbe17d6a4	-0.14827973
155	0xbd22d591	-0.039754454
156	0x3d94e721	0.07270647
157	0x3db2c498	0.087289035
158	0xbda9da1e	-0.08293556
159	0xbdb099d4	-0.086230904

model.rnn.weight_ih_l1 f4 [160, 40]
0	0xbd01500c	-0.03157048
1	0x3d188678	0.037237614
2	0x3ce8a0c2	0.028396968
3	0xbc5d496e	-0.0135062765
4	0xbda28915	-0.079363026
5	0xbde51527	-0.11185675
6	0x3dcfdb9f	0.10149311
7	0xbc35dee9	-0.011100509
8	0xbda86859	-0.08223028
9	0xbe27f412	-0.16401699
10	0xbe2e089a	-0.16995469
11	0xbdbcdf9d	-0.09222338
12	0xbcca256d	-0.02467605
13	0x3e50cf75	0.20391639
14	0xbe103071	-0.14080979
15	0xbcd55f4b	-0.026046416
16	0xbe3e5660	-0.18587637
17	0xbe3449f4	-0.17606336
18	0x3e45a349	0.1930057
19	0xbe446bf0	-0.191818
20	0x3cfa9e01	0.03059292
21	0x3e523dc6	0.20531377
22	0xbcaf283e	-0.021381494
23	0x3deaf932	0.114733115
24	0xbc8f104a	-0.017463822
25	0xba57f5dd	-0.00082382356
26	0x3e447860	0.19186544
27	0xbdd07880	-0.101792336
28	0x3c67a6a2	0.014138849
29	0x3d530a8c	0.05152373
30	0xbd1abd85	-0.037778396
31	0x3dfc8d03	0.12331583
32	0x3d8fbfc5	0.07018999
33	0xbdcc4a55	-0.09975115
34	0x3db16e4f	0.08663618
35	0xbbd3a53c	-0.0064589065
36	0xbd7b032e	-0.06128233
37	0x3c7d4895	0.015459199
38	0xba864b41	-0.0010245816
39	0x3cf4f3d9	0.029901432
40	0x3d10cbd3	0.035350632
41	0xbc1fe7e0	-0.009759873
42	0x3d2163fd	0.039401997
43	0x3d5f29a7	0.054483082
44	0xbe1719e7	-0.14755975
45	0x3da47906	0.08030896
46	0x3d8578f7	0.06517213
47	0x3c948032	0.018127535
48	0xbd19f7f8	-0.037589997
49	0xbe12e9ad	-0.14346953
50	0x3d2f3385	0.042773742
51	0x3cca75b8	0.024714336
52	0x3e6bebc7	0.2303916
53	0x3d82d355	0.06387965
54	0xbe06b43c	-0.13154691
55	0x3d230509	0.039799724
56	0x3dc0487b	0.093888246
57	0x3d93cebf	0.07217168
58	0x3e309860	0.17245626
59	0x3e321e46	0.17394361
60	0x3e1388d5	0.14407666
61	0xbda5a9e7	-0.08089047
62	0xbe02be69	-0.12767948
63	0x3d94e9f8	0.072711885
64	0xbe353e80	-0.17699623
65	0x3e236991	0.15958239
66	0xbde850a9	-0.1134351
67	0x3d8ce8a5	0.06880311
68	0x3cec2291	0.028825076
69	0xbe253db7	-0.16136824
70	0x3e0bba10	0.13645196
71	0x3e2175bc	0.15767568
72	0x3e41e555	0.1893514
73	0x3e456755	0.192777
74	0x3e83dd3a	0.2575472
75	0x3cce9b7c	0.025220625
76	0xbcdbc0bb	-0.0268253
77	0x3d5afbc7	0.05346277
78	0x3de2bcdf	0.110711806
79	0xbe2c18ed	-0.16806383
80	0xbe517979	-0.20456494
81	0x3d912e9e	0.0708897
82	0x3d815c84	0.06316474
83	0xbe23858f	-0.15968917
84	0xbe3d1749	-0.18465914
85	0xbd2bbbdf	-0.041927215
86	0x3c331bfe	0.010931967
87	0x3cc5ee4a	0.024161477
88	0x3e11d667	0.14241944
89	0xbe45d38d	-0.19318981
90	0xbdb64fb0	-0.08901918
91	0x3e09ceba	0.13457766
92	0x3cac35c1	0.021021726
93	0xbdb6d17a	-0.08926673
94	0x3db2db49	0.087332316
95	0xbe15508b	-0.14581506
96	0xbd29224a	-0.041292466
97	0xbe0c3e8b	-0.13695733
98	0x3dc9128d	0.098179914
99	0x3d18bb09	0.037287746
100	0xbcbdba7e	-0.023160215
101	0xbced5afb	-0.028974047
102	0x3e19af5a	0.15008298
103	0xbc185c93	-0.009299415
104	0xbdf28d5a	-0.11843367
105	0x3cbaa11e	0.022781905
106	0x3ccf9571	0.025339814
107	0x3d8a4c8e	0.06752883
108	0x3c78d9c2	0.015188636
109	0x3cc5baa3	0.024136847
110	0x3b8586cc	0.004074907
111	0xbddc8a83	-0.107686065
112	0xbdb3e857	-0.0878455
113	0x3d339909	0.043847118
114	0xbc133efc	-0.008987185
115	0x3db0ae53	0.08627
116	0xbdfeaa71	-0.12434853
117	0x3e301b09	0.17197813
118	0xbcf5b19b	-0.029991915
119	0xbe4c8f45	-0.19976528
120	0x3d61fd58	0.055173248
121	0x3ddf1caf	0.10894143
122	0xbdd0e529	-0.10199959
123	0xbd42ed7d	-0.047589768
124	0xbe5d155a	-0.21590176
125	0xbe2ef524	-0.17085701
126	0x3d0ef283	0.034899246
127	0x3d1c07dc	0.038093433
128	0x3e18ff26	0.14941081
129	0xbde2240c	-0.11042032
130	0xbdd0e927	-0.1020072
131	0xbd313dc1	-0.043271784
132	0x3d547866	0.051872633
133	0xbbd2cb4b	-0.006432926
134	0xbdab243e	-0.08356522
135	0xbe0b57c5	-0.136077
136	0x3d6c31f7	0.057664838
137	0xbddddf72	-0.108336344
138	0x3bb80ae7	0.005616534
139	0x3debf088	0.11520487
140	0xbe904803	-0.2817994
141	0x3e395f6b	0.18102805
142	0x3e157a5c	0.14597458
143	0x3dc76c28	0.09737426
144	0xbcbfb11c	-0.023399882
145	0xbdc62c25	-0.09676389
146	0x3e555b19	0.20835532
147	0x3d069341	0.032855276
148	0xbd1c5ff6	-0.038177453
149	0x3de6120f	0.11233913
150	0xbdc4dd31	-0.096125014
151	0x3ce9977c	0.028514616
152	0xbd488f77	-0.048964944
153	0x3c7120ec	0.014717322
154	0x3e4e33fd	0.2013702
155	0x3aecfc96	0.0018080648
156	0xbdef0efc	-0.1167278
157	0x3dd06376	0.10175221
158	0xbd199c8e	-0.037502818
159	0x3d2c2d47	0.042035367
160	0xbde7eb62	-0.113241926
161	0x3d5be306	0.053683303
162	0x3d7c9115	0.0616618
163	0x3da6c5aa	0.0814317
164	0x3bcfef13	0.0063456385
165	0xbcd3de57	-0.025862856
166	0x3b96555e	0.0045878133
167	0x3dfdaed0	0.123868585
168	0x3e52afa7	0.20574819
169	0xbcc712c3	-0.024300938
170	0x3d40fa8d	0.047113944
171	0xbbd6d066	-0.0065556047
172	0x3e407101	0.18793108
173	0x3c3671a0	0.011135489
174	0x3d022443	0.031772863
175	0xbdd58a12	-0.104267254
176	0x3d875149	0.06607301
177	0xbba6de60	-0.005092427
178	0xbd715da8	-0.05892721
179	0x3beb5c81	0.007182658
180	0x3e1d6d34	0.15373689
181	0x3dd1d0ab	0.102448784
182	0xbded543c	-0.11588332
183	0xbe2aa821	-0.16665699
184	0x3d109122	0.03529466
185	0x3d9c5dda	0.07635088
186	0xbc395d75	-0.011313786
187	0x3d78a734	0.060706332
188	0x3e22e502	0.15907672
189	0x3cf5ec77	0.030019982
190	0x3d00d86b	0.031456392
191	0x3e362aa4	0.17789704
192	0x3e321c14	0.17393523
193	0xbd947864	-0.07249525
194	0xbd654ca0	-0.05598128
195	0xbb315e92	-0.0027064425
196	0xbe0bc4f8	-0.13649356
197	0xbdfc61e2	-0.12323357
198	0x3deb13f8	0.11478418
199	0xbdf350f7	-0.11880677
200	0xbddecdb6	-0.1087908
201	0xbcb3e61c	-0.02196031
202	0xbe2ce8c7	-0.16885673
203	0xbdc5e118	-0.09662074
204	0xbdc4fd5b	-0.09618636
205	0xbcbcdc37	-0.023054225
206	0x3dae4d4f	0.08510839
207	0xbd23cb14	-0.039988592
208	0xbc0e5dda	-0.008689368
209	0xbe652e8d	-0.22381039
210	0xbe3bc565	-0.18337019
211	0x3daaf5a5	0.08347634
212	0x3e853fb3	0.2602516
213	0x3e3eb5ef	0.1862409
214	0x3d8b4afd	0.06801412
215	0xbe4c8a8b	-0.19974725
216	0x3bf7f249	0.0075667244
217	0xbba2c928	-0.0049678273
218	0x3d84de25	0.06487683
219	0x3e233da8	0.15941489
220	0xbd4a52ec	-0.049395487
221	0x3d1418bb	0.036156397
222	0xbdc3b60f	-0.09556209
223	0x3da122fa	0.078679994
224	0x3c166a4f	0.009180619
225	0x3db38d43	0.08767178
226	0x3e05a242	0.13050178
227	0xbe161546	-0.14656553
228	0x3e17ced0	0.14824986
229	0x3d691544	0.056905046
230	0x3e0f6b15	0.14005692
231	0x3c953ea7	0.018218352
232	0xbc9f3c3c	-0.019437902
233	0x3e051761	0.129972
234	0x3ea00cac	0.31259668
235	0x3e3ddaec	0.18540543
236	0xbdc4fcf8	-0.096185625
237	0xbd6af4ce	-0.05736237
238	0x3d9ed70e	0.07755862
239	0xbe51ed9a	-0.20500794
240	0xbe496079	-0.19665708
241	0x3c8ac00d	0.01693728
242	0xbe30cfb9	-0.1726674
243	0x3d397157	0.045274105
244	0x3cbafc02	0.022825245
245	0xbe75a53b	-0.23988812
246	0x3e3c52b5	0.18390925
247	0x3dde9c93	0.10869708
248	0x3e80a415	0.25125185
249	0x3e3de387	0.18543826
250	0xbe05883c	-0.1304025
251	0xbd9885e1	-0.074474104
252	0x3dd00e44	0.10158971
253	0x3da6e6ec	0.081495136
254	0xbe0a98f6	-0.13534912
255	0xbe2b33d5	-0.16718991

model.rnn.weight_hh_l1 f4 [160, 40]
0	0x3e6f4469	0.2336594
1	0x3dcee945	0.101030864
2	0x3c4fd593	0.012685197
3	0x3e4bef9b	0.19915621
4	0x3c456fc4	0.012050573
5	0xbcd67cf4	-0.02618263
6	0x3e261252	0.16217926
7	0xbe2c0fdb	-0.16802923
8	0x3c6a014a	0.014282534
9	0xbdb3d3bc	-0.087806195
10	0xbe1486e2	-0.14504579
11	0x3c953e3b	0.01821815
12	0x3d0442b7	0.032290187
13	0x3d9b7568	0.07590753
14	0xbd747e09	-0.05969051
15	0xbdb3f7b5	-0.08787481
16	0xbcedfea1	-0.02905208
17	0x3e149d53	0.1451314
18	0xbde10a68	-0.10988313
19	0x3e21d121	0.15802433
20	0x3dfa9d19	0.12236995
21	0x3d2fbe4a	0.042906083
22	0xbcede66a	-0.029040534
23	0xbce000d0	-0.027344137
24	0xbe18d2f6	-0.14924225
25	0x3d988c19	0.074485965
26	0x3e4a6c49	0.1976787
27	0xbd34d80d	-0.044151355
28	0x3e2b88be	0.16751382
29	0x3dda74c7	0.10666805
30	0x3da75063	0.081696294
31	0xbd1df179	-0.038560364
32	0xbe107843	-0.14108376
33	0x3c951686	0.018199217
34	0x3dfa2fe7	0.12216168
35	0xbc4aa062	-0.01236734
36	0xbcbeaaa4	-0.023274727
37	0x3c0969a1	0.008387
38	0x3cd947d8	0.026523516
39	0x3dafa71a	0.08576794
40	0x3e13dfc1	0.14440824
41	0x3dad4c96	0.08461873
42	0x3dd2cb02	0.10292627
43	0xbdb87b9e	-0.09007953
44	0x3d99e23c	0.07513854
45	0xbdff0409	-0.124519415
46	0x3b1b9490	0.0023739673
47	0xbe21cb3a	-0.15800181
48	0xbd43ad79	-0.04777286
49	0x3e2f6699	0.17128982
50	0x3d2dfbb7	0.042476382
51	0xbe780b48	-0.24223053
52	0x3cee17df	0.029064117
53	0x3e02a262	0.12757257
54	0xbdaaa419	-0.083320804
55	0x3e21f83c	0.1581735
56	0x3e4a2265	0.19739683
57	0xbe0de069	-0.13855137
58	0x3d1b8117	0.037964907
59	0xbdf29fc4	-0.11846879
60	0x3dd05996	0.10173337
61	0x3d8dc9d3	0.069232605
62	0xbe10ea43	-0.14151864
63	0xbda25dfe	-0.07928084
64	0x3d61cfda	0.055129863
65	0x3df05231	0.11734427
66	0xbdf231c0	-0.11825895
67	0xbd3ac910	-0.045601904
68	0xbd32506f	-0.04353374
69	0x3e297368	0.1654793
70	0xbd7f26e3	-0.062292945
71	0x3d8ce33e	0.068792805
72	0xbc8a0c34	-0.016851522
73	0x3db409a8	0.08790904
74	0xbde9a5cd	-0.11408577
75	0x3cafc648	0.021456853
76	0x3ccbf48f	0.024896888
77	0x3df8a129	0.12140114
78	0x3c6ba95b	0.014383639
79	0x3deb3754	0.114851624
80	0xbd653333	-0.05595703
81	0x3df5b77c	0.119978875
82	0xbc8e65ce	-0.017382529
83	0xbc832b71	-0.016011925
84	0xbdcf23d0	-0.101142526
85	0x3d477134	0.048691943
86	0xbdb12a30	-0.08650625
87	0x3d8f9f50	0.07012808
88	0xbb021197	-0.001984691
89	0x3d812d98	0.063075244
90	0xbd9e9479	-0.07743163
91	0x3d2cb9be	0.042169325
92	0xbd9f944f	-0.077919595
93	0x3e18a346	0.14906034
94	0x3d3cc83b	0.046089392
95	0x3de591f6	0.112094805
96	0x3dc792f3	0.09744825
97	0x3db035be	0.086040005
98	0x3db29623	0.087200426
99	0x3c6fbb91	0.014632122
100	0xbd6d5cbb	-0.057949763
101	0xbc8a2a7a	-0.016865958
102	0xbe4d7721	-0.20064975
103	0xbe12622d	-0.14295264
104	0x3e1ceef2	0.15325525
105	0x3e037137	0.12836157
106	0x3e19c4b6	0.15016446
107	0x3cedb1c6	0.029015433
108	0xbcc6e969	-0.02428122
109	0xbdb575e5	-0.08860377
110	0x3e063821	0.13107349
111	0x3c6dcc9c	0.014514115
112	0xbdeb96fe	-0.11503409
113	0xbe123704	-0.142788
114	0x3e28533e	0.16438004
115	0xbd8e5985	-0.06950668
116	0x3e0db3fd	0.13838191
117	0x3e2d18c0	0.16903973
118	0xbe2fb1f7	-0.17157732
119	0x3d1fb0fd	0.03898715
120	0xbd97a4d4	-0.07404485
121	0xbe0c8fc5	-0.13726719
122	0x3e219aaf	0.15781663
123	0xbcb2451d	-0.021761471
124	0x3d511d50	0.051053345
125	0x3d78c441	0.060734037
126	0x3e2cda5e	0.16880175
127	0x3c1e99a5	0.009680186
128	0xbe083c0b	-0.13304155
129	0x3d9f55ba	0.07780023
130	0x3d8308d5	0.06398169
131	0x3d8e7daf	0.06957566
132	0x3db362ba	0.08759065
133	0xba75b0e3	-0.00093723665
134	0xbdd6be88	-0.1048556
135	0x3d8f08df	0.06984114
136	0xbce75138	-0.02823697
137	0x3def8b89	0.11696536
138	0xba7fe8fb	-0.0009762195
139	0x3e870ca5	0.26376835
140	0x3e0d1e5a	0.1378111
141	0x3c50a4e9	0.01273463
142	0xbe37df86	-0.17956361
143	0xbcc01db8	-0.023451671
144	0x3d31a06a	0.043365873
145	0x3db783be	0.08960675
146	0x3e05d2f4	0.13068753
147	0x3d8c1560	0.068400145
148	0x3dde6d1c	0.10860655
149	0x3b4adbd2	0.0030953777
150	0xbda1ea3c	-0.07906005
151	0x3c601ad3	0.01367827
152	0xbb6a4bf4	-0.0035750838
153	0xbe476ff5	-0.19476302
154	0x3d09ff9d	0.033691037
155	0xbd4978f0	-0.0491876
156	0x3cbffd18	0.023436114
157	0xbd8eecdf	-0.06978773
158	0xbd85ce18	-0.0653345
159	0x3b6df9cc	0.003631222
160	0x3dfd6567	0.123728566
161	0xbd0662ca	-0.032809056
162	0x3d277ec4	0.040892377
163	0x3e3b819d	0.18311162
164	0x3d6bb5b2	0.057546325
165	0xbd3969c1	-0.04526687
166	0xbe2e3fc3	-0.1701651
167	0xbdad65c8	-0.08466679
168	0xbd9da266	-0.07696991
169	0x3e006e90	0.12542176
170	0x3d5b7f93	0.05358846
171	0xbe53864c	-0.20656699
172	0xbcdb03c4	-0.026735194
173	0x3daa4857	0.08314579
174	0xbb315e62	-0.0027064313
175	0x3e1be6b4	0.15224725
176	0x3e12ea07	0.14347087
177	0xbdee3528	-0.116312325
178	0x3d928996	0.07155149
179	0xbda35d0f	-0.07976734
180	0xbdd7842e	-0.10523258
181	0x3db2f00d	0.08737192
182	0xbd7c9622	-0.061666615
183	0xbda8e55f	-0.08246874
184	0xbd9b0e0e	-0.0757104
185	0x3dc5bb59	0.09654874
186	0xbd8bbd40	-0.06823206
187	0x3dcbadf6	0.0994529
188	0x3e1148bc	0.14187902
189	0x3e3b6b4d	0.18302651
190	0xbe310f68	-0.17291033
191	0x3cd11d2d	0.025526607
192	0x3e271abf	0.16318797
193	0x3da293a5	0.07938317
194	0xbca8f3fc	-0.020624153
195	0xbd9b7ba8	-0.07591945
196	0xbe222dcc	-0.15837783
197	0x3e052840	0.13003635
198	0xbc84d72a	-0.01621588
199	0x3c1ec317	0.009690068
200	0x3e1249b8	0.14285934
201	0xbe121692	-0.14266422
202	0x3cb353a6	0.021890473
203	0x3e41bda8	0.18920004
204	0x3d749750	0.059714615
205	0x3dce5e26	0.10076551
206	0x3ce34b89	0.027745979
207	0x3d044304	0.032290474
208	0xbe3f15c0	-0.1866064
209	0xbdc66247	-0.09686714
210	0xbe42235b	-0.189588
211	0x3c639977	0.013891569
212	0xbc9f5f8f	-0.019454746
213	0x3da69923	0.08134677
214	0xbd85e84a	-0.06538446
215	0xbd33eb65	-0.04392566
216	0x3dd981e2	0.10620476
217	0xbdd7aa45	-0.10530523
218	0x3e01184f	0.12606929
219	0x3e4be3f7	0.1991118
220	0xbc787057	-0.015163503
221	0x3cfb178b	0.030650875
222	0xbdbf6cfd	-0.0934696
223	0x3dcbd20f	0.09952175
224	0xbd98f468	-0.07468492
225	0xbd2397d5	-0.03993972
226	0x3e2b88ea	0.16751447
227	0xbe4e31fd	-0.20136257
228	0xbcac8559	-0.021059679
229	0xbdcc8ddb	-0.09987994
230	0x3d96fb23	0.07372119
231	0x3c4b6610	0.01241447
232	0xbd7e27f9	-0.06204984
233	0xbdf5333a	-0.11972661
234	0x3dc910df	0.09817671
235	0x3d6d6d50	0.057965577
236	0x3d606eae	0.054793052
237	0x3e4be792	0.19912556
238	0xbe33cd73	-0.17558841
239	0x3d926a4e	0.07149182
240	0x3ddc2082	0.10748388
241	0x3d8bd572	0.06827821
242	0x3d3c88b8	0.046028823
243	0x3dd3a45a	0.10334082
244	0x3e128a86	0.14310655
245	0xbd88b2cf	-0.0667473
246	0x3d2b44c9	0.041813646
247	0xbdc55a71	-0.09636391
248	0x3d13dca2	0.036099084
249	0x3e454fbd	0.19268699
250	0xbda4b1e9	-0.08041746
251	0xbb0402f0	-0.0020143352
252	0x3d5b118e	0.05348354
253	0xbb4f3cd4	-0.003162195
254	0xbc664a7f	-0.014055847
255	0xbe07aef0	-0.13250327

model.rnn.bias_ih_l1 f4 [160]
0	0x3df7ae91	0.12093843
1	0xbcb51292	-0.022103582
2	0xbde29dc9	-0.110652514
3	0xbc9bba22	-0.019009653
4	0xbd85e43a	-0.065376714
5	0x3d628124	0.05529894
6	0xbc676bad	-0.014124793
7	0x3b33d2ea	0.0027438947
8	0x3e4f174b	0.2022373
9	0x3d2bbafa	0.04192636
10	0x3e68b6b8	0.22725952
11	0xbb7ff1a0	-0.0039053932
12	0x3dd07496	0.10178487
13	0xbe061101	-0.13092424
14	0x3e019a76	0.12656578
15	0x3d7730ae	0.06034916
16	0x3e464146	0.19360837
17	0x3e051e8f	0.12999938
18	0xbc9c58b7	-0.019085271
19	0xbd5e5759	-0.05428252
20	0x3db2a5b5	0.08723012
21	0x3dbfed96	0.09371488
22	0xbc5fd3e6	-0.01366136
23	0x3cd33ecc	0.02578678
24	0x3c19db5a	0.009390676
25	0x3e0dfdfb	0.13866417
26	0x3d4cb542	0.04997755
27	0x3e2362e6	0.15955696
28	0x3e1f1ef2	0.15539148
29	0x3e18357d	0.14864154
30	0xbdba26e0	-0.09089446
31	0xbd3eba18	-0.04656419
32	0x3c5fe00e	0.013664259
33	0x3d7964fd	0.060887326
34	0x3dd0c59c	0.10193941
35	0x3def5d62	0.11687733
36	0x3e3960b0	0.1810329
37	0xbda00681	-0.078137405
38	0xbc7a0a9e	-0.01526132
39	0x3debbbd5	0.115104355
40	0x3dc2d4b9	0.0951323
41	0xbde922c1	-0.11383582
42	0xbc38135b	-0.011235083
43	0x3e1553cf	0.14582752
44	0x3e09ad42	0.13444999
45	0xbde11ef0	-0.10992229
46	0x3ce62f44	0.02809871
47	0x3dd3f8c6	0.10350184
48	0xbdafadce	-0.085780725
49	0x3beb8011	0.0071868976
50	0xbdce345e	-0.10068582
51	0xbdbc78e3	-0.09202745
52	0x3db2c400	0.0872879
53	0xbda8dc0c	-0.082450956
54	0x3d9d34ae	0.076760635
55	0xbcc3bf91	-0.023895057
56	0x3d14f5bd	0.036367167
57	0x3e004967	0.12528001
58	0x3e135e7f	0.14391516
59	0x3d6fa106	0.058503173
60	0xbdc1607a	-0.094422296
61	0x3dc79fa3	0.09747245
62	0x3dedca14	0.11610809
63	0x3deebe1b	0.116573535
64	0xbe17fa70	-0.14841628
65	0xbd124e9a	-0.03571949
66	0x3e2be48f	0.16786407
67	0x3c8193e9	0.0158176
68	0xbc601b2b	-0.013678352
69	0x3d8af00c	0.067840666
70	0x3e1114ea	0.14168134
71	0x3d0f1500	0.034932137
72	0x3ce6410f	0.028107194
73	0x3d98d7c6	0.074630305
74	0xbdb78b8d	-0.08962164
75	0xbda62394	-0.08112255
76	0xbd2dd8f1	-0.04244322
77	0x3d3796f9	0.044821713
78	0x3e083eee	0.13305256
79	0xbdbcdad4	-0.09221426
80	0x3d5820b9	0.05276558
81	0xbd9b89cc	-0.07594642
82	0x3cc48f85	0.023994217
83	0x3cc27124	0.02373559
84	0x3d21d4eb	0.039509695
85	0x3dec2769	0.115309544
86	0x3d8e8fc2	0.069610134
87	0x3d233679	0.03984687
88	0xbd783670	-0.06059879
89	0xbdda3900	-0.10655403
90	0xbe4ab87f	-0.19796942
91	0xbc8bb884	-0.017055757
92	0xbdc6f283	-0.09714224
93	0x3db14dc1	0.086574085
94	0x3d26847d	0.040653694
95	0x3d33a23e	0.043855898
96	0xbd1dffa0	-0.03857386
97	0x3b1a5f6e	0.0023555416
98	0x3e28ebec	0.16496247
99	0x3adb1b7e	0.0016716567
100	0xbd7b3b16	-0.061335646
101	0x3dc2bce3	0.095086835
102	0x3d805fe8	0.06268293
103	0x3dcff9ae	0.101550445
104	0xbd7940c1	-0.06085277
105	0x3c8ea2d1	0.017411621
106	0x3e1ba98b	0.15201394
107	0xbd914dd3	-0.07094922
108	0x3d02b7aa	0.031913437
109	0x3d1436bb	0.036185008
110	0xbd28d5a4	-0.04121937
111	0x3e1adbb2	0.1512287
112	0x3d9df6b2	0.07713069
113	0xbc802d04	-0.015646465
114	0x3d0243dd	0.031803
115	0x3d257d3f	0.040402647
116	0x3d4e8507	0.050419834
117	0x3ccfd5d7	0.025370521
118	0x3cf4aeca	0.029868502
119	0x3e3fddc4	0.1873694
120	0x3e356cc3	0.1771727
121	0xbc2620e3	-0.010139677
122	0xbde4fb51	-0.11180747
123	0xbdbeffad	-0.0932611
124	0x3d9680cc	0.07348785
125	0x3d46165c	0.048361167
126	0x3e276057	0.16345344
127	0x3e0d2c7f	0.13786505
128	0x3df92c63	0.12166669
129	0x3ccd5cff	0.025068758
130	0x3dcec401	0.100959785
131	0xbd39b7a2	-0.04534114
132	0x3d8308fa	0.063981965
133	0x3d64bace	0.055842213
134	0xbdb30225	-0.087406434
135	0xbdd68b9a	-0.10475846
136	0x3e5de591	0.21669604
137	0x3d221b8a	0.039577045
138	0x3e1724d6	0.14760146
139	0x3dc2296c	0.09480557
140	0xbdd8cab5	-0.10585538
141	0xbe139ead	-0.14415999
142	0xbd4eab75	-0.050456483
143	0x3e06ba0e	0.13156912
144	0x3d3558bf	0.044274088
145	0x3e808a3a	0.25105458
146	0x3d93a94a	0.07210024
147	0x3e2b3cc8	0.16722405
148	0x3e6caf80	0.23113823
149	0x3e191b13	0.14951734
150	0x3e164fa9	0.14678825
151	0xbda73112	-0.08163656
152	0x3e56d024	0.20977837
153	0xbcc25195	-0.023720542
154	0xbc5c7acc	-0.013457011
155	0x3d007200	0.03135872
156	0x3e1a00c3	0.15039353
157	0xbdb880a6	-0.09008913
158	0x3d158f31	0.03651351
159	0xbd4118d9	-0.047142837

model.rnn.bias_hh_l1 f4 [160]
0	0x3d878c87	0.066186
1	0xbdcd33cf	-0.10019647
2	0x3e217f02	0.15771106
3	0x3d472c0c	0.04862599
4	0x3d96c6db	0.073621474
5	0x3e4b0b05	0.19828422
6	0xbc342d25	-0.010997091
7	0x3b449aac	0.0029999418
8	0x3cdf5b38	0.027265176
9	0x3c23ce77	0.0099979555
10	0x3e1fc200	0.15601349
11	0xbd0fb11a	-0.035081007
12	0x3e21a90e	0.15787145
13	0xbdd3cf90	-0.10342324
14	0x3ddb7996	0.1071655
15	0x3e1808a0	0.1484704
16	0x3d0d5b5e	0.034510963
17	0xbe181b0e	-0.1485407
18	0x3d897d5a	0.06713362
19	0xbce6d471	-0.028177472
20	0x3cf0bf5e	0.029388126
21	0x3d937117	0.071993046
22	0x3d8ede2f	0.06975972
23	0x3d2f685a	0.042824127
24	0x3e263d35	0.16234286
25	0x3e308b84	0.17240721
26	0x3e4d992e	0.20077965
27	0x3e13bb60	0.14426947
28	0x3e2cf275	0.16889365
29	0xbd387f0e	-0.045043044
30	0x3d714d78	0.05891177
31	0x3e0e4b4d	0.13895912
32	0x3e0118c9	0.12607111
33	0x3c624706	0.013810879
34	0x3d957c3e	0.07299088
35	0xbdbb3c85	-0.091424026
36	0x3e3a665d	0.18203111
37	0xbd42252f	-0.047398742
38	0xbd407943	-0.046990644
39	0x3cdafc53	0.026731646
40	0x3e230bee	0.1592252
41	0xbe0393ba	-0.12849322
42	0xbd653a24	-0.05596365
43	0x3e0458ee	0.12924549
44	0xbd93c797	-0.07215803
45	0x3c452220	0.012032062
46	0xbdf95516	-0.12174432
47	0x3e2e9978	0.17050731
48	0xbd812e45	-0.06307653
49	0x3ddf3ceb	0.10900291
50	0xbd522554	-0.05130513
51	0x3dbb3db7	0.091426305
52	0x3d408ce1	0.047009353
53	0x3d014393	0.031558584
54	0x3e08f9d4	0.13376552
55	0xbe24d754	-0.16097766
56	0x39d8f936	0.00041384407
57	0xbe1bfaa3	-0.15232329
58	0xbe19b2b4	-0.15009576
59	0x3bd3e0d4	0.0064660106
60	0x3e217461	0.15767051
61	0x3c88d9ac	0.016705357
62	0x3d25277b	0.040320855
63	0xbe0294b0	-0.12752032
64	0xbda8d10e	-0.08242999
65	0x3d324b51	0.04352886
66	0x3e1a370f	0.15060066
67	0xbd85d390	-0.06534493
68	0xbde688c1	-0.112565525
69	0xbd19b1c0	-0.03752303
70	0x3d923653	0.07139268
71	0xbd3ac826	-0.045601033
72	0x3e062b4b	0.13102452
73	0x3e3db4b4	0.18525964
74	0x3d9e209e	0.07721065
75	0x3c92c916	0.01791815
76	0x3d5065a5	0.050878186
77	0xbddeb411	-0.10874189
78	0x3d88cee1	0.06680084
79	0xbc976f88	-0.0184858
80	0xbdabbb98	-0.0838539
81	0xbc438b9f	-0.011935144
82	0x3e109858	0.14120615
83	0x3ca92500	0.020647526
84	0x3d48947f	0.048969742
85	0xbd8bc0ae	-0.0682386
86	0xbb71256a	-0.0036795982
87	0x3da796b3	0.081830405
88	0x3cf14e68	0.029456332
89	0x3dfa6a4f	0.12227308
90	0xbb92dc3b	-0.00448182
91	0xbde71348	-0.112829745
92	0xbe2c72bd	-0.16840644
93	0x3e297de0	0.16551924
94	0x3df32636	0.118725225
95	0x3e1086ea	0.14113966
96	0x3ddbc7f0	0.107314944
97	0xbd14c9e2	-0.036325343
98	0x3d57456a	0.052556433
99	0x3c3efce1	0.011656971
100	0xbc38c603	-0.011277678
101	0xbdb188b2	-0.08668651
102	0xbdb50eee	-0.08840738
103	0xbe1723c2	-0.14759734
104	0xbc96d7da	-0.018413473
105	0xbdb39f6e	-0.08770643
106	0xbd5580cc	-0.052124783
107	0xbe35d715	-0.17757829
108	0x3da14867	0.07875138
109	0x3d18e606	0.037328742
110	0xbb066db5	-0.0020512168
111	0x3dc88697	0.09791296
112	0xbd7922ae	-0.06082409
113	0xbe52d03b	-0.20587246
114	0x3d651796	0.055930696
115	0xbc9be26a	-0.019028861
116	0xbdf00b1a	-0.117208675
117	0xbdce5bcc	-0.100761026
118	0x3d9dd8f8	0.07707399
119	0x3d634afa	0.055491425
120	0xbbc6246d	-0.0060468228
121	0x3e0a5aa9	0.13511147
122	0xbd82e78b	-0.063918196
123	0xbd3c113e	-0.04591488
124	0xbdd66521	-0.104685076
125	0x3dd73e52	0.105099335
126	0x3e06a455	0.13148625
127	0x3dc7fb46	0.097647235
128	0x3e0af3a5	0.13569506
129	0x3e2ad7bf	0.16683863
130	0x3e06584f	0.13119625
131	0xbd924a8b	-0.07143124
132	0xbbca7aae	-0.0061791753
133	0xbdcf95eb	-0.101360165
134	0x3e288691	0.16457583
135	0x3e39d9da	0.1814951
136	0x3e3d56c6	0.18490133
137	0xbdc1ac2a	-0.09456666
138	0x3dc72891	0.09724534
139	0x3dbb2501	0.09137917
140	0xbda25ca0	-0.07927823
141	0xbd9e07fd	-0.077163674
142	0xbc4ed906	-0.012624985
143	0xbd2966f6	-0.041357957
144	0x3db855a2	0.09000708
145	0xbd34d9d3	-0.044153046
146	0xbc5515a5	-0.013005649
147	0xbd22f6c6	-0.039786123
148	0xbcf4f7e1	-0.029903354
149	0xbd87a4fc	-0.06623265
150	0xbe27a2c0	-0.16370678
151	0x3d96a73b	0.073561154
152	0x3dd84ef0	0.10561931
153	0x3e127bbe	0.14305016
154	0x3dcf8387	0.10132509
155	0xbc5cdeb8	-0.013480835
156	0xbd2ef768	-0.042716414
157	0x3c8c45ae	0.01712307
158	0x3cb57f1a	0.022155333
159	0x3d332f45	0.04374625

exp_avg f4 [1, 40]
0	0x3a581307	0.00082425814
1	0x379f7382	1.9008065e-05
2	0x39ba148c	0.00035491993
3	0x3a4859bb	0.00076427654
4	0x386e85ec	5.6868346e-05
5	0x399b0806	0.00029569882
6	0xb9fc293d	-0.0004809591
7	0xba2ee231	-0.00066712784
8	0xba18e52e	-0.000583249
9	0x3a3839ce	0.00070276565
10	0xba6756bf	-0.0008824877
11	0xb910ba14	-0.0001380223
12	0xb9e7c4c6	-0.0004420636
13	0x399ee205	0.00030304506
14	0x3917b956	0.00014469525
15	0xb8a97cf9	-8.081826e-05
16	0x3a64eec2	0.00087330875
17	0x388e657d	6.789991e-05
18	0x38ebecfd	0.00011249816
19	0x39c5e6b7	0.00037746664
20	0x3a1999b1	0.00058593886
21	0x37bea1a1	2.272503e-05
22	0xba16f5b7	-0.000575866
23	0x39a366f1	0.0003116648
24	0xb9fc83b9	-0.00048163327
25	0xb9c965fe	-0.00038413698
26	0x3a44bfa6	0.00075053645
27	0xba413c2a	-0.0007371331
28	0x3a585f73	0.0008253969
29	0x3a02dfae	0.00049924373
30	0xb886dc06	-6.4306005e-05
31	0x39fb5377	0.00047936637
32	0xb98d7f1f	-0.00026988328
33	0xba4d8520	-0.00078399666
34	0x3a32e23e	0.0006823874
35	0xba0069c8	-0.0004898575
36	0x39b14a23	0.00033815307
37	0x39c7b9f3	0.0003809478
38	0xba65d97b	-0.0008768064
39	0x3a05dcbc	0.00051064393

exp_avg_sq f4 [1, 40]
0	0x3607832b	2.0192917e-06
1	0x34f65a76	4.588689e-07
2	0x354fb0af	7.737062e-07
3	0x36391a13	2.7582325e-06
4	0x3469723f	2.1741378e-07
5	0x34e95ea3	4.346849e-07
6	0x35eede3a	1.7797058e-06
7	0x36505ffb	3.1050283e-06
8	0x360612c7	1.9978486e-06
9	0x360edfba	2.1289875e-06
10	0x3689b931	4.1044773e-06
11	0x34c4c3c7	3.6650292e-07
12	0x35ceaaa1	1.5397856e-06
13	0x351009fa	5.36587e-07
14	0x3551137f	7.788694e-07
15	0x34de7276	4.1434004e-07
16	0x3550fc74	7.7853406e-07
17	0x3492fb5f	2.7377516e-07
18	0x35988ce7	1.136589e-06
19	0x35bed62c	1.4218435e-06
20	0x35e38c95	1.6953733e-06
21	0x341c7080	1.456956e-07
22	0x361f655a	2.375184e-06
23	0x34ec7e80	4.4050466e-07
24	0x34f67dfa	4.591273e-07
25	0x348b7173	2.5973313e-07
26	0x36134ccf	2.1949415e-06
27	0x3622b79b	2.4246754e-06
28	0x35fb702d	1.8733605e-06
29	0x35f6ab5a	1.8378298e-06
30	0x34633422	2.1159988e-07
31	0x35636aca	8.471949e-07
32	0x3664cda2	3.4094342e-06
33	0x367c2bf3	3.7576508e-06
34	0x364dae4a	3.064883e-06
35	0x358bafd4	1.040748e-06
36	0x34bca04b	3.5134357e-07
37	0x3587bf75	1.0114005e-06
38	0x3692c1b6	4.37369e-06
39	0x35dcc2ec	1.6448007e-06

exp_avg f4 [1, 40]
0	0xbc93386b	-0.017971238
1	0x3baaa20a	0.005207305
2	0xbc3687f9	-0.011140817
3	0xbc8d1937	-0.017223937
4	0x3baf10d5	0.0053425827
5	0xb80777ce	-3.2298085e-05
6	0x3bd9bd28	0.0066448636
7	0x3c76edd2	0.015071349
8	0x3c50a75a	0.012735212
9	0xbc90bd2f	-0.017668335
10	0x3cabf58e	0.020991113
11	0x3bb87abc	0.0056298655
12	0x3c3ba9c0	0.011454046
13	0xbc0ad5c5	-0.008473818
14	0xbbd76494	-0.006573269
15	0xbab88fbf	-0.0014080926
16	0xbd1e36b6	-0.038626395
17	0xbb89cfea	-0.0042056935
18	0xbc39ee0c	-0.011348259
19	0xbc240d5e	-0.010012953
20	0xbbda2b59	-0.0066579995
21	0x3a88d633	0.0010439813
22	0x3c8589c7	0.016301049
23	0xbb1e20d8	-0.0024128463
24	0x3c0f0b17	0.008730671
25	0x3c59d849	0.013296195
26	0xbc7db49b	-0.015484954
27	0x3c8c5566	0.017130565
28	0xbc9c9689	-0.01911475
29	0xbc8dd419	-0.01731305
30	0x3bef5003	0.0073032393
31	0xbc4c9069	-0.012485602
32	0x3c311a46	0.010809487
33	0x3c9a51e0	0.01883787
34	0xbc94f432	-0.018182848
35	0x3c55efbb	0.0130576445
36	0xbba0c2e1	-0.004906044
37	0xbc986691	-0.018603595
38	0x3ca0a7c1	0.019611241
39	0xbc565f46	-0.013084238
