lightning_logs/version_10/checkpoints/epoch=14-step=750.ckpt (torch, 330670 bytes, 33 tensors)

model.param_proj.proj.0.weight f4 [1, 40]
-0.071307406 0.25690943 -0.09320533 -0.18272564 0.045181468 -0.200384 0.47602314 0.22051376
-0.009230578 0.1954457 -0.079604276 0.004112191 -0.094182715 0.12128541 -0.1437334 0.028885325
-0.12902856 -0.07958214 -0.18277913 0.13997565 -0.027277261 -0.068567365 -0.17183712 0.17110597
-0.22568516 0.10180679 0.18778937 0.01614074 0.16871712 -0.2281087 0.023496661 0.17424701
0.03095604 0.07007728 0.04753562 0.18015066 -0.121601045 0.33693048 -0.20516557 0.22474489
00000000: 9e09 92bd a289 833e 70e2 bebd 6e1c 3bbe
00000010: 3410 393d 7731 4dbe 4eb9 f33e 5cce 613e
00000020: da3b 17bc eb22 483e 9107 a3bd 8fbf 863b
00000030: dee2 c0bd 7c64 f83d d92e 13be eba0 ec3c
00000040: 1020 04be f6fb a2bd 742a 3bbe c755 0f3e
00000050: 9074 dfbc 0c6d 8cbd 12f6 2fbe 6736 2f3e
00000060: 031a 67be 1480 d03d db4b 403e 9639 843c
00000070: 2ec4 2c3e 5495 69be 127c c03c cf6d 323e
00000080: 8597 fd3c ad84 8f3d b6b4 423d 6a79 383e
00000090: f809 f9bd 2782 ac3e ec16 52be 8623 663e

model.param_proj.proj.1.weight f4 [1, 40]
-0.012539132 0.16055296 0.064237826 -0.117889084 -0.116539635 -0.06084803 0.059423275 -0.17877217
0.028493037 -0.0049309125 0.06493136 0.21031033 0.16715156 0.106377706 0.18179107 -0.19293144
-0.10050199 0.12581895 0.0024660095 -0.15214172 -0.058550365 0.16332236 -0.08014495 0.18622059
0.002244225 0.20152177 0.0972038 -0.105086 -0.22884849 -0.14393573 0.05447334 0.18599431
0.068794385 -0.11835611 0.22386749 0.056648385 -0.0544165 0.24606687 0.018107783 -0.11495028
00000000: ee70 4dbc ff67 243e 1f8f 833d d56f f1bd
00000010: 55ac eebd c93b 79bd d265 733d 0d10 37be
00000020: 3b6a e93c 7e93 a1bb bcfa 843d 975b 573e
00000030: c729 2b3e 8edc d93d 7027 3a3e d28f 45be
00000040: fdd3 cdbd afd6 003e c69c 213b 0acb 1bbe
00000050: 82d2 6fbd fa3d 273e 0923 a4bd 9cb0 3e3e
00000060: d913 133b b95b 4e3e c912 c73d 5437 d7bd
00000070: 4257 6abe e363 13be 701f 5f3d 4b75 3e3e
00000080: 12e4 8c3d b064 f2bd 853d 653e 2308 683d
00000090: d6e3 5ebd f4f8 7b3e c656 943c 0d6b ebbd

model.param_proj.proj.2.weight f4 [1, 40]
-0.27598688 -0.074439764 0.1746645 -0.042784818 -0.27533117 0.27545148 -0.39956793 -0.26218605
0.18918633 -0.26793495 -0.22841424 0.15088725 -0.09056604 -0.1273999 0.20837756 0.03460496
0.23400049 -0.072922654 0.19754206 0.090888396 0.026903907 0.14661224 0.017447703 -0.07804405
0.12183099 0.1605645 -0.19754493 -0.067875735 -0.23481272 -0.09629687 -0.27654853 -0.08822268
0.054072358 0.06473981 0.10433086 -0.22794959 -0.23002842 0.18824314 0.30980298 -0.21691118
00000000: 274e 8dbe e073 98bd 40db 323e 223f 2fbd
00000010: 35f8 8cbe fa07 8d3e 2b94 ccbe 403d 86be
00000020: 10ba 413e c52e 89be 6ce5 69be 3082 1a3e
00000030: b07a b9bd 1f75 02be ed60 553e eebd 0d3d
00000040: d39d 6f3e 7958 95bd 7748 4a3e b223 ba3d
00000050: 9565 dc3c 8521 163e 7cee 8e3c 8fd5 9fbd
00000060: 8782 f93d 056b 243e 3849 4abe 6f02 8bbd
00000070: bf72 70be 4b37 c5bd c597 8dbe 18ae b4bd
00000080: fa7a 5d3d 4e96 843d 6bab d53d 9e6b 69be
00000090: 928c 6bbe cfc2 403e 7f9e 9e3e f71d 5ebe

model.rnn.weight_ih_l0 f4 [160, 37]
0.17608848 -0.033159506 -0.069260515 0.13293013 -0.04583016 0.121488035 0.15449499 0.15180069
0.066304445 0.122065455 0.079377785 0.15292312 0.16372232 0.088579334 -0.019164912 -0.02904964
-0.09469115 -0.034703095 -0.038136385 0.19054358 -0.16671334 0.012675339 -0.121764146 0.06559372
-0.021632966 -0.09433906 -0.12319235 -0.033969037 -0.04427045 0.13378562 -0.09139104 -0.016435184
-0.10167299 0.25496885 0.38176098 0.22140521 0.03989683 0.091746435 -0.011087617 0.1524897
-0.04144394 -0.055368792 0.09687524 0.013708562 0.11521463 -0.11597355 0.04219914 -0.11576796
0.013478374 -0.061460953 -0.058121156 -0.07375075 0.16692364 0.16224788 0.013533525 0.004890035
0.15969445 -0.036129255 -0.011469624 0.124832354 -0.06147885 -0.029180821 0.15415677 0.086746074
0.1143387 0.16521862 -0.12618078 -0.123317085 0.07051128 -0.074307255 -0.09122911 -0.29974288
-0.117434666 -0.024586318 0.020274404 0.18372013 0.028336752 0.10413927 0.20357026 0.16599177
0.11603811 0.064801164 0.2779514 -0.00661752 0.09497414 -0.017713722 -0.00985665 0.058196425
-0.092012666 -0.019670628 -0.047776803 0.20676959 0.17329523 -0.00882447 0.22321528 0.2056104
0.24903625 0.23534766 -0.039518286 -0.005747953 0.27036333 0.11725198 0.13307863 -0.0056272307
0.061757647 -0.005787597 0.073016554 -0.09652598 -0.23689558 0.32158414 0.14873569 -0.04897294
-0.0023869795 0.20935313 -0.038799044 0.013544857 -0.094859146 0.22107 0.17035197 -0.14738622
0.19143507 0.043580282 -0.2640305 -0.15352632 -0.038163014 -0.033765774 0.11207768 -0.08180811
-0.048780587 0.15321669 0.15858321 0.18534032 -0.07211252 0.12491075 -0.02314136 -0.15002131
-0.110854805 -0.14336847 -0.067445636 0.1257431 0.05968073 0.02552689 0.053141695 0.03927732
-0.11886602 -0.20921831 0.49757648 0.13844097 0.003359141 0.21024367 -0.09810494 -0.090440206
0.09786795 -0.072934076 0.05962251 0.17409198 -0.0249541 -0.08979521 0.11192418 -0.08340366
-0.071645536 -0.031327184 0.06892062 0.06634583 -0.08915025 0.058611654 -0.058077767 -0.037150837
-0.07786787 0.22654155 0.017951468 -0.05498278 0.02952084 0.18486099 0.07408727 0.064722516
-0.0056458404 0.23606385 0.0017962669 0.0037842877 0.20846462 -0.26207107 0.41429406 0.19419874
0.009991021 0.092591465 0.10184112 -0.014141724 -0.064899 -0.06436879 -0.028186016 -0.07204691
0.15319344 0.053682886 -0.03254505 0.040439166 0.22297429 0.122533396 0.24217995 -0.018532904
0.23578848 0.19904527 0.18026589 0.07653391 0.13743456 0.1625386 -0.04817282 -0.049829725
0.20274004 0.153337 0.14626086 -0.03878234 0.17871238 -0.054002207 0.21323043 0.20575184
-0.014187031 0.12014268 -0.24041702 -0.032974657 -0.027609536 0.22051196 -0.081127 0.098591514
-0.06759286 -0.09633035 0.16689718 0.16864878 0.030024217 0.09322779 0.012426034 -0.11659917
-0.01477539 0.11061528 0.098249 -0.08076846 0.042525433 -0.07149176 0.12630898 -0.059368636
-0.07485205 0.019224651 0.19626984 -0.0324014 -0.07286329 0.16983886 0.1753976 0.053572193
0.159684 -0.019128082 -0.017657058 0.083907366 0.14947867 -0.06071949 0.070798144 -0.039547186
00000000: 8a50 343e 43d2 07bd 75d8 8dbd d61e 083e
00000010: 68b8 3bbd b8ce f83d ef33 1e3e a471 1b3e
00000020: a0ca 873d 74fd f93d d290 a23d e197 1c3e
00000030: d3a6 273e 1569 b53d bcff 9cbc 83f9 edbc
00000040: 6fed c1bd d524 0ebd e634 1cbd db1d 433e
00000050: e7b6 2abe 3aac 4f3c 7b5f f9bd 0056 863d
00000060: 9e37 b1bc d634 c1bd 454c fcbd 1e23 0bbd
00000070: ee54 35bd 19ff 083e 3a2b bbbd 14a3 86bc
00000080: ee39 d0bd 478b 823e 2d76 c33e 0cb8 623e
00000090: dc6a 233d 8ee5 bb3d d6a8 35bc 4326 1c3e
000000a0: 1fc1 29bd 63ca 62bd 8766 c63d e099 603c
000000b0: a6f5 eb3d 8a83 edbd 01d9 2c3d c117 edbd
000000c0: 66d4 5c3c 7bbe 7bbd 7310 6ebd a20a 97bd
000000d0: 08ee 2a3e 4f24 263e b8bb 5d3c 963c a03b
000000e0: f186 233e 45fc 13bd 17eb 3bbc 1ba8 ff3d
000000f0: 3fd1 7bbd 9e0c efbc 46db 1d3e eda7 b13d
00000100: 692a ea3d 122f 293e 8935 01be ab8d fcbd
00000110: 3868 903d 672e 98bd 54d6 babd e677 99be
00000120: 9681 f0bd 3f69 c9bc 8216 a63c 2121 3c3e
00000130: 7a22 e83c f846 d53d b974 503e bff9 293e
00000140: 63a5 ed3d 79b6 843d a54f 8e3e c8d7 d8bb
00000150: cd81 c23d 5e1c 91bc c97d 21bc 605f 6e3d
00000160: 2371 bcbd 4c24 a1bc 9cb1 43bd 68bb 533e
00000170: 4e74 313e 8394 10bc 8c92 643e 888b 523e
00000180: 5c03 7f3e fafe 703e eddd 21bd 5359 bcbb
00000190: 106d 8a3e ce21 f03d c445 083e a264 b8bb
000001a0: 96f5 7c3d e2a5 bdbb b489 953d 6aaf c5bd
000001b0: c194 72be ada6 a43e 2b4e 183e d997 48bd
000001c0: df6e 1cbb ab60 563e bfeb 1ebd 3feb 5d3c
000001d0: 8345 c2bd 2d60 623e bf70 2e3e 6aec 16be
000001e0: 8e07 443e 3d81 323d 012f 87be 0136 1dbe
000001f0: d250 1cbd fb4d 0abd fc88 e53d 038b a7bd
00000200: 27ce 47bd d6e4 1c3e a363 223e dac9 3d3e
00000210: bbaf 93bd 35d1 ff3d f392 bdbc 309f 19be
00000220: d807 e3bd 2fcf 12be f020 8abd cdc2 003e
00000230: c873 743d c51d d13c 1bab 593d 41e1 203d
00000240: 0770 f3bd 533d 56be 58c2 fe3e 78c3 0d3e
00000250: 0925 5c3b 1e4a 573e 3eeb c8bd b738 b9bd
00000260: fe6e c83d 765e 95bd bc36 743d 2b45 323e
00000270: 8a6c ccbc 8de6 b7bd 8138 e53d 8acf aabd
00000280: e5ba 92bd ef50 00bd 4126 8d3d 53e0 873d
00000290: 6894 b6bd c612 703d f4e2 6dbd 7a2b 18bd
000002a0: 3179 9fbd 82fa 673e f50e 933c a035 61bd
000002b0: b0d5 f13c 334c 3d3e 11bb 973d 3d8d 843d
000002c0: be00 b9bb b9ba 713e b770 eb3a d001 783b
000002d0: c077 553e 2e2e 86be 5a1e d43e 09dc 463e
000002e0: 61b1 233c 98a0 bd3d 1492 d03d b1b2 67bc
000002f0: c4e9 84bd c9d3 83bd 5ce6 e6bc 558d 93bd
00000300: bede 1c3e 96e2 5b3d f54d 05bd 8aa3 253d
00000310: 5f53 643e caf2 fa3d 05fe 773e 51d2 97bc
00000320: 8972 713e 86d2 4b3e 9f97 383e d0bd 9c3d
00000330: a5bb 0c3e 8570 263e dd50 45bd 411a 4cbd
00000340: 169b 4f3e 6004 1d3e 68c5 153e 3bda 1ebd
00000350: 6100 373e 6b31 5dbd 1459 5a3e 9cb0 523e
00000360: b970 68bc 5e0d f63d e12f 76be 6f10 07bd
00000370: 652d e2bc e3cd 613e ea25 a6bd 59ea c93d
00000380: 206e 8abd d948 c5bd 18e7 2a3e 44b2 2c3e
00000390: 59f5 f53c 36ee be3d 9096 4b3c 8ccb eebd
000003a0: 7a14 72bc 448a e23d c636 c93d ef69 a5bd
000003b0: 262f 2e3d 466a 92bd 2457 013e 872c 73bd
000003c0: 084c 99bd 047d 9d3c f6fa 483e 55b7 04bd
000003d0: 5939 95bd 3dea 2d3e 6e9b 333e 846e 5b3d
000003e0: 3484 233e 7fb2 9cbc 89a5 90bc a0d7 ab3d
000003f0: f010 193e 00b5 78bd 9efe 903d 3bfc 21bd

model.rnn.weight_hh_l0 f4 [160, 40]
-0.15675485 -0.045066655 -0.07817911 0.18117732 0.05062278 -0.15322113 -0.029317854 0.17269772
-0.009533558 -0.07622869 0.10234488 -0.14503178 -0.07259425 -0.2245267 0.1896769 0.012541768
-0.10236647 -0.15620561 -0.050301757 0.084266424 -0.03490321 0.13139717 0.049902644 -0.1359409
-0.2987445 0.052493814 -0.122250676 -0.047258776 -0.036206674 -0.01615233 -0.12952864 0.24180405
-0.007188456 -0.14913923 -0.015766494 0.021541903 0.12917207 -0.07445945 0.05239863 -0.06482537
0.13013217 -0.07373069 0.024868282 -0.026169265 -0.18303028 -0.012691439 -0.08523291 0.11842156
0.07847513 -0.101829745 0.08384493 -0.17599098 0.14831147 0.0016091414 -0.16302566 0.12564403
-0.03131929 0.058403626 0.18051453 -0.24848014 -0.056425516 0.08104882 -0.091574684 -0.11545919
-0.07985886 -0.06694089 0.004987214 -0.016032392 -0.08400854 -0.15826365 0.10319224 0.012215702
-0.0789722 -0.008868709 0.009319478 -0.111627616 -0.119713806 0.0760025 0.019735795 -0.1368124
-0.014773704 -0.03121606 -0.12751603 0.038768966 -0.19717881 -0.07485051 0.05795688 0.16974168
0.012599113 -0.113882124 0.07921243 -0.19178769 0.14395827 -0.03922702 -0.11411178 0.026041996
-0.11380362 0.13907821 0.044400718 -0.00999004 0.024179414 -0.024210798 0.062065303 -0.011307788
0.004404839 -0.10078696 -0.21109535 -0.08201446 0.07542031 -0.07685048 -0.07788997 -0.03493316
-0.021771858 0.07348391 -0.13305339 0.13954374 0.09715433 -0.052184176 0.18341284 -0.033757165
-0.1935583 0.047125515 -0.100232914 0.08445958 -0.070154354 0.08654692 0.0013326826 0.32057944
0.004882747 0.17307697 -0.085286155 0.012427847 0.036612067 0.3721582 0.002819906 0.119391106
-0.17489319 -0.02105134 -0.022748383 0.3822106 -0.1315872 -0.17331016 0.0543119 0.18844129
0.1624591 -0.08828203 -0.13923442 -0.2089022 0.054921206 0.06928807 0.17339762 -0.030995494
0.08941558 -0.16600358 -0.044664826 0.18133031 -0.02684479 0.033985406 0.094435945 -0.11497003
0.14084552 -0.09530138 -0.012755406 0.0025201016 0.099877864 0.16641547 -0.13021694 -0.07765019
-0.02720725 -0.09341681 -0.1311726 -0.10673635 0.096419595 -0.03626193 -0.00371909 -0.01498112
0.022940505 0.015422662 0.048555657 0.09673775 -0.0925084 0.06539873 0.13502055 -0.2894847
-0.15144478 0.020526187 0.042831812 0.15968914 -0.052017882 0.12333575 0.07111694 -0.032117404
0.15475245 0.08753749 0.1037432 -0.008965558 0.15116274 0.043000754 -0.07456054 0.006151433
-0.12014432 -0.18503381 0.12701786 -0.078674845 0.060880516 -0.04776964 -0.17853318 0.15444915
0.036774512 0.18200757 -0.057149965 0.13362396 -0.09460041 0.103758276 0.19404611 -0.12894444
0.036108803 0.11031762 0.0031754584 -0.1550536 0.11460929 -0.01449069 0.00065407925 0.014030457
-0.014465543 0.027860098 -0.12459672 -0.067350656 0.107420765 -0.091850504 -0.07887899 -0.19556941
0.16911003 -0.08066819 0.14785582 0.059080407 -0.021520467 -0.08519224 -0.09421743 -0.15711217
-0.12836435 -0.025908448 -0.05529385 -0.045540407 -0.04736694 -0.000459655 -0.11550012 0.05855909
0.15041456 -0.147532 -0.04915948 -0.10710467 0.07872327 0.06109693 0.0851319 0.06706704
00000000: 5884 20be d097 38bd 5f1c a0bd 8c86 393e
00000010: d559 4f3d 00e6 1cbe ff2b f0bc acd7 303e
00000020: a432 1cbc ca1d 9cbd 319a d13d 3683 14be
00000030: 4bac 94bd 54ea 65be a93a 423e fd7b 4d3c
00000040: 83a5 d1bd 5df4 1fbe 3709 4ebd e093 ac3d
00000050: abf6 0ebd fb8c 063e b766 4c3d 1734 0bbe
00000060: 0af5 98be c103 573d 905e fabd 6b92 41bd
00000070: 734d 14bd e451 84bc 28a3 04be 7b9b 773e
00000080: 248d ebbb f4b7 18be bc28 81bc a578 b03c
00000090: af45 043e 327e 98bd f29f 563d 2ac3 84bd
000000a0: 5e41 053e 1e00 97bd 91b8 cb3c ed60 d6bc
000000b0: 4a6c 3bbe c1ef 4fbc 988e aebd 0187 f23d
000000c0: 92b7 a03d 1d8c d0bd e4b6 ab3d fb36 34be
000000d0: f6de 173e d3e9 d23a 33f0 26be d4a8 003e
000000e0: a848 00bd a438 6f3d cdd8 383e 9471 7ebe
000000f0: 711e 67bd ecfc a53d 828b bbbd de75 ecbd
00000100: 0b8d a3bd 4e18 89bd c96b a33b 5d56 83bc
00000110: ab0c acbd de0f 22be 7456 d33d 5e24 483c
00000120: 2dbc a1bd 104e 11bc b9b0 183c 059d e4bd
00000130: 832c f5bd 33a7 9b3d f6ac a13c 8d18 0cbe
00000140: 680d 72bc d3b8 ffbc 9093 02be 35cc 1e3d
00000150: 3ee9 49be 394b 99bd 3264 6d3d c3d0 2d3e
00000160: 836c 4e3c 083b e9bd 203a a23d fe63 44be
00000170: cc69 133e 83ac 20bd 70b3 e9bd 0656 d53c
00000180: df11 e9bd 856a 0e3e 87dd 353d 44ad 23bc
00000190: e813 c63c b955 c6bc 3038 7e3d 4d44 39bc
000001a0: 7856 903b 6569 cebd 6129 58be 32f7 a7bd
000001b0: f775 9a3d c963 9dbd c784 9fbd 1316 0fbd
000001c0: e55a b2bc bb7e 963d 263f 08be 8ee4 0e3e
000001d0: d9f8 c63d 13bf 55bd 93d0 3b3e f444 0abd
000001e0: 2634 46be af06 413d ea46 cdbd 25f9 ac3d
000001f0: 16ad 8fbd 833f b13d 68ad ae3a fd22 a43e
00000200: 73ff 9f3b 173b 313e 82aa aebd 2b9e 4b3c
00000210: 89f6 153d 858b be3e 2cce 383b 5383 f43d
00000220: 3317 33be dc73 acbc d15a babc 1cb1 c33e
00000230: ccbe 06be 3878 31be 2876 5e3d c1f6 403e
00000240: ae5b 263e 35cd b4bd 7893 0ebe 75ea 55be
00000250: 0ff5 603d e7e6 8d3d 258f 313e 43ea fdbc
00000260: 841f b73d d8fc 29be 77f2 36bd a7ae 393e
00000270: 9be9 dbbc 4834 0b3d a267 c13d 6875 ebbd
00000280: cf39 103e 5f2d c3bd 0dfc 50bc 4a28 253b
00000290: c48c cc3d d168 2a3e 9757 05be 1007 9fbd
000002a0: bde1 debc 5051 bfbd 1c52 06be 9698 dabd
000002b0: a377 c53d 6487 14bd fabb 73bb 5f73 75bc
000002c0: baed bb3c 55af 7c3c 4ce2 463d 711e c63d
000002d0: 0b75 bdbd c5ef 853d d442 0a3e 5737 94be
000002e0: 5714 1bbe 8926 a83c 6970 2f3d 8d85 233e
000002f0: b410 55bd 7497 fc3d c2a5 913d 8a8d 03bd
00000300: 6d77 1e3e db46 b33d 5177 d43d 47e4 12bc
00000310: 68ca 1a3e 8f21 303d 32b3 98bd f691 c93b
00000320: 3a0e f6bd 8179 3dbe f810 023e 4720 a1bd
00000330: d95d 793d 19aa 43bd 67d1 36be eb27 1e3e
00000340: dfa0 163d 3160 3a3e 1516 6abd b8d4 083e
00000350: dcbd c1bd 387f d43d 06b4 463e 030a 04be
00000360: d3e6 133d 34ee e13d 5a1b 503b 5fc6 1ebe
00000370: 47b8 ea3d 5c6a 6dbc 8476 2b3a 00e0 653c
00000380: e300 6dbc dc3a e43c 912c ffbd 24ef 89bd
00000390: 6bff db3d 1e1c bcbd 4f8b a1bd 5943 48be
000003a0: 2e2b 2d3e 5d35 a5bd 8467 173e 4cfe 713d
000003b0: b14b b0bc 4579 aebd 11f5 c0bd 03e2 20be
000003c0: f271 03be f43d d4bc ce7b 62bd 9488 3abd
000003d0: d603 42bd dafd f0b9 548b ecbd a8db 6f3d
000003e0: 4606 1a3e a112 17be 735b 49bd b159 dbbd
000003f0: aa39 a13d c640 7a3d a259 ae3d 725a 893d

model.rnn.bias_ih_l0 f4 [160]
0.046830613 0.017051565 0.028908825 0.14094375 0.16267198 0.16335995 0.11812862 -0.036795206
0.20084211 -0.00513921 0.08877364 0.12637031 0.09446117 0.09286541 0.11468507 -0.08797368
0.054837562 0.14512166 0.035039 0.020214628 0.15226084 0.043066494 -0.13357049 0.0017657705
0.05057245 -0.07391426 0.07734549 0.13262022 0.08699403 0.0865537 0.21965428 0.27679
-0.06744081 -0.04108867 0.16756855 0.102635056 0.08477285 0.19611806 0.06330639 0.028606009
-0.003721663 -0.04974676 0.056233395 -0.13799658 -0.066587284 0.047352657 0.07636973 -0.09107592
-0.09481119 0.15162787 0.074797444 0.057801973 0.025690952 -0.1376806 0.029113907 0.11555596
-0.108794145 -0.012368303 0.07451292 -0.11723129 0.21031423 -0.075721085 0.05108529 0.12500347
-0.05516496 -0.13410833 -0.118179634 -0.031944487 0.1331818 -0.050845407 0.16277486 -0.17549862
-0.11641597 0.13771297 -0.029431177 -0.09978984 -0.09475275 0.09216609 -0.14138983 -0.0031713878
-0.018372573 -0.059612416 -0.06457828 -0.090518504 -0.12402123 -0.19662362 0.058600374 -0.041603535
0.023928182 -0.02841355 -0.023315316 -0.06891205 0.13728005 -0.06239485 0.1406163 0.17882498
0.02271104 0.12060978 -0.09565673 0.16887903 -0.072092116 0.09055866 0.071757 -0.11473166
-0.087381825 0.091673434 0.061563235 0.021867964 0.14987361 -0.060258742 0.17186745 -0.124399185
-0.1465206 -0.0319898 0.050808705 0.024483625 0.117642656 -0.04181587 -0.08651514 -0.0796747
-0.16801871 0.1428582 0.011512368 0.03168519 0.10815464 -0.1818779 -0.105185606 -0.054754745
-0.021950964 -0.105056666 0.08970977 0.0023918648 -0.12808052 0.13088533 -0.0006713912 0.09727658
0.09781328 0.17015365 0.09998314 0.20530936 -0.012056227 0.23340032 0.030268675 -0.044927947
-0.04506652 -0.064229704 0.19954444 -0.039680075 -0.10021733 0.20301466 -0.073819965 0.11097154
0.10105931 0.19400801 -0.14827098 -0.021810252 -0.09273303 0.13457592 -0.024795676 0.17963694
00000000: 75d1 3f3d b9af 8b3c 33d2 ec3c 8f53 103e
00000010: 7c93 263e d547 273e 6bed f13d 92b6 16bd
00000020: 8ea9 4d3e d166 a8bb f4ce b53d 3867 013e
00000030: dc74 c13d 3830 be3d 02e0 ea3d 8b2b b4bd
00000040: 5a9d 603d c69a 143e 0e85 0f3d 2699 a53c
00000050: 44ea 1b3e 7e66 303d b4c6 08be 6d71 e73a
00000060: 0f25 4f3d 5c60 97bd 5067 9e3d 98cd 073e
00000070: ed29 b23d 1143 b13d 0ded 603e 6bb7 8d3e
00000080: 681e 8abd 984c 28bd 1797 2b3e 5432 d23d
00000090: 639d ad3d 2cd3 483e c8a6 813d 2657 ea3c
000000a0: 25e7 73bb 42c3 4bbd fd54 663d fa4e 0dbe
000000b0: ea5e 88bd dcf4 413d bc67 9c3d 0386 babd
000000c0: 5f2c c2bd 5644 1b3e 672f 993d c3c1 6c3d
000000d0: d575 d23c 25fc 0cbe 4a80 ee3c 9aa8 ec3d
000000e0: 77cf debd 6ca4 4abc 3b9a 983d f516 f0bd
000000f0: 9d5c 573e a813 9bbd cf3e 513d e900 003e
00000100: a7f4 61bd b253 09be 2a08 f2bd 39d8 02bd
00000110: cf60 083e 4643 50bd 74ae 263e e9b5 33be
00000120: 7f6b eebd a104 0d3e a719 f1bc 9e5e ccbd
00000130: bb0d c2bd 93c1 bc3d 7fc8 10be 0fd7 4fbb
00000140: 1482 96bc 262c 74bd 9e41 84bd c461 b9bd
00000150: d8fe fdbd b457 49be f206 703d 7868 2abd
00000160: 0905 c43c 89c3 e8bc c3ff bebc c321 8dbd
00000170: 2493 0c3e be91 7fbd b8fd 0f3e e51d 373e
00000180: 810c ba3c 4302 f73d ade7 c3bd a0ee 2c3e
00000190: 08a5 93bd d276 b93d 56f5 923d 6ff8 eabd
000001a0: 3ef5 b2bd 48bf bb3d bb29 7c3d 7224 b33c
000001b0: 7878 193e dfd1 76bd 05fe 2f3e 00c5 febd
000001c0: 7f09 16be bd07 03bd ca1c 503d e291 c83c
000001d0: a2ee f03d 1e47 2bbd da2e b1bd 7d2c a3bd
000001e0: 190d 2cbe 6c49 123e 5f9e 3c3c 54c8 013d
000001f0: 2e80 dd3d 333e 3abe 8d6b d7bd 8346 60bd
00000200: 82d2 b3bc f327 d7bd c2b9 b73d d5c0 1c3b
00000210: 8a27 03be ce06 063e 4d00 30ba f238 c73d
00000220: 5452 c83d c23c 2e3e f6c3 cc3d 9e3c 523e
00000230: 7b87 45bc 7e00 6f3e 03f6 f73c 5e06 38bd
00000240: ac97 38bd dd8a 83bd 6155 4c3e 9387 22bd
00000250: be3e cdbd 13e3 4f3e ec2e 97bd 0c45 e33d
00000260: 2ff8 ce3d 09aa 463e 59d4 17be 6aab b2bc
00000270: d1ea bdbd 45ce 093e 4d20 cbbc bff2 373e

model.rnn.bias_hh_l0 f4 [160]
0.038943436 -0.04478137 -0.030428017 0.17783122 0.009427386 0.18426552 0.14837338 -0.09136791
-0.102483064 0.085480385 -0.06990085 0.23632836 0.07872628 0.119181186 0.10364313 -0.08194006
-0.01758047 0.07976914 0.030361742 -0.053938616 0.17184928 0.23837502 -0.08083199 0.2098458
0.12205187 0.19423041 0.047378257 0.1330265 -0.03889001 0.13871409 0.13172734 0.14975815
-0.013388745 0.038355853 0.09057067 0.13619836 0.035714764 -0.058124263 -0.07600512 0.07018692
0.03371844 0.040107638 0.05683438 0.12147009 0.00032958668 -0.004569552 -0.13243759 -0.01814289
0.16755432 0.03676777 0.014435269 0.07040459 0.002649457 -0.11238 -0.16305171 -0.04046621
-0.09307757 -0.009000503 0.010094114 -0.11188558 0.12037501 -0.038725022 0.080471456 0.015272179
0.03635649 0.13803779 0.051466394 -0.18079893 -0.106741495 -0.18476915 0.18573667 0.075515546
0.03240525 0.08032264 0.0736592 0.030325906 0.11551788 -0.08602137 0.057419755 0.027596751
-0.017637625 -0.12328505 0.07425085 -0.07595021 0.010062452 -0.06437841 -0.06747009 0.026596654
0.09288402 -0.0425486 -0.12009937 0.049110264 0.13343757 0.00058986025 0.15848294 -0.031387713
0.22368957 -0.10759402 0.04093263 0.07369273 -0.021477973 -0.1596318 0.037438016 -0.13211685
-0.01873774 0.15810966 -0.052504428 0.03980682 0.020089682 0.006159005 -0.063780725 -0.07157257
-0.005593329 -0.11257843 -0.0071637644 0.07582766 -0.14701639 0.18141605 0.076414585 -0.061782286
-0.0093867 -0.03548088 -0.029529983 -0.024525035 0.1759155 -0.17192073 0.064928725 -0.011660485
0.075111985 0.039155513 0.052845933 -0.042008836 0.045818813 -0.11592764 0.0643804 0.1369755
0.049761444 0.10679583 0.08605783 0.2198895 -0.04429078 0.10276374 -0.05904338 0.090451695
0.044090107 0.06722795 0.17827305 0.11510662 -0.005711133 -0.033620536 -0.0026477487 0.24172114
0.06974229 0.18141808 0.09133314 -0.06061115 -0.10923506 0.14290027 0.026978238 -0.047961183
00000000: 2783 1f3d ab6c 37bd 2d44 f9bc 6319 363e
00000010: 5375 1a3c 1ab0 3c3e 31ef 173e 191f bbbd
00000020: a4e2 d1bd 5710 af3d 2d28 8fbd 1000 723e
00000030: 3e3b a13d 4415 f43d d942 d43d 31d0 a7bd
00000040: eb04 90bc 015e a33d 30b9 f83c bdee 5cbd
00000050: 42f9 2f3e 9518 743e 3e8b a5bd d1e1 563e
00000060: 55f6 f93d 56e4 463e b40f 423d 1938 083e
00000070: 224b 1fbd 110b 0e3e 88e3 063e 335a 193e
00000080: 775c 5bbc 071b 1d3d 1e7d b93d 9577 0b3e
00000090: a549 123d b513 6ebd 93a8 9bbd 29be 8f3d
000000a0: 591c 0a3d e847 243d 2bcb 683d 4fc5 f83d
000000b0: 60cc ac39 2ebc 95bb b89d 07be 66a0 94bc
000000c0: 5c93 2b3e cd99 163d e881 6c3c 4830 903d
000000d0: 83a2 2d3b 7c27 e6bd 07f7 26be e6bf 25bd
000000e0: 749f bebd d976 13bc c861 253c 4424 e5bd
000000f0: 2c87 f63d 219e 1ebd 38ce a43d 2938 7a3c
00000100: 8bea 143d c759 0d3e 6dce 523d 5b23 39be
00000110: 499b dabd 2034 3dbe c131 3e3e e5a7 9a3d
00000120: 5ebb 043d 3280 a43d a2da 963d 096e f83c
00000130: a394 ec3d f92b b0bd fa30 6b3d 9512 e23c
00000140: c87c 90bc df7c fcbd d410 983d c98b 9bbd
00000150: fcdc 243c d4d8 83bd c22d 8abd 3ae1 d93c
00000160: fa39 be3d 7147 2ebd a9f6 f5bd d827 493d
00000170: dca3 083e daa0 1a3a 5a49 223e 6790 00bd
00000180: e10e 653e 415a dcbd f9a8 273d 37ec 963d
00000190: 93f2 afbc 8576 23be 9b58 193d a449 07be
000001a0: e47f 99bc 80e7 213e e20e 57bd 7a0c 233d
000001b0: 1e93 a43c 7bd1 c93b 789f 82bd a494 92bd
000001c0: 3f48 b7bb 858f e6bd 03be eabb 884b 9b3d
000001d0: 778b 16be 21c5 393e 407f 9c3d 6c0f 7dbd
000001e0: acca 19bc 6654 11bd dde8 f1bc bae8 c8bc
000001f0: 3123 343e fd0b 30be 5af9 843d 9e0b 3fbc
00000200: 50d4 993d 8861 203d fa74 583d 7511 2cbd
00000210: 82ac 3b3d 786b edbd dfd9 833d 4e43 0c3e
00000220: a8d2 4b3d c6b7 da3d 163f b03d b72a 613e
00000230: 406a 35bd cc75 d23d 79d7 71bd bd3e b93d
00000240: d497 343d cfae 893d 368d 363e 05bd eb3d
00000250: 7524 bbbb b0b5 09bd da85 2dbb bf85 773e
00000260: 0cd5 8e3d a9c5 393e df0c bb3d 6643 78bd
00000270: a2b6 dfbd 7354 123e 7701 dd3c f272 44bd

model.rnn.weight_ih_l1 f4 [160, 40]
-0.023989521 0.046803318 -0.018791793 -0.043998864 0.08106388 -0.01135179 0.11441914 -0.06970416
0.060349636 -0.0046852767 0.045079064 0.111753054 -0.1454248 -0.065263614 0.005897425 0.0023415664
0.07849572 0.1110032 -0.14003953 0.058334574 0.04643359 -0.12036324 -0.015922328 0.06367384
0.078439355 0.13524912 0.25881538 0.26645723 0.07120796 -0.012870248 -0.015115947 0.034314692
-0.13126265 0.04933804 0.13980503 0.15057498 -0.06778513 0.052861955 -0.09235586 -0.049361642
0.049027544 0.060916144 -0.1394123 -0.13594416 -0.087763675 -0.14223914 -0.034901153 0.16408227
-0.08494266 0.13337532 -0.0017772903 0.009093841 -0.11068703 0.041073043 0.07349496 0.08077764
0.03131421 0.02855659 0.02374497 -0.1697922 0.07397138 0.21573146 0.16993365 0.09897297
-0.16541344 -0.105207 -0.3546349 -0.09523017 -0.18041953 -0.17589697 0.10299222 0.19448747
-0.111994535 -0.10501324 -0.06310108 -0.10251055 -0.1191052 0.098974854 0.06496199 0.08133666
0.08096557 0.012318727 -0.110550985 0.008348203 0.15332806 -0.020707494 -0.029529821 0.14537263
-0.11324672 0.18899904 0.0033640927 -0.20276399 0.12107584 -0.110154174 0.009221882 0.04465458
-0.076992705 -0.05682166 -0.14106081 0.067422956 -0.05195237 0.12635367 0.11656404 0.07542083
0.031037152 -0.0014031165 -0.013538571 0.11897978 -0.030845746 0.15520324 -0.09218416 -0.014739844
0.017455397 -0.17968294 0.1255199 0.1994456 -0.10671459 -0.16666228 -0.14515392 0.031854067
-0.0958628 0.04608186 -0.10809766 -0.061207715 -0.21768075 -0.08760546 0.11011025 0.14140494
-0.12116277 0.076258 0.14215772 -0.20905498 -0.12903804 0.07970528 -0.13422273 -0.07759402
-0.017611673 0.111239746 0.2231528 0.033799 0.05869845 0.2949855 -0.02403152 0.11122384
0.03674415 -0.14747818 -0.14139195 -0.20276889 0.015347107 -0.16083771 0.034655865 0.1974964
0.1536467 0.121552646 0.17443883 -0.1490423 -0.09671624 0.015445891 0.11532359 -0.10846075
-0.124127775 0.029734593 -0.09563759 0.18782103 -0.16283055 -0.24983533 -0.19539377 0.076337755
-0.027459867 -0.0522805 -0.17982629 -0.22955373 0.11387219 -0.104020886 0.07339151 -0.14675719
-0.08160165 0.09739571 0.065534525 -0.16407399 -0.025648797 0.10799422 -0.017121179 -0.014072515
-0.023972401 0.16662027 -0.31488672 -0.12355836 -0.084933296 0.04644939 0.10429916 -0.04471533
0.06400471 -0.18433693 -0.10113054 0.029642424 0.11537962 -0.15703858 -0.08050545 -0.14472723
-0.1505362 -0.08833475 -0.18197994 0.20572257 -0.1761745 -0.20621543 -0.0991361 0.05266809
-0.28803453 -0.06947117 -0.062282626 -0.23302153 0.045151312 0.21122389 0.13560267 -0.23938294
-0.20423251 0.22766545 0.10813489 -0.06285085 0.290793 0.03199571 0.34293124 -0.21739206
-0.10575633 0.07121724 0.218083 0.17022812 -0.046890803 -0.110171795 -0.029054366 -0.3359502
0.06796758 -0.12244883 0.059741873 0.18484958 0.14479561 -0.1253427 0.107700266 -0.1711778
0.12421741 -0.16742201 0.062915884 0.027093835 -0.07349606 -0.045644816 0.13779758 0.03093168
-0.16340272 -0.020192517 -0.21731146 -0.15123583 0.05069944 0.14753062 -0.11013448 -0.2014951
00000000: ac85 c4bc d6b4 3f3d 3ff1 99bc 2738 34bd
00000010: d204 a63d dcfc 39bc 9554 ea3d 0ec1 8ebd
00000020: 2e31 773d f386 99bb d3a4 383d c9de e43d
00000030: 3dea 14be eea8 85bd 303f c13b f774 193b
00000040: 5dc2 a03d a555 e33d 8666 0fbe 3cf0 6e3d
00000050: 2631 3e3d 0181 f6bd 8b6f 82bc 6e67 823d
00000060: d0a4 a03d bf7e 0a3e 7383 843e 156d 883e
00000070: 7bd5 913d bcdd 52bc e1a8 77bc 908d 0c3d
00000080: b769 06be af16 4a3d 0d29 0f3e 5430 1a3e
00000090: eed2 8abd c785 583d 1225 bdbd 6f2f 4abd
000000a0: 1bd1 483d 3583 793d 19c2 0ebe f234 0bbe
000000b0: 71bd b3bd 23a7 11be 83f4 0ebd 2f05 283e
000000c0: 6bf6 adbd 8a93 083e f7f3 e8ba 55fe 143c
000000d0: e2af e2bd 353c 283d 8784 963d bf6e a53d
000000e0: 5443 003d 83ef e93c d084 c23c 02de 2dbe
000000f0: 4f7e 973d b5e8 5c3e 1603 2e3e 57b2 ca3d
00000100: 2462 29be c576 d7bd b592 b5be 0908 c3bd
00000110: e6bf 38be 561e 34be 96ed d23d b927 473e
00000120: 645d e5bd 2e11 d7bd 243b 81bd 0df1 d1bd
00000130: 6ded f3bd 54b3 ca3d cb0a 853d d693 a63d
00000140: 47d1 a53d 7cd4 493c 8e68 e2bd e7c6 083c
00000150: 0802 1d3e c3a2 a9bc 86e8 f1bc 90dc 143e
00000160: e5ed e7bd f788 413e 1c78 5c3b 5da1 4fbe
00000170: 9cf6 f73d 8398 e1bd 6017 173c b9e7 363d
00000180: 5aae 9dbd d4bd 68bd 3f72 10be 0c15 8a3d
00000190: 02cc 54bd db62 013e 21b9 ee3d 3c76 9a3d
000001a0: a041 fe3c c7e8 b7ba e2d0 5dbc acab f33d
000001b0: 38b0 fcbc 99ed 1e3e 0dcb bcbd 637f 71bc
000001c0: 9ffe 8e3c cefe 37be 4a88 003e 783b 4c3e
000001d0: 2e8d dabd 84a9 2abe 3ba3 14be 6979 023d
000001e0: b753 c4bd 55c0 3c3d 4e62 ddbd f1b4 7abd
000001f0: b4e7 5ebe 7e6a b3bd 7c81 e13d 75cc 103e
00000200: 3024 f8bd 282d 9c3d cb91 113e 8212 56be
00000210: 8c22 04be 863c a33d af71 09be 9de9 9ebd
00000220: 5b46 90bc aad1 e33d 2b82 643e d270 0a3d
00000230: c96d 703d 5708 973e c0dd c4bc 53c9 e33d
00000240: 0981 163d 8504 17be 0dc9 10be a6a2 4fbe
00000250: 6f72 7b3c a4b2 24be 4ff3 0d3d 7f3c 4a3e
00000260: 8f55 1d3e 98f0 f83d 18a0 323e 8b9e 18be
00000270: 2a13 c6bd c310 7d3c c62e ec3d ab20 debd
00000280: b436 febd f695 f33c a4dd c3bd 2854 403e
00000290: 0dbd 26be d5d4 7fbe 4e15 48be f856 9c3d
000002a0: 84f3 e0bc 1424 56bd 6224 38be 2210 6bbe
000002b0: d335 e93d e708 d5bd 4a4e 963d 8447 16be
000002c0: c41e a7bd 6777 c73d f736 863d 0303 28be
000002d0: 6d1d d2bc 132c dd3d b741 8cbc 6890 66bc
000002e0: c561 c4bc 819e 2a3e d538 a1be 2a0c fdbd
000002f0: 82f1 adbd b741 3e3d cc9a d53d 6c27 37bd
00000300: e714 833d d2c2 3cbe 871d cfbd abd4 f23c
00000310: 264c ec3d b9ce 20be 0be0 a4bd 6033 14be
00000320: 2926 1abe d9e8 b4bd f358 3abe f0a8 523e
00000330: 1767 34be 232a 53be de07 cbbd 7fba 573d
00000340: 4379 93be e746 8ebd 111c 7fbd 329d 6ebe
00000350: 95f0 383d 134b 583e 6ddb 0a3e cd20 75be
00000360: 5422 51be 2221 693e d375 dd3d f2b7 80bd
00000370: d2e2 943e ef0d 033d af94 af3e 069c 5ebe
00000380: c696 d8bd 58da 913d 2651 5f3e 4850 2e3e
00000390: 9210 40bd c0a1 e1bd 6c03 eebc aa01 acbe
000003a0: 9632 8b3d 74c6 fabd e5b3 743d 3549 3d3e
000003b0: 4d45 143e d659 00be f591 dc3d 3c49 2fbe
000003c0: b365 fe3d ad70 2bbe 0bda 803d e4f3 dd3c
000003d0: 1a85 96bd 0ff6 3abd cf1a 0d3e 6f64 fd3c
000003e0: 0b53 27be c76a a5bc e586 5ebe 91dd 1abe
000003f0: 37aa 4f3d 4412 173e 308e e1bd bb54 4ebe

model.rnn.weight_hh_l1 f4 [160, 40]
0.13311236 -0.08205345 0.100181185 -0.063389175 -0.0037060552 -0.06304815 -0.041652307 0.08977885
-0.01856631 0.11547078 -0.034504753 -0.15805876 -0.15960564 0.06293109 0.0138242105 0.13329057
0.13106441 0.018926572 0.098577775 0.012705493 -0.111149274 -0.021825809 0.008360201 0.00977681
0.018566689 -0.12988885 -0.11054974 0.1422142 -0.15873218 -0.054386865 -0.04285306 0.04961098
-0.14780383 -0.07378583 -0.05067377 0.10707205 0.13776162 -0.16411215 0.13837163 0.0011191604
0.003988512 0.0438784 -0.10375399 -0.18031248 0.13789535 0.0013738697 -0.03638505 -0.03531165
-0.13413906 0.021675816 0.14672557 -0.1666389 0.040929597 0.04178121 -0.17690963 -0.078383
-0.16059846 0.02705722 0.13589752 -0.18496324 -0.16090363 0.09347577 -0.032167785 0.031480424
-0.13188604 0.090848364 0.058267366 -0.17119753 0.094715424 0.059447076 -0.055836115 0.09798836
-0.034195747 -0.11283412 -0.0168432 -0.03738462 0.032856986 0.18629442 0.06025233 0.023975642
0.10752624 0.0439223 -0.15391748 0.026765496 0.07862698 -0.11823753 0.07018393 -0.07842654
0.017981676 0.086405925 0.18138026 0.050979592 0.014515309 -0.017229619 0.15298288 0.032877605
-0.12079791 -0.104698844 -0.025491714 0.087331034 -0.0037707458 -0.03106636 -0.1738668 0.09087294
0.09309748 -0.015344944 -0.08567691 0.070488654 -0.08042875 -0.029874766 0.017435119 -0.06754452
0.19964658 0.095898256 -0.07321227 -0.05658112 0.032623544 -0.0936264 -0.065850645 -0.064856745
0.082650654 -0.17335495 0.11621203 -0.12628143 0.07008521 0.113282055 0.034195352 -0.047315706
0.007852291 -0.07387642 -0.15634122 -0.20014405 0.12058036 -0.08399414 0.040872768 -0.06105728
-0.11674691 -0.12582023 0.011872448 -0.11826409 0.050093077 -0.017507996 -0.034950886 0.06286113
0.04141561 -0.05344886 -0.042488728 -0.12002405 -0.16030213 0.1118972 0.1322464 0.031584483
-0.10039809 -0.11058242 -0.056252692 0.047642354 0.081504956 0.039136864 0.13540973 0.11848184
0.12814297 0.006255447 0.03676295 0.06289544 0.13110198 0.092172496 0.06305477 -0.018221077
-0.17567077 0.1545254 0.20785819 0.0051788557 -0.050912123 -0.013879524 -0.069161735 -0.19644298
-0.13353771 -0.04082243 -0.17127183 -0.16665335 -0.107395194 0.16943961 -0.014396724 0.12018837
0.033312578 0.114860415 0.23669894 -0.21798734 -0.13951698 0.016513694 -0.03202292 -0.022857916
0.1668229 0.037016198 0.17718087 0.19253723 -0.09758577 0.04408661 0.065406606 0.079031706
-0.08728701 0.05427571 0.029624071 0.009854503 -0.015608047 0.027707672 0.087624006 0.050551504
0.028642926 0.19317675 0.034413997 -0.13418323 0.12678461 0.17854436 -0.041241996 -0.10995197
-0.07990569 0.06624036 -0.07636624 -0.10866698 0.0026824118 0.07479971 -0.05777906 -0.08149425
-0.063576706 -0.008138506 0.11100296 0.07848185 -0.022462547 -0.08575896 0.060307566 0.10815486
-0.050275307 -0.12001714 0.1470215 -0.010357259 -0.11803071 -0.11252366 -0.034165833 0.052445758
0.094317585 0.08157762 0.0793349 -0.23506929 0.13128869 -0.134115 0.32785025 0.077845484
-0.19861166 -0.09012552 0.12759498 -0.1250285 0.19644862 -0.026592126 -0.13603371 -0.13350551
00000000: 9b4e 083e a40b a8bd cb2b cd3d 2fd2 81bd
00000010: 4ae1 72bb 631f 81bd 9c9b 2abd f9dd b73d
00000020: 6018 98bc f27b ec3d db54 0dbd 28da 21be
00000030: a96f 23be 04e2 803d f17e 623c 537d 083e
00000040: c035 063e e60b 9b3c 25e3 c93d b32a 503c
00000050: 3ba2 e3bd 0acc b2bc 39f9 083c ea2e 203c
00000060: 2b19 983c 9501 05be e767 e2bd 99a0 113e
00000070: b08a 22be c3c4 5ebd b186 2fbd e234 4b3d
00000080: e359 17be 061d 97bd 4d8f 4fbd 9748 db3d
00000090: 6211 0d3e 040d 28be 4bb1 0d3e cbb0 923a
000000a0: 10b2 823b d6b9 333d f97c d4bd d6a3 38be
000000b0: 7034 0d3e 6b13 b43a 7d08 15bd f3a2 10bd
000000c0: c05b 09be 7b91 b13c 3a3f 163e 63a3 2abe
000000d0: cba5 273d c622 2b3d cc27 35be 4487 a0bd
000000e0: ec73 24be 1aa7 dd3c b828 0b3e 0167 3dbe
000000f0: ecc3 24be 3970 bf3d 5ec2 03bd 9ef1 003d
00000100: 220d 07be b50e ba3d c3a9 6e3d 684e 2fbe
00000110: 29fa c13d c77e 733d 69b4 64bd 1fae c83d
00000120: d710 0cbd 9315 e7bd c0fa 89bc 9e20 19bd
00000130: 0c95 063d f7c3 3e3e 26cb 763d 9168 c43c
00000140: b836 dc3d dfe7 333d 8b9c 1dbe 5043 db3c
00000150: 2f07 a13d 8526 f2bd 98bc 8f3d 189e a0bd
00000160: 4f4e 933c 97f5 b03d bfbb 393e facf 503d
00000170: 9ed1 6d3c 2125 8dbc 8ba7 1c3e abaa 063d
00000180: e564 f7bd 596c d6bd 00d4 d0bc 9dda b23d
00000190: 9e1e 77bb e17e febc 230a 32be 981b ba3d
000001a0: e4a9 be3d 5c69 7bbc 6077 afbd 5b5c 903d
000001b0: d4b7 a4bd edbb f4bc 18d4 8e3c c854 8abd
000001c0: 2770 4c3e 4e66 c43d 51f0 95bd 9bc1 67bd
000001d0: 44a0 053d 33bf bfbd b4dc 86bd 9dd3 84bd
000001e0: bf44 a93d f683 31be 9300 ee3d eb4f 01be
000001f0: d688 8f3d 6c00 e83d 6d10 0c3d 1dce 41bd
00000200: e5a6 003c 854c 97bd ea17 20be 90f2 4cbe
00000210: d6f2 f63d 1f05 acbd 346a 273d 3317 7abd
00000220: 0119 efbd 05d7 00be a884 423c 7134 f2bd
00000230: 662e 4d3d ee6c 8fbc a928 0fbd 56bd 803d
00000240: 6aa3 293d 31ed 5abd a908 2ebd 2bcf f5bd
00000250: 3e26 24be 5c2a e53d 9a6b 073e bb5e 013d
00000260: 849d cdbd 0979 e2bd 3969 66bd a124 433d
00000270: 12ec a63d fa4d 203d d9a8 0a3e 9ba6 f23d
00000280: e937 033e 7efa cc3b bf94 163d 53cf 803d
00000290: 993f 063e efc4 bc3d dc22 813d 5e44 95bc
000002a0: 0ae3 33be e83b 1e3e c7d8 543e 64b3 a93b
000002b0: 3b89 50bd f166 63bc aba4 8dbd 5928 49be
000002c0: 1cbe 08be 6c35 27bd e261 2fbe 2da7 2abe
000002d0: 03f2 dbbd 9481 2d3e 3de0 6bbc 5225 f63d
000002e0: c572 083d f03b eb3d 3561 723e 1338 5fbe
000002f0: 8add 0ebe ba47 873c 772a 03bd 8640 bbbc
00000300: 9fd3 2a3e 4c9e 173d e76e 353e 7b28 453e
00000310: 0cdb c7bd 2994 343d e6f3 853d 60db a13d
00000320: 88c3 b2bd 3550 5e3d 2eae f23c c874 213c
00000330: e5b8 7fbc 33fb e23c 3774 b33d 180f 4f3d
00000340: 92a4 ea3c 20d0 453e b1f5 0c3d 5467 09be
00000350: d3d3 013e 55d4 363e 5eed 28bd 802e e1bd
00000360: 98a5 a3bd 07a9 873d e765 9cbd cb8c debd
00000370: 67cb 2f3b 9730 993d bca9 6cbd 75e6 a6bd
00000380: 8134 82bd 5e57 05bc 8555 e33d 18bb a03d
00000390: 6003 b8bc 65a2 afbd 1105 773d 4c80 dd3d
000003a0: 7bed 4dbd 8ccb f5bd ce8c 163e 7eb1 29bc
000003b0: 16ba f1bd ce72 e6bd 79f1 0bbd 5dd1 563d
000003c0: 9429 c13d 2b12 a73d 567a a23d 01b6 70be
000003d0: 8b70 063e 7155 09be fddb a73e 746d 9f3d
000003e0: db60 4bbe bb93 b8bd 42a8 023e 7907 00be
000003f0: d429 493e bbd7 d9bc 6c4c 0bbe abb5 08be

model.rnn.bias_ih_l1 f4 [160]
0.049668524 0.0359223 -0.11866928 -0.015483942 0.023436435 0.034038994 0.09313533 -0.11169096
0.031178541 0.15971719 0.0890715 0.009913668 0.13095744 0.008680439 -0.056429975 -0.11164869
0.26607192 -0.042257495 0.18387711 0.03379025 0.12361954 0.07885229 -0.04421116 -0.045944758
0.09674105 0.0331953 0.13233347 0.043506928 0.11624873 0.051866014 0.12703583 0.074069604
0.0059772246 -0.04378527 -0.10834089 0.105805315 0.18460128 0.10067456 -0.056402132 0.13858189
-0.01943803 0.11984469 0.15270478 -0.112376906 -0.044158954 0.058458485 0.12388323 -0.1290221
-0.07232646 -0.016008418 0.19618244 0.104379594 -0.05176255 -0.08742648 0.10143267 -0.090270065
0.118546076 -0.024837736 -0.020201737 0.02356361 0.16556224 -0.14414187 0.10504579 0.023030763
-0.059298616 0.009661389 0.049592525 0.0047057923 0.0765992 0.12505744 0.050947484 0.092424005
0.04537208 -0.13886614 0.09201459 0.14654757 -0.050064877 -0.14249155 -0.10970336 -0.11171709
0.059046134 0.04317756 -0.13409936 -0.045626156 0.061901223 -0.14413983 0.16045448 0.002862687
0.15109944 0.15122995 0.123218685 0.06068764 0.07279731 -0.0066167647 0.06776715 -0.17248489
-0.05468833 0.006537198 -0.18325263 -0.12977107 -0.18328904 -0.1330297 0.080663644 0.070699245
-0.21938035 0.15918174 0.0016121744 0.02708822 0.13494344 0.06645613 0.20117845 0.059687156
-0.02820304 0.09145436 0.14497188 0.17315134 0.04773089 0.10229342 0.077288225 0.100451455
-0.08192276 0.117850184 0.0999853 -0.01107412 0.002810565 0.13586912 0.060555745 0.03388829
0.09083634 0.14086936 0.15446956 -0.11448801 -0.09967416 0.05820836 0.03316039 0.12573563
0.06656093 0.13686422 0.08639997 0.060519014 0.14861971 0.09067789 0.1712302 -0.07837714
0.17086016 -0.12405456 -0.035117343 0.079302706 -0.096225195 0.015569207 -0.018271469 -0.10937536
-0.0069093616 -0.092563204 0.015631346 0.04903681 -0.08147811 0.07304599 -0.023128407 -0.07127035
00000000: 3971 4b3d 4323 133d e108 f3bd 5cb0 7dbc
00000010: c4fd bf3c 796c 0b3d bcbd be3d 3bbe e4bd
00000020: 246a ff3c e78c 233e 1e6b b63d f06c 223c
00000030: b519 063e 6638 0e3c 1e23 67bd 12a8 e4bd
00000040: 943a 883e 3216 2dbd 484a 3c3e a567 0a3d
00000050: 3e2c fd3d 4f7d a13d c316 35bd 9230 3cbd
00000060: 2c20 c63d cbf7 073d 6d82 073e 5234 323d
00000070: d013 ee3d 7571 543d ae15 023e ceb1 973d
00000080: 98dc c33b 2f58 33bd d4e1 ddbd 75b0 d83d
00000090: 1e08 3d3e 772e ce3d ec05 67bd 69e8 0d3e
000000a0: 813c 9fbc 2271 f53d a45e 1c3e dd25 e6bd
000000b0: 05e0 34bd 2a72 6f3d 7eb6 fd3d 5f1e 04be
000000c0: e51f 94bd 1624 83bc 0de4 483e f8c4 d53d
000000d0: f804 54bd a80c b3bd efbb cf3d 83df b8bd
000000e0: 49c8 f23d 8278 cbbc 1d7e a5bc 7908 c13c
000000f0: 2689 293e ed99 13be 3f22 d73d 03ab bc3c
00000100: 1be3 72bd cd4a 1e3c 8821 4b3d 0c33 9a3b
00000110: 0be0 9c3d 0f0f 003e 4fae 503d cc48 bd3d
00000120: 13d8 393d ed32 0ebe 2572 bc3d 9110 163e
00000130: d410 4dbd 4ee9 11be 28ac e0bd eecb e4bd
00000140: 5cda 713d f4da 303d 5851 09be 7ee2 3abd
00000150: 238c 7d3d 6499 13be 2e4e 243e eb9b 3b3b
00000160: d0b9 1a3e 06dc 1a3e 145a fc3d 9a93 783d
00000170: c216 953d 72d1 d8bb 81c9 8a3d e19f 30be
00000180: df00 60bd fe35 d63b 94a6 3bbe b5e2 04be
00000190: 1fb0 3bbe f038 08be fb32 a53d c4ca 903d
000001a0: 3ea5 60be 8a00 233e 994f d33a 1de8 dd3c
000001b0: 9d2e 0a3e 271a 883d b901 4e3e 857a 743d
000001c0: 100a e7bc 6c4c bb3d 8273 143e 964e 313e
000001d0: 7781 433d 367f d13d 4a49 9e3d 7eb9 cd3d
000001e0: 1fc7 a7bd 705b f13d 18c5 cc3d 3a70 35bc
000001f0: 7531 383b 4621 0b3e 4d09 783d 73ce 0a3d
00000200: 6708 ba3d 0f40 103e 452d 1e3e b178 eabd
00000210: f721 ccbd e46b 6e3d 30d3 073d d7c0 003e
00000220: 1951 883d 2226 0c3e 78f2 b03d c9e2 773d
00000230: c42f 183e 54b5 b93d f856 2f3e 3284 a0bd
00000240: f7f5 2e3e 5110 febd 34d7 0fbd 7569 a23d
00000250: b711 c5bd fd15 7f3c 0cae 95bc 3000 e0bd
00000260: ed67 e2bb c791 bdbd 4f0d 803c d2da 483d
00000270: ffdd a6bd 2399 953d c977 bdbc 30f6 91bd

model.rnn.bias_hh_l1 f4 [160]
0.12334409 -0.14269136 -0.107655436 0.13062666 0.15157734 0.17496751 0.16502129 0.029367568
0.15995581 0.070483714 0.24612284 -0.047306076 -0.11430986 0.058340672 -0.0048184074 0.16160059
0.26547223 0.1667193 0.029764388 0.11162997 -0.08420128 0.16887593 -0.039040674 0.110231295
0.20716372 0.12255098 0.13271174 -0.11246325 0.110687345 0.13942109 0.1336764 -0.0887113
0.15124439 0.07227452 -0.103714466 0.20673645 0.1661105 0.18961672 -0.082584046 0.13139959
0.038600985 0.05038449 0.028040716 0.080168106 -0.15565865 0.1363633 -0.02912813 -0.009195301
0.15160042 0.17496009 0.13655719 0.13074242 -0.06813577 -0.081383385 -0.051383514 0.04686132
0.14925699 -0.050388236 0.06368791 0.05695405 0.105045825 -0.08197635 0.0273528 0.087437466
0.03479264 0.095192276 -0.053671353 0.051553525 0.004541827 -0.12054363 0.20984659 -0.065241985
-0.025532087 -0.008208047 0.062883765 0.13169609 -0.021496773 -0.13077202 0.16794787 0.057618048
-0.014553586 -0.11860692 0.020982487 -0.056792364 0.11914458 -0.10344478 -0.051207505 0.10265251
0.01876792 -0.05200847 0.11252214 -0.01277404 -0.04049566 0.11569522 -0.03950037 0.09822014
-0.12796733 0.20477864 -0.13402285 0.08646705 0.030618865 0.06075762 -0.15837105 -0.07074865
-0.14871514 0.06333212 0.06445891 -0.16625822 0.010652578 -0.16238572 0.14312056 -0.1218759
-0.047297295 0.09371871 0.09280642 0.083157144 -0.13494337 0.14218481 0.08949517 0.06521545
0.027892886 0.023067217 0.03654147 0.038683478 -0.03644848 0.10151378 0.20928013 -0.10210541
0.18334383 0.15420514 0.21035327 0.012965304 -0.101817034 -0.04043683 0.13678315 0.08657186
0.056750894 0.08983826 0.11655683 0.11755521 -0.07421606 -0.06124242 -0.0037379065 -0.027802136
0.20924883 0.036839392 -0.080992654 -0.10849446 0.06967402 0.10293437 0.089637 -0.08335039
0.060542822 0.07382761 -0.10629889 -0.0064966306 0.08616597 0.018010546 0.09981893 0.044746608
00000000: d49b fc3d af1d 12be 747a dcbd ffc2 053e
00000010: 1737 1b3e af2a 333e 57fb 283e 4194 f03c
00000020: 75cb 233e c459 903d a007 7c3e 04c4 41bd
00000030: 4a1b eabd a1f6 6e3d bbe3 9dbb a07a 253e
00000040: faeb 873e 77b8 2a3e 72d4 f33c 419e e43d
00000050: b871 acbd d0ed 2c3e 1de9 1fbd f2c0 e13d
00000060: ba22 543e 02fc fa3d 96e5 073e 2253 e6bd
00000070: 0cb0 e23d 67c4 0e3e 77e2 083e 45ae b5bd
00000080: cfdf 1a3e aa04 943d 4068 d4bd b8b2 533e
00000090: df18 2a3e e32a 423e d321 a9bd 9d8d 063e
000000a0: 111c 1e3d f85f 4e3d a5b5 e53c 2d2f a43d
000000b0: fb64 1fbe d2a2 0b3e 1e9e eebc e3a7 16bc
000000c0: 243d 1b3e bd28 333e a6d5 0b3e 57e1 053e
000000d0: c48a 8bbd 55ac a6bd 8577 52bd a8f1 3f3d
000000e0: d3d6 183e e563 4ebd cf6e 823d a648 693d
000000f0: 4422 d73d 37e3 a7bd fb12 e03c 6a12 b33d
00000100: ba82 0e3d 2bf4 c23d 7ed6 5bbd ca29 533d
00000110: 9bd3 943b 94df f6bd 06e2 563e 979d 85bd
00000120: ab28 d1bc 0b7b 06bc 34c9 803d 57db 063e
00000130: 001a b0bc 1ae9 05be 87fa 2b3e e700 6c3d
00000140: 2a72 6ebc 2fe8 f2bd 77e3 ab3c 1c9f 68bd
00000150: 1302 f43d dbda d3bd f6be 51bd 7b3b d23d
00000160: 2ebf 993c d506 55bd 0272 e63d 354a 51bc
00000170: c7de 25bd 9ef1 ec3d 24cb 21bd a427 c93d
00000180: de09 03be 7eb1 513e 493d 09be a315 b13d
00000190: 6ad4 fa3c fbdc 783d 052c 22be abe4 90bd
000001a0: c848 18be 45b4 813d 0803 843d 983f 2abe
000001b0: 2788 2e3c 7148 26be 328e 123e 129a f9bd
000001c0: cfba 41bd 98ef bf3d 4b11 be3d 4b4e aa3d
000001d0: 982e 0abe e598 113e 3e49 b73d ae8f 853d
000001e0: 9f7f e43c 76f7 bc3c 82ac 153d 9172 1e3d
000001f0: 004b 15bd 75e6 cf3d 884d 563e a41c d1bd
00000200: 7cbe 3b3e f4e7 1d3e d966 573e 6d6c 543c
00000210: 7385 d0bd 17a1 25bd e210 0c3e 964c b13d
00000220: a073 683d 1ffd b73d 59b5 ee3d c9c0 f03d
00000230: 97fe 97bd 55d9 7abd aaf7 74bb 4ec1 e3bc
00000240: 5345 563e e7e4 163d 7adf a5bd 5832 debd
00000250: 41b1 8e3d 41cf d23d 9a93 b73d 9cb3 aabd
00000260: c0fb 773d ee32 973d 3cb3 d9bd b0e1 d4bb
00000270: c977 b03d da8a 933c de6d cc3d 3848 373d

exp_avg f4 [1, 40]
-0.00019968092 -0.00019461803 0.00012493026 -7.336505e-05 -0.00054140284 0.00018517699 -0.001887307 -0.00056343136
0.0004748717 -0.0004731056 -5.6478442e-05 0.00031522047 7.287362e-05 5.931e-05 0.00038696293 -1.0963362e-05
0.00010986343 0.00017207875 0.00031057742 -9.864652e-06 1.2550402e-05 0.00018960923 0.00018220245 4.9574148e-05
0.00032861647 9.90037e-05 -5.8719612e-05 -6.401981e-06 -0.00025982969 -1.3109196e-05 -0.00034197635 2.0124338e-05
0.00012351654 -1.7992294e-05 -6.19437e-05 -0.00012925274 -2.2052493e-05 -0.00010727167 0.00030857822 -0.00063030457
00000000: 7061 51b9 6112 4cb9 b6ff 0239 90db 99b8
00000010: eeec 0dba 122c 4239 845f f7ba 3db3 13ba
00000020: 33f8 f839 290b f8b9 44e3 6cb8 2d44 a539
00000030: bad3 9838 a1c3 7838 49e1 ca39 48ef 37b7
00000040: 7b66 e638 0a70 3439 ffd4 a239 5c80 25b7
00000050: 918f 5237 d7d1 4639 990d 3f39 d6ed 4f38
00000060: 284a ac39 35a0 cf38 b449 76b8 99d0 d6b6
00000070: c039 88b9 91ef 5bb7 4a4b b3b9 b0d0 a837
00000080: 3884 0139 28ee 96b7 c5e7 81b8 0588 07b9
00000090: 5efd b8b7 0af7 e0b8 abc8 a139 063b 25ba

exp_avg_sq f4 [1, 40]
4.4055022e-07 4.851247e-07 1.3335023e-07 7.296199e-07 9.4671697e-07 2.812134e-06 1.7024307e-06 1.2808056e-06
1.1792637e-06 7.203135e-07 2.2468005e-06 6.238565e-07 1.070504e-06 1.9406782e-06 1.5986901e-06 1.0084817e-06
2.099121e-06 1.0646224e-06 3.1317147e-06 6.312278e-07 2.396459e-07 6.982727e-07 8.6442697e-07 7.762457e-07
1.5916838e-06 6.717105e-07 6.682756e-07 1.2845574e-06 1.0464163e-06 4.528354e-07 1.6333362e-06 4.8889797e-07
5.064883e-07 1.9197604e-07 7.340356e-07 2.5419733e-06 9.889799e-07 1.17687414e-07 4.88131e-07 2.8600377e-07
00000000: c384 ec34 8439 0235 082f 0f34 19db 4335
00000010: e521 7e35 18b8 3c36 137f e435 25e8 ab35
00000020: 3147 9e35 915b 4135 bdc7 1636 1877 2735
00000030: 3dae 8f35 993c 0236 9392 d635 2b5b 8735
00000040: a0de 0c36 26e4 8e35 732a 5236 a571 2935
00000050: afa8 8034 ef70 3b35 f80a 6835 335f 5035
00000060: d7a1 d535 984f 3435 8d63 3335 0e69 ac35
00000070: 9772 8c35 391d f334 0139 db35 d03c 0335
00000080: 9cf5 0735 f921 4e34 8b0a 4535 c596 2a36
00000090: 17bd 8435 57bb fc33 1b08 0335 0f8c 9934

exp_avg f4 [1, 40]
-0.0075748465 -0.011611574 0.0018069976 0.00715227 -0.00046284887 0.016906815 -0.026515143 -0.003942993
0.0077349357 -0.0052353526 -0.014008431 -0.0017308218 -0.017400067 -0.014039318 -0.0013257713 0.006043141
0.013749262 -0.006548937 0.014491372 0.010900518 0.0070815063 -0.0007480485 0.00873321 -0.008964479
0.015604484 -0.004143542 -0.0120183835 0.008037088 0.0022758378 0.011262999 -0.017395606 -0.0065737967
-0.010940958 0.008091419 -0.006740248 -0.01377754 -0.0013845495 -0.012180956 0.012678425 0.013250355
00000000: 6b36 f8bb 793e 3ebc c7d8 ec3a 975d ea3b
00000010: 86aa f2b9 2980 8a3c 4936 d9bc 3934 81bb
00000020: 5875 fd3b 528d abbb 9e83 65bc bedc e2ba
00000030: 968a 8ebc 2b05 66bc 81c5 adba 8a05 c63b
00000040: 9644 613c 7798 d6bb 386d 6d3c 1698 323c
00000050: fb0b e83b af18 44ba bd15 0f3c c0df 12bc
00000060: f3a9 7f3c 8dc6 87bb c1e8 44bc fead 033c
00000070: 3926 153b 7188 383c 3b81 8ebc 0169 d7bb
00000080: b441 33bc df91 043c 4cdd dcbb 31bb 61bc
00000090: c679 b5ba a292 47bc 2bb9 4f3c 0418 593c

exp_avg_sq f4 [1, 40]
0.060872056 0.059334673 0.018779105 0.0406947 0.1404014 0.3678683 0.095293716 0.08378295
0.07553652 0.06699724 0.26078892 0.005455936 0.12718499 0.1968406 0.055222906 0.04073828
0.2632273 0.066718414 0.32958975 0.09639521 0.010787852 0.011332206 0.057767794 0.09459275
0.25796062 0.021291418 0.11856668 0.04108418 0.100444704 0.055857696 0.22669338 0.027585156
0.05315304 0.027696516 0.0026983165 0.25976577 0.038144298 0.01163418 0.103135504 0.014270631
00000000: fa54 793d ea08 733d a3d6 993c 7caf 263d
00000010: 62c5 0f3e 3c59 bc3e 5a29 c33d 6596 ab3d
00000020: e4b2 9a3d d935 893d 2086 853e b5c7 b23b
00000030: c83c 023e 9590 493e 6a31 623d 2fdd 263d
00000040: bbc5 863e aaa3 883d fdbf a83e da6a c53d
00000050: 88bf 303c b8aa 393c ec9d 6c3d d8b9 c13d
00000060: 6a13 843e 576b ae3c 16d3 f23d e347 283d
00000070: f4b5 cd3d 0acb 643d 4f22 683e 44fa e13c
00000080: 01b7 593d cee3 e23c 3dd6 303b 0500 853e
00000090: 323d 1c3d 4a9d 3e3c b538 d33d 5dcf 693c

exp_avg f4 [1, 40]
0.0033482234 0.0018988912 -0.001456401 -0.0013353002 0.005819657 -0.006944889 0.004145716 0.0033238055
-0.0025905336 0.008238945 0.0050433152 -0.0014633546 0.0022032734 0.00051328534 -0.0013656964 -0.0012809348
-0.005045557 0.0021491237 -0.006909927 -0.0031262676 -0.00071278936 -0.0015740138 -0.001797194 0.001756129
-0.004677436 0.0006365091 0.0034241567 -0.0010825414 0.0020810368 -0.00030624363 0.0054927547 0.0010432448
0.00054958067 -0.0015303309 0.0022476572 0.0053452896 0.003863343 -0.00020690853 -0.003560714 -0.00023575734
00000000: de6d 5b3b 37e4 f83a b5e4 beba 3d05 afba
00000010: d2b2 be3b f491 e3bb c9d8 873b 34d4 593b
00000020: f1c5 29bb a4fc 063c 6542 a53b 08ce bfba
00000030: cb64 103b ff8d 063a 2b01 b3ba 0ae5 a7ba
00000040: 3355 a5bb 50d8 0c3b ab6c e2bb 11e2 4cbb
00000050: 7cda 3aba 244f ceba d38f ebba e92d e63a
00000060: 2d45 99bb 67db 263a d167 603b 10e4 8dba
00000070: 0162 083b 538f a0b9 91fc b33b 7dbd 883a
00000080: bc11 103a 6295 c8ba 6e4d 133b 8a27 af3b
00000090: 2430 7d3b 96f5 58b9 de5a 69bb a135 77b9

exp_avg_sq f4 [1, 40]
9.2048496e-05 9.814221e-05 4.0382532e-05 0.0002097221 0.00020940695 0.00064327184 0.00010413971 0.00015564942
0.00018296242 0.00015596994 0.0005474467 0.00016436202 0.0002287967 0.00047498694 0.00026268407 0.00030411288
0.0004713296 0.00029164524 0.0007808454 0.00014305595 9.0517744e-05 0.0002247604 0.00021381631 0.00020252458
0.00033868465 0.00022096722 0.00014278336 0.00040690173 0.00026141168 0.00011863414 0.00031648052 0.0001278938
0.00013303586 4.4845616e-05 0.0001619354 0.0006543618 0.00015040676 2.2009763e-05 0.000108541615 8.50669e-05
00000000: 290a c138 b3d1 cd38 6a60 2938 d9e8 5b39
00000010: 4094 5b39 3ea1 283a 9565 da38 d335 2339
00000020: 9ad9 3f39 dd8b 2339 8782 0f3a 9858 2c39
00000030: 26e9 6f39 ab07 f939 dcb8 8939 5771 9f39
00000040: ca1c f739 f6e7 9839 a6b1 4c3a 4a01 1639
00000050: 58d4 bd38 a9ad 6b39 e133 6039 c75c 5439
00000060: 7c91 b139 70b3 6739 1eb8 1539 6d55 d539
00000070: 150e 8939 38cb f838 4ced a539 3b1b 0639
00000080: 8b7f 0b39 9d18 3c38 34cd 2939 7a89 2b3a
00000090: 82b6 1d39 9ba1 b837 d6a0 e338 f265 b238
