lightning_logs/version_11/checkpoints/epoch=49-step=2500.ckpt (torch, 330670 bytes, 33 tensors)

model.param_proj.proj.0.weight f4 [1, 40]
00000000: 9851 293e 592c 58bf 7e0a fc3d 410d 28bd
00000010: 5c2b 473d 3a6f 24be effc 62be 425f 6f3e
00000020: 3f13 5c3c 549e 8d3e f269 57bc 46c0 993c
00000030: 4b18 14be 633f 373d 80e3 913e b201 e7be
00000040: 614e e63d eda0 3f3f d26b 7d3d c3e5 a43c
00000050: 88fa 383d 04ab 2b3d aea5 283e 114d e43d
00000060: 11ab 6abc 5cc7 37be 0d5d 31be e271 29bf
00000070: eb16 2b3e 8f69 023f 9056 39bd 36ba 4fbe
00000080: d201 d03e 7114 253e 42de 9cbd 6207 99bf
00000090: f1a6 14bd 12e6 02bd 65a2 2cbf 7b38 4ebf
0.16535032 -0.8444267 0.12306689 -0.041028265 0.048625335 -0.16058055 -0.22166799 0.23376182
0.013432323 0.27659857 -0.013147818 0.018768441 -0.14462392 0.044738185 0.2849388 -0.4511848
0.11245418 0.7485493 0.061870404 0.02012909 0.0451608 0.04191114 0.16469452 0.11147512
-0.014323012 -0.17947143 -0.17320652 -0.66189396 0.16707961 0.5094232 -0.045248568 -0.20285878
0.4062639 0.16121079 -0.0765958 -1.1955378 -0.03629202 -0.031957693 -0.67435294 -0.8055493

model.param_proj.proj.1.weight f4 [1, 40]
00000000: 5fe6 4bbe 550a 903c 2b03 2bbe 4692 243c
00000010: f769 92be 9716 e13d 5220 31be 7b35 91bd
00000020: 6efd b5bd 2edc cb3d 4ddc 2b3c ff52 403e
00000030: 8f5e 8a3d 1142 87be 53c5 d0bd a40e 53bd
00000040: f3c1 f9bd 6b3a c53d dbfb 453e 8ea2 5b3e
00000050: 7cc1 3b3e eaf5 e5bd 8f12 b63d 99fd 1a3e
00000060: bde3 4abe a586 313e 5201 9bbd acea 7e3e
00000070: a4d2 203e 8e92 02bd eec1 32be 6d61 b73d
00000080: 73c2 083e 88b0 313e 0329 45be 1c83 1f3e
00000090: 0610 62bc b672 8ebd cb32 883d dd96 12be
-0.19912098 0.017583052 -0.16700427 0.01004464 -0.2859647 0.10990637 -0.17297485 -0.07090279
-0.088862285 0.09954105 0.0104895355 0.1878166 0.06756317 -0.26417592 -0.101938866 -0.051527634
-0.12195196 0.09630283 0.19334356 0.21448728 0.18335527 -0.11228545 0.088902585 0.15135802
-0.19813438 0.17336519 -0.07568611 0.24894208 0.15705353 -0.031878047 -0.17456791 0.08954129
0.13355426 0.17352498 -0.19253926 0.15577358 -0.013797766 -0.06955473 0.06650313 -0.14315362

model.param_proj.proj.2.weight f4 [1, 40]
00000000: cb5b 173e 4573 113f 105e 453e 2f76 85be
00000010: 7a57 4dbe a648 683e c930 133d 96e6 d5be
00000020: 7de8 a5be b34a 77be 2800 ce3e c817 d2bc
00000030: c506 9abd b4d2 69bd a8ec b8bd 38a4 0bbe
00000040: b0e0 973d 4823 afbe ce80 4d3d bee9 a73d
00000050: ed15 ccbd b807 253e c0d8 693d 5b69 1b3e
00000060: c783 153e a2a4 c3bc cd5f 8b3e c9e8 313e
00000070: 785b 0a3e c64e 6fbe f55a 74be 0efc 353e
00000080: 4a21 d7bc 187f 81be 8114 843d 16c7 e23e
00000090: 318d 8d3e e02e 643e bd37 933e 38d1 873e
0.1478111 0.5681651 0.19274163 -0.2606673 -0.20052901 0.22683963 0.035935197 -0.41777486
-0.32403937 -0.24149589 0.40234494 -0.025646105 -0.075208224 -0.057085708 -0.090295136 -0.13636863
0.074159026 -0.34206605 0.050171666 0.0819888 -0.099651195 0.16116226 0.057091475 0.15176909
0.1460105 -0.023882214 0.27221528 0.17373957 0.13511455 -0.23369893 -0.23862822 0.17771932
-0.02626099 -0.25292277 0.06449223 0.44292516 0.27646783 0.22283506 0.28753462 0.2652681

model.rnn.weight_ih_l0 f4 [160, 37]
00000000: 3bd5 953e 6e59 613e 0e32 993e 2852 a73e
00000010: 94d6 6f3e 5ca1 963e 5175 b43e 53d0 0c3e
00000020: be64 9f3e ec65 753e 98b1 4c3d 0041 163e
00000030: 9c15 883e 29c3 8d3e 85fe db3d cc7e fb3d
00000040: a41c 243e f875 473e 60f8 543e b4e6 523e
00000050: b523 9c3e f455 843e e69b c63d 3aea c23d
00000060: f2a6 433e 4343 113e 6447 62bd c40a 01bd
00000070: ccf9 d33d abe8 a13d 73e9 dcbe 212b 35bb
00000080: cce2 d43e 2a1c a7be 8872 b2bd cb9b 36be
00000090: f0ca 8f3e c098 ba3d a30d 963d f330 2d3d
000000a0: 7e12 8a3e 1a24 513d 77d3 4c3d be1c 633d
000000b0: c79f 1a3e 575b 033e 49e1 01be a708 5d3e
000000c0: f60d d9bd c5df 1fbc 81ab 4e3e 850f f73d
000000d0: 6be2 533e 56a8 073e d1b7 2a3e 4254 933c
000000e0: 349c 3b3e b37b 88be f11c aa3d 8db5 abbe
000000f0: f251 cdbd a4c4 29be 0c37 92be 4205 633d
00000100: 8e83 a4bd f691 afbc 2a01 58be fe9b 10be
00000110: 54a7 24ba ab4a 463e 43e3 d93e 6d42 f93e
00000120: fcb3 4ebe 6840 4a3e bd83 033e 7f74 393e
00000130: 2752 8bbd 3c6a bbbc 4f28 6d3e 0ad3 4e3e
00000140: 17d0 c83c 6eb0 65bd bd1d 153e 0ee4 453e
00000150: 7ea9 233e 06b8 6c3e 368b b13c f69e c43c
00000160: c8ed 803e 7ef0 763d e703 dd3d 9b76 cc3b
00000170: 00ed 9ab8 2042 82bd 88f9 853e 9b3c fb3c
00000180: 3436 043e f593 843c dd3e 12be c960 d4bd
00000190: 8a15 e53d 36ce 02be b8bb 11be 563f 883d
000001a0: 723e 86be f3be 2ebc be37 8f3e 5953 95bd
000001b0: 7492 843d b0e3 a7bd 5bbf fa3d 4454 32be
000001c0: 5684 a9bd 754d b43a b61e 82bc 15b9 02be
000001d0: c2ee 42be 8418 af3d 5a50 2f3e 207f 88bd
000001e0: e4d7 0ebe 4789 d53c d0ef 34be aa91 843d
000001f0: c2c5 9c3d 2135 9ebd a342 e0bd 5de2 0ebd
00000200: 32d6 8c3d b83b b4bd 8761 953a a26d 693d
00000210: 0ce3 b0bd bfb7 fcbd 4c79 8d3d e4c0 323e
00000220: ac94 ed36 14f5 13be 1663 8b3e fdd9 b13e
00000230: 7322 263d 3038 603c b8c6 7b3b 4b33 933d
00000240: 1c09 863e b7b5 a73e 005d ddbe d85f a83d
00000250: ff51 99bd 52f8 2d3e e3da 94ba abe2 dabd
00000260: 9b17 fcbd 8984 a93d 917e 59bd a1ed fe3d
00000270: 2898 0cbd 40e6 93bc 44a3 e83d ecef 843e
00000280: e60b 273e c98f 53bd b57c 633d ac93 4fbd
00000290: 1684 523e 70e8 e73c afe9 9e3d 83ed 123e
000002a0: 5072 0e3e 78a1 51be afd3 31be 5d27 06be
000002b0: 7260 c03d db28 123d 97af 8bbd 793f 72bd
000002c0: ec10 75bd 7d42 46be 1865 22bd 1486 4cbc
000002d0: 74db 52bc 109e 2d3d bd47 0dbf 472a 30be
000002e0: 7f6e c23d e762 32bd cb48 a93d e7af 843d
000002f0: 0091 173e 8964 eb3c e792 863d b0f2 343e
00000300: 8fed 413c cfd3 ef3d 3954 4b3e 4cdf 023e
00000310: 0331 503d ebec 1c3d bebe 43bd 76bc 083e
00000320: 3ef0 203e 4448 0a3e 63be 003d 12fc fcbd
00000330: 7536 d03d 76a2 763e 6120 88bd 3b41 07be
00000340: c04f 31be 6499 9a3e 8195 8f3e e980 c13d
00000350: aabf b53e 433d b43d db7a 903e e549 8fbd
00000360: 843a 4f3c c62d 543d eac9 5c3d 5d21 01bf
00000370: 3d14 c8be 5290 ea3d 01a4 743e eb1c 953d
00000380: e574 4fbd 6917 0a3e a1dc e0bc 692b 7e3d
00000390: 7130 663c 910e 0a3e e6cd 453d 5dff 7b3d
000003a0: b4ee 0b3e aa5e 493e 4c0e 6d3d 3e55 2ebd
000003b0: 6372 213d 9f73 b63d d69a cbbd 9679 e1bd
000003c0: 6b11 6d3e c8dc 633e 545c 5c3d cd55 cb3d
000003d0: 6084 663e 0684 98bd 136a 5ebd 2b09 3f3d
000003e0: 07b5 7e3d c4c4 c93c 716a 233d 95ef 88bd
000003f0: 2155 d1bd cb6c 663c 3f82 243d 681c 5dbe
0.29264244 0.22006771 0.29921 0.32679868 0.23421699 0.29419982 0.35245755 0.13751344
0.31131548 0.23964661 0.049974054 0.14673233 0.26578987 0.27687958 0.10741905 0.12280044
0.1602655 0.19478595 0.20797873 0.20595819 0.30495992 0.25846827 0.09697704 0.095173314
0.19106653 0.14185815 -0.055243865 -0.031504408 0.10350379 0.07905706 -0.43146858 -0.0027644115
0.41579282 -0.32638675 -0.08713251 -0.17832868 0.28084517 0.09111166 0.0732682 0.04228301
0.26967233 0.05105982 0.050006356 0.055447333 0.15100013 0.12827812 -0.12683596 0.21585332
-0.10598366 -0.009757941 0.20182611 0.12063507 0.2069184 0.13247809 0.16671683 0.017984513
0.18321306 -0.26656875 0.083063014 -0.3353695 -0.100253955 -0.16578919 -0.28557622 0.055424936
-0.080329046 -0.021431904 -0.21094194 -0.14122006 -0.00062810373 0.19364421 0.425562 0.4868349
-0.20185846 0.19751132 0.12843223 0.18110846 -0.06802779 -0.022877805 0.23159908 0.20197693
0.024513287 -0.05607646 0.14562126 0.19325277 0.15982625 0.23117074 0.021672826 0.02400158
0.25181413 0.060287945 0.1079176 0.006239725 -7.387437e-05 -0.063602686 0.2616694 0.030668547
0.12911302 0.016183833 -0.14281793 -0.10370023 0.11185749 -0.12773976 -0.14231765 0.06652705
-0.26219517 -0.010665643 0.27972215 -0.07291288 0.06473246 -0.08197725 0.122435294 -0.17414957
-0.08277194 0.0013755994 -0.015883785 -0.12765916 -0.19036391 0.08549598 0.17120495 -0.06664872
-0.13949543 0.026066436 -0.17669606 0.06473096 0.07654907 -0.07724977 -0.1095021 -0.034883846
0.06876792 -0.08800453 0.0011396863 0.05698932 -0.08637056 -0.12339734 0.06907901 0.17456394
7.080458e-06 -0.14448959 0.27224034 0.34736624 0.040560197 0.013685271 0.0038418006 0.07187518
0.26178825 0.32755825 -0.43235016 0.08221406 -0.07486343 0.16989258 -0.0011356737 -0.10687765
-0.1230919 0.08277232 -0.05309922 0.12447668 -0.034324795 -0.018054128 0.113592654 0.25964296
0.16313133 -0.051650796 0.05553885 -0.05067794 0.205582 0.028309077 0.07759415 0.14348416
0.13910794 -0.20471752 -0.17365907 -0.13100953 0.093933955 0.035683494 -0.068206005 -0.059142563
-0.05983059 -0.19361301 -0.03964719 -0.012483139 -0.0128697045 0.04238707 -0.5518759 -0.17203628
0.09493732 -0.043551352 0.08265837 0.06478863 0.14801407 0.028734462 0.06570988 0.17670703
0.011836424 0.11710321 0.19856347 0.12780493 0.05082799 0.03831188 -0.047789328 0.13353142
0.15716645 0.1350413 0.031431567 -0.12352766 0.10166637 0.24085411 -0.06646801 -0.13208477
-0.17315578 0.30195153 0.2804375 0.09448416 0.3549779 0.08800747 0.2821873 -0.06996516
0.012648229 0.051801465 0.053903498 -0.50441533 -0.3907794 0.11453308 0.23890688 0.07280906
-0.05064859 0.13485493 -0.027448954 0.062053118 0.014049635 0.13482119 0.048292063 0.06152283
0.13665277 0.19665018 0.057874963 -0.042561762 0.03941573 0.08908772 -0.09941642 -0.11009519
0.23151176 0.2225219 0.05379899 0.099284746 0.22511435 -0.074470565 -0.05430038 0.046639603
0.06218436 0.024629958 0.039896432 -0.06686322 -0.10221315 0.014064024 0.040163275 -0.21592867

model.rnn.weight_hh_l0 f4 [160, 40]
00000000: c493 1d3d 59f7 a03d eeef 6f3e f399 1e3e
00000010: e4e8 9cbe afbc 723d a64d 9fbd bbc5 9e3d
00000020: de39 7f3e 500d 88be a9d5 d03d b8e9 94be
00000030: da57 973e 9079 5ebe 252e a03e 9f07 a03e
00000040: 451e 423e 194a 233e 6355 7abe d654 8e3d
00000050: f5a4 a1be 2d83 863e f7ed 32be 7211 943c
00000060: 7f6c 473e e7ee ecbc 20df 2abe 3d12 53be
00000070: d550 c03d 7851 e93b 24db 64be 39e7 a0bd
00000080: 0da7 4fbe 6492 8bbe 6c89 cb3b b0b3 78be
00000090: db88 8c3d 52ea 823d 39ea ff3b 5d9d 1a3d
000000a0: 3810 533d f81c 013e 1066 f93e e58b 823d
000000b0: 053d 743e 3f69 943e 06e1 8fbd fd03 23be
000000c0: ad52 cc3d 79e2 233f 8cd1 1fbe 71a6 b13d
000000d0: 6be2 d53c 7748 06be 4351 12bd fb25 b43d
000000e0: c457 d53e e6ab 333e 96a3 c03c a447 ef3c
000000f0: c4d8 13bd 5abe 65bd 6d95 933d 57d2 4cbe
00000100: 81b6 773e 7fbe bbbd 2677 163e 2069 62be
00000110: 3355 3e3e c1cc 89bd 90f2 7abe 7e22 e2bd
00000120: 0e60 9cbe 211e 883c 84e1 fbbe eafb 99bd
00000130: f98f 27bd 2f2d 9d3e 7c2b 3cbe 5ac4 1f3d
00000140: 7a0f 6f3e 81f5 05be d575 b4bd 432c 15bd
00000150: 618d 8cbe de52 9f3c cb06 8a3d b4f9 8a3c
00000160: 68f5 57bd de69 7abe a9ea a2b9 ca23 babc
00000170: 02d8 b93c 48c0 103d a7c3 b8bd 2ff0 d23d
00000180: befb 833c 251b 813e 6382 9dbd eae7 dfbe
00000190: 64ba 103d bb9a 63bc 6825 d6bc 1c2b 82be
000001a0: 86d6 febd 7ff2 8bbd c7cb 7cbe fa7e 9a3c
000001b0: 66e7 393e 8392 383e f668 e43c 1e0c c83e
000001c0: 4788 8cbe abdc 49be 628b 233e cc50 4abe
000001d0: c927 cc3d 9700 00be 9504 37be c5c6 803d
000001e0: bdf9 6d3e 5848 4e3e 3112 d63d 8fe1 c13d
000001f0: 35ef 34bd a949 073e 8d66 a93c 7ad3 39bc
00000200: 36db acbd 6d83 8f3e ea96 e03d f4e9 b43d
00000210: 3932 093e fd24 1dbe 438a 1a3e a639 843d
00000220: 3d82 8dbe f7e6 c6bd 861c ff3d a272 423e
00000230: 4a96 cdbd aade 95bc cfd5 57bd da6e 23be
00000240: 661b 5f3d 8695 1fbe 02d0 42be a3f7 92bd
00000250: 3ea3 363e bc03 2b3e 01d1 8d3d e7e8 21be
00000260: 5b36 45be ee10 d43d 289d e8bd a449 a2bc
00000270: 1d74 343d 3143 913e f8aa 2abd 2989 33be
00000280: 99f3 5d3d bc0f 5ebd 036a 8f3e 374b 083e
00000290: 6db6 0c3e 7b7f 4cbc b6cf 2fbe 40e6 493e
000002a0: 8cd2 243e 32f8 853d b686 183e 874f e0bd
000002b0: a5b6 313e 2cb7 8bbd e590 353e 8bea e1bc
000002c0: 0239 45bd 3d7f 6c3e 3cff 4abe 858b 613d
000002d0: e318 f1bd e2d0 453e 4482 b5bd 3f1b 9cbe
000002e0: 0121 e83c fdfa a13d d93c 023e 5d03 53bd
000002f0: a536 9fbd 36da 8a3d ece1 b2bb dc69 fb3c
00000300: 37a9 093e 1099 71be a73b acbe 9a3b 6abe
00000310: db7f 14bd 3996 15be dffb 60bd f1ac 143e
00000320: 3d39 5b3d 8d88 053e efbf 963c 954a cf3c
00000330: ad06 9fbe 3260 22be de22 0dbe a44c dd3b
00000340: b8ce 40bd fdf3 d0bd c04b 84bb 2f85 483e
00000350: 5584 1cbe a901 a1bd 5959 dd3d ac63 1ebe
00000360: cc24 2cbf 6074 2d3c 2f71 7f3d 9259 afbd
00000370: d315 12be 9097 c5bd a9cb 3a3d bebf 6fbe
00000380: b7f9 5bbd 0442 053e eeea 133e d7bf 13be
00000390: bc6f 2cbd 3f54 e13d 8c7a d73d 4531 4ebe
000003a0: c0a7 ab3e 7609 d4bd ac5b 68bb a547 333c
000003b0: 19c8 93bd 00a0 f7be 3460 073e 5705 8c3d
000003c0: e505 7b3d 9441 45be 512d 1f3e da04 c5bd
000003d0: 5168 9e3d 2bbf 2cbe 032c e5bd 00df 193e
000003e0: 1642 1a3c 2e36 10be 12e6 95bc 2ae6 c63d
000003f0: 6eb9 5fbd 4f8b 5a3d ed14 72bd 4458 223e
0.038471 0.07859678 0.2343137 0.15488414 -0.3064643 0.059261974 -0.07778482 0.07752558
0.24924418 -0.26572657 0.101970024 -0.29084563 0.29559213 -0.2172606 0.31285205 0.31255814
0.1895686 0.15946235 -0.24446635 0.06949775 -0.31571165 0.26271954 -0.17473589 0.018074725
0.19474982 -0.028922511 -0.16686678 -0.20612426 0.093904175 0.0071203075 -0.2234922 -0.07856602
-0.20278569 -0.27260125 0.0062114503 -0.24287295 0.068620406 0.06392349 0.007809904 0.03774773
0.05152914 0.12608707 0.4871068 0.06374339 0.23851402 0.28986546 -0.07025342 -0.1591949
0.09976707 0.64017445 -0.1560728 0.08674324 0.026108941 -0.1311358 -0.03572203 0.08796307
0.41668522 0.17546043 0.023515504 0.029208966 -0.036095396 -0.056089737 0.07206235 -0.20002113
0.24190713 -0.091671936 0.14693889 -0.22110415 0.18587188 -0.06728507 -0.24506593 -0.11041735
-0.30542034 0.01661593 -0.49195492 -0.07518752 -0.040908787 0.30698535 -0.18375963 0.039005615
0.23345748 -0.13081934 -0.08811537 -0.036419164 -0.27451614 0.019448694 0.06739577 0.01696477
-0.052724272 -0.24454448 -0.00031073883 -0.022722144 0.022686008 0.035339624 -0.09021693 0.10299718
0.016111251 0.25216022 -0.07690885 -0.43731624 0.035334006 -0.013891871 -0.026140884 -0.25423515
-0.12443261 -0.06833362 -0.2468711 0.018859375 0.18154678 0.1802464 0.02788208 0.39071745
-0.2744772 -0.19713084 0.15971139 -0.19757384 0.09968526 -0.12500225 -0.17872842 0.06287912
0.23239799 0.20144784 0.104526885 0.0946685 -0.044173438 0.13211693 0.020678783 -0.011341924
-0.08440249 0.28029957 0.109662846 0.088336855 0.13398065 -0.15346141 0.15091805 0.06456308
-0.27638426 -0.09712022 0.12456612 0.18989041 -0.10038431 -0.018294651 -0.05269414 -0.15960255
0.05446949 -0.15584382 -0.19024661 -0.07176139 0.1783571 0.16700643 0.0692463 -0.15811501
-0.19259016 0.103547916 -0.113581 -0.019810505 0.044056047 0.28371575 -0.041666955 -0.17532791
0.05418739 -0.054214224 0.28010568 0.13309942 0.13741465 -0.012481566 -0.17169079 0.1971674
0.16095942 0.0654148 0.14895138 -0.10952669 0.1735483 -0.06822047 0.17731054 -0.02757766
-0.04815007 0.23095413 -0.19823927 0.055064697 -0.11772325 0.19317964 -0.08862737 -0.30489537
0.02833605 0.079092 0.12718524 -0.05151688 -0.077740945 0.06779902 -0.005459061 0.030690126
0.13443457 -0.23593545 -0.3363926 -0.22874299 -0.036254745 -0.14608087 -0.054927703 0.14519097
0.053521384 0.13040371 0.018402068 0.025304118 -0.3105978 -0.15857008 -0.13782832 0.006753521
-0.047072142 -0.10202787 -0.0040373504 0.19582056 -0.15284856 -0.07861645 0.10808057 -0.1546771
-0.6724365 0.010586828 0.0623638 -0.08562006 -0.14266138 -0.09648049 0.04560438 -0.23412988
-0.053704944 0.13013464 0.14445087 -0.1442865 -0.042098746 0.11002397 0.10521421 -0.20135982
0.3352642 -0.10353367 -0.0035455031 0.010942374 -0.072159 -0.48364258 0.13220292 0.06836956
0.06128492 -0.19263297 0.1554463 -0.09620066 0.077347405 -0.168698 -0.11190035 0.15026474
0.00941517 -0.14083168 -0.018298183 0.09711869 -0.0546202 0.05335551 -0.059101988 0.15853983

model.rnn.bias_ih_l0 f4 [160]
00000000: 04a2 313e d981 f43d 07ae f73c 7b03 07bd
00000010: c891 2b3e 3aa2 84bd 6523 e93d a44a 693e
00000020: 2b93 323e 40d6 ac3d 8cdb 2dbe bb85 97bd
00000030: 9408 2d3e 114d 9dbd a73d 893e 20cd 003d
00000040: f506 893e 2342 c13d 047d 39bd d3cf 533e
00000050: d2ea 983d c950 413c 5dc7 95bd e586 a3bc
00000060: 3e27 db3d 40e4 20bd 6537 343d 6d53 1bbe
00000070: f0f5 be3d e832 d13d 5159 ae3e bef7 c93d
00000080: 3953 ae3d 5833 d63c f8c2 313e fc6d fa3c
00000090: 2939 02be 17be 09bd a535 f53c ae52 debc
000000a0: 6399 cd3d 5eb8 d9bd 9868 313e 9928 023e
000000b0: 07a1 afbd be96 cebd 5e2b c4bc 16ae 11bd
000000c0: e4ec 763d 684c 833d b201 2b3d 7424 473d
000000d0: 91bb 053e 298a 033e c10b 723c 4391 ff3d
000000e0: 0f13 333e 1f36 813d defb 9ebc 3539 873d
000000f0: 6705 a6bd 27e0 533d d204 51bc 944f 8abd
00000100: 67cf 373c b383 b63d 5e0f 853d b111 ca3d
00000110: ef3c b7bd 804e 24be 440b 7c3e 1ed8 33bd
00000120: e300 793d f219 15bd 492b b13d b1b5 11bd
00000130: 1f5c ef3c 8576 28be 6792 5b3d d6ed 8f3b
00000140: 13d8 c7bd b6c9 c4bd 3fb9 23be 850d 01be
00000150: 2d22 28be 12b5 4b3d 8209 083d ba55 27bd
00000160: e493 11bd 4e6a 273e 6393 c4bd 24b9 87bd
00000170: 0690 163e 15f4 093c f302 1b3e c057 113d
00000180: a1e6 b53d 20fc dfbc 234a f63d ad87 0dbe
00000190: 062c 02be 08fe 1a3e 6f7d 3a3c c0df 9ebd
000001a0: 3a67 03be 0c99 1cbc 1751 193d 8484 c13d
000001b0: 6165 483e c18a 89bd 211c 20be 907a 353e
000001c0: 26ce 50bd 7d79 61bc fd45 59bc c840 1fbb
000001d0: 1136 35be 61a2 aabd 05ce f7bd cb92 1dbd
000001e0: f729 593e dcd9 ce3d b34a ac3d 3e2a 3e3e
000001f0: 2516 803d 1557 bf3c f5e6 e0bd f658 703d
00000200: a7c8 d3bd 4f83 59bd 977f 5d3d 2461 d0bd
00000210: bdf8 cbbc 6b24 e13d 003c 5dbe 3294 253c
00000220: 51e2 1b3e 5336 8cbd a497 07be 9ea0 373d
00000230: a31f 87bd 053e a33d 9bf0 00be 9063 db3d
00000240: a079 323d 66f8 b5bd cb2c 4c3e 39c4 693e
00000250: c8d3 e3bd 7a95 d73c f73f 1f3e a775 8f3e
00000260: 0cb2 3d3d 172b 9e3c 966e 9bbd 5564 c53d
00000270: e409 4f3c 483b 23bd 1882 b33d 4f71 0d3e
0.1734696 0.11938829 0.03023435 -0.032962304 0.1675483 -0.06476255 0.11383704 0.2278238
0.17438953 0.084393024 -0.16978282 -0.07398554 0.16897804 -0.07680715 0.2680485 0.031445622
0.2676312 0.09436443 -0.04528524 0.20684747 0.074666634 0.011799046 -0.07313416 -0.019961784
0.10700844 -0.039280176 0.04399814 -0.15168543 0.093242526 0.10214788 0.34052518 0.09861706
0.08511967 0.02614753 0.17359531 0.030570023 -0.12717117 -0.03362855 0.029932806 -0.027139034
0.10039022 -0.106308684 0.17325056 0.127108 -0.085756354 -0.100873455 -0.02394646 -0.035566412
0.06028451 0.06411058 0.041749664 0.04861875 0.13059832 0.12845673 0.01477331 0.12478878
0.17487739 0.06309151 -0.019407209 0.06602708 -0.08106499 0.05172744 -0.012757497 -0.067534596
0.011218882 0.089118384 0.06497072 0.098666556 -0.08947169 -0.1604557 0.24613672 -0.043907277
0.06079186 -0.036401697 0.08650834 -0.035573665 0.029218731 -0.16451462 0.053606417 0.004392366
-0.0975801 -0.09608786 -0.15988635 -0.12602814 -0.16419287 0.04973323 0.033212192 -0.04085324
-0.03554143 0.16349146 -0.09598424 -0.0662711 0.14703378 0.00842001 0.15137844 0.035484076
0.088818796 -0.027341902 0.12025859 -0.13821287 -0.12712106 0.15135968 0.011382445 -0.07757521
-0.12832347 -0.009557974 0.03743085 0.094491035 0.19569923 -0.06715918 -0.1563573 0.17722535
-0.05097785 -0.013761875 -0.013261315 -0.0024300087 -0.17696406 -0.083317526 -0.12099842 -0.03847007
0.21207415 0.10100147 0.08412685 0.18570802 0.06254224 0.023356954 -0.109815516 0.05867859
-0.10341006 -0.05310374 0.054076757 -0.10174778 -0.024898881 0.10993274 -0.2160492 0.010106133
0.15223052 -0.06846299 -0.1324144 0.04483091 -0.06597831 0.07970814 -0.12591784 0.107123494
0.043573022 -0.08885269 0.19938962 0.22828759 -0.111243784 0.026316393 0.15551744 0.2801945
0.046312377 0.019307656 -0.07589452 0.096382774 0.012636635 -0.039851457 0.08765048 0.13812755

model.rnn.bias_hh_l0 f4 [160]
00000000: 86ae d13e aaa9 c3bd a805 c83d 11d3 51bd
00000010: a7ec ed3c 812a 863d ff1f b23d 7434 6f3e
00000020: b74e a63d df91 563c 67cb 593d 3f85 d6bb
00000030: b089 913e 073b 66bd 35f8 8d3e 568e 143e
00000040: e01c 2a3c 8841 b33d 22be ecbd 3cfd 7a3e
00000050: b8ef 0dbd 88d8 543e 2d47 0e3e 174b b93d
00000060: 8dc7 efbc b44f 13bd 10f9 8abd 0e6f 873c
00000070: c750 923e f7e8 49bd 2845 fc3d 4c91 ad3d
00000080: cfab 2d3e 7305 323e 17df c3bd 33b3 49bd
00000090: 4d8f 04bd 6338 333d 723e 3a3e f6f9 1d3e
000000a0: 9c97 a03d ec6e 893d edcd c63d 452b 053e
000000b0: e7da cc3d 0462 433e 07cd 0a3e 680e 6d3d
000000c0: 6bef 983d 88a6 86bd 11d1 32be adb1 f43c
000000d0: 7ba6 433e 08d2 1f3d e295 65bd ad92 a0bd
000000e0: 9d96 453d dfd1 36be a384 753d 6917 1dbd
000000f0: 26cc ae3d 3a39 f63c 7958 f13d b257 c03d
00000100: 9909 033e 5a7f d4bd 3101 00bc 5d5a b03c
00000110: 880a 073e eb16 f9bd 78b5 113c 589b 0bbd
00000120: af6c 86bc 463c 903d 90ea 0ebd 6aa6 dc3d
00000130: 26d2 0e3e 097c ad3c 2dca 153c 1137 3abd
00000140: 803d cebd 766e 16bd 6f90 4bbd 12cf be3d
00000150: d5d3 e13d a2d6 1fba 5b28 98bc 53ec e53d
00000160: 6fc9 02bd ad87 9a3d 5b03 803d 9243 12bd
00000170: 0941 533e 94db 113d 5c87 0f3e 43a3 2bbd
00000180: 71db e1bd dc47 16bc c08e fabc fad7 a3bd
00000190: b928 0a3e 62d5 543e 9458 28bc c05f aa3d
000001a0: dbff 583a cac9 843d ec86 f2bd 9814 29be
000001b0: 0edb 6d3d 2d8b 2cbd d648 8dbd b2b9 503e
000001c0: ea71 56bd b2dc 82bc 240c 893b e7f9 f7bd
000001d0: 9f0a 30be 7b5b 02be 8533 01be 21a6 8e3d
000001e0: cde9 213d d995 43bd c762 8cbd aef6 abbc
000001f0: bdd0 0b3e 684a d93d 1535 c83d 2ad7 563d
00000200: 8ef2 a4bc 3829 ae3c c4cf 11be b0d4 1dbe
00000210: 940d dbbd df65 1bbe af5a 22be 5c34 2d3d
00000220: 66fd 9d3d e4d3 043e 9a39 97bc a52b cb3d
00000230: d58a fa3d fe3f 6d3d ba27 c33d 9c63 303e
00000240: d4fd ea3d dd1a 91bc d095 fc3d ac59 373b
00000250: e82f 21be 1fa2 c23d 8ae1 1d3d 4498 a23d
00000260: 04a2 5fbd dfcb 94bc e3fd 3b3e 6ff1 753c
00000270: a929 82bd b33f 3a3e a549 33be 1261 1a3e
0.40953463 -0.09553845 0.09766704 -0.05122668 0.029043509 0.06551076 0.08697509 0.23359853
0.081204824 0.013096302 0.053172495 -0.006546646 0.2842536 -0.056208637 0.2772843 0.14507422
0.010382861 0.087527335 -0.115597025 0.24510664 -0.03465244 0.20785725 0.13894339 0.090475254
-0.029269958 -0.035964683 -0.06785786 0.016532447 0.28577253 -0.04929444 0.12317878 0.08474979
0.16960071 0.17384891 -0.095640354 -0.049243163 -0.032363225 0.043754946 0.18187883 0.15427384
0.07841417 0.0671061 0.09707246 0.13004787 0.1000269 0.19080359 0.13554774 0.057875067
0.0746754 -0.06574732 -0.17462565 0.029869879 0.19106476 0.03901866 -0.056051143 -0.07840476
0.04823934 -0.17853497 0.059940945 -0.038352404 0.08535032 0.030056585 0.11784453 0.093917266
0.1279663 -0.10375853 -0.007812784 0.021527464 0.13187611 -0.121625744 0.008893363 -0.034083694
-0.016409246 0.07042746 -0.034891665 0.107739285 0.13947353 0.021177309 0.009142441 -0.04546267
-0.10070324 -0.036726438 -0.04969829 0.09316839 0.11026732 -0.00060973514 -0.01857393 0.11226716
-0.031930383 0.07545409 0.0625064 -0.03570897 0.20630278 0.035609797 0.14016479 -0.041903745
-0.11028183 -0.009172406 -0.030585647 -0.08000179 0.13492097 0.20784524 -0.010275025 0.08319044
0.00082778715 0.06483801 -0.118421406 -0.16511762 0.058070235 -0.042124916 -0.06898658 0.20383337
-0.05235473 -0.015974376 0.0041823555 -0.12108212 -0.17191552 -0.1273021 -0.1261731 0.0696528
0.03952961 -0.047750328 -0.06854778 -0.02099165 0.13653846 0.10609895 0.097757496 0.05245129
-0.02013519 0.021259889 -0.14239413 -0.15413165 -0.10695949 -0.1517558 -0.15854906 0.042286262
0.077143475 0.12971455 -0.018460084 0.09920434 0.12233511 0.057922356 0.095290616 0.17225498
0.11474195 -0.017713005 0.12333262 0.0027977033 -0.15740931 0.095035784 0.03854517 0.079391986
-0.05459787 -0.01816362 0.18358569 0.015011176 -0.06355602 0.18188362 -0.17508562 0.15076092

model.rnn.weight_ih_l1 f4 [160, 40]
00000000: d5a0 4a3e 8bad 813e 6fd9 ac3c 4fe9 333e
00000010: 92d4 873e 8844 34bd 609b 243d 154d 203e
00000020: 9809 913d 7f5c 7fbe d09f 973d 9358 99bd
00000030: 1e1b afbb fb1e 60bc aef4 ad3d 9202 613e
00000040: 2fbc dbbd dc43 193e 3788 89be 5e39 bf3c
00000050: b38c 37be a46f 2dbc 3f70 65bd 3e5a 45be
00000060: 9524 a23d db0a 663e 7acd e7bc 16b4 27be
00000070: b8da ad3d 75fb 0d3e 5ee5 02be 46ba 3bbe
00000080: 60a8 113e 51dd 6abe 6097 f83c 00fc eebd
00000090: 3c3f 3d3e f293 7039 6721 ccbd 79a7 263d
000000a0: 4e16 7c3d 5ea0 ecbe 9cae d03d ebd8 f33d
000000b0: 267c fc3d d45d 68ba 79fc bcbd abc1 9fbc
000000c0: 5d4b af3d 7e4c 2a3d 8703 843e 884a 2f3c
000000d0: ccc7 873e a0f3 9dbc 4f58 bf3d 8c4d 4a3e
000000e0: 13a0 1e3e 1397 e43d 8343 963f 9d98 bd3e
000000f0: b295 53be db26 0c3e 409d 953c b7ea a7bc
00000100: 727b 013e 05d6 ca3d 7c21 123a 5e7b 4cbc
00000110: a173 7e3e 1186 913e 9510 c9bd 4133 33bf
00000120: a20e 1fbe e896 49bd dc2f 00bf 6a09 87be
00000130: 5033 643e 3011 253e 61ac 523c fe3f 3e3e
00000140: 3fb4 4dbc 0708 323e 4547 363e f20f 593e
00000150: c5f8 643e ecd5 3d3e 0647 6cbc b116 58bd
00000160: 0393 fa3c ee9a 82bd 6f3b 70bc 7876 17be
00000170: 002b 663e 4115 c63c b0e4 333d 6feb 2a3e
00000180: ceb8 903d 9cdf 683c a647 a5be 2f6c 083b
00000190: e4c3 11bc b3c4 c43c 5cc8 02be 8b7b 00be
000001a0: 2c63 523e a282 fbbc 503b 04bd 7afb 783c
000001b0: 8a69 543c 2647 abba b66f 93be 05e6 84be
000001c0: 9e12 243e 69d3 8fbe 2dd7 1c3e 4cb1 22be
000001d0: 3933 d6bb a4d3 2d3e f23d 683c 14d9 243e
000001e0: e0a5 ca3e e389 833e 4cab 353c 126d cd3e
000001f0: 8270 603e ffa6 993d c22b c2bd 8beb 93bc
00000200: b5dd 0d3e 4a24 1ebd b674 083d c087 9e3d
00000210: 1eb3 663e 8101 01be 800c 3d3c 5ecb 053e
00000220: 8010 6e3d ead2 683e 9f61 14bf 29c1 d43d
00000230: a1d7 7ebe bd52 253e d413 88be 4c73 00bf
00000240: dc00 ce3c 3244 093e 028d 9bbd ce20 3d3d
00000250: 6c52 3f3e 3cd0 8d3e 0d04 89be c4d9 1dbe
00000260: 8412 f53e 2f46 0bbe 2186 54bd 5cbc 22be
00000270: f2e2 233c f898 0fbf c2a6 08be 0475 c03d
00000280: d290 9abd b57c 8b3e 52c8 a73d 15e1 863d
00000290: b651 643e 99a2 06be 9f62 5ebc 6ef6 d23e
000002a0: 8d1a bc3d c467 7cbe f9cb b53d ea3b 12bd
000002b0: 59a8 963d 4515 61bd 719b 563b 5d74 bb3d
000002c0: a9f8 bc3d 56a0 e83d 2e18 e43e 568f 343e
000002d0: ec0c 3a3e 1018 c93d 088c 5b3e e434 aa3d
000002e0: c242 24bd 6633 97be c759 b63d 2761 2a3d
000002f0: c462 ae3d 6681 15bd 2605 36bd eb46 c7bc
00000300: 669b 423e 5452 c63d b7b3 c23c cd6f a0bb
00000310: 0472 943d 2e14 163e 9173 1fbe c737 c6bd
00000320: 0c86 b7bd f098 6abe 4fde 8abe 5eac 863c
00000330: 98b5 7d3e 66dd 983d f30a 8abe ee64 a4bd
00000340: 863c 9f3c 078a 1d3e b97c 563d cafc 24be
00000350: f6ff b63d 1010 353d a1a8 9dbc d7fc c63d
00000360: 1857 8c3d cfa9 13bd 40c9 413e 6f10 c83e
00000370: 6cb1 84bd 3e08 f0bd 22c6 0abe 5a89 17be
00000380: ef59 2f3e 2330 a9bd db39 17be 351e 133b
00000390: a015 25bd a774 b73d ce4d c73d 0e8f acbd
000003a0: 3e1d 5e3e d591 34be 3efe 563d 4561 30be
000003b0: 5763 c43d 2719 843b 3419 5a3d 0a83 723d
000003c0: 0f15 45bd 681d a0bd 6844 ad3d e8cd 01be
000003d0: cbdc 21bd e153 2cbe 7868 1fbe 9ed6 15bd
000003e0: 2799 2d3e 8ac7 9cbe da62 183e 2506 29bd
000003f0: c5e6 98bd 28f7 683c 294b 4dbd 1bf6 393d
0.19787915 0.25327715 0.021099774 0.17569469 0.26529366 -0.04401067 0.04018724 0.15654404
0.07081908 -0.24937628 0.07403529 -0.07487597 -0.005343809 -0.013679261 0.084939346 0.21973637
-0.107292525 0.14967293 -0.26861736 0.023342784 -0.17924766 -0.010585699 -0.05601525 -0.19272706
0.07917134 0.22465079 -0.028296221 -0.16377291 0.08488983 0.13865454 -0.12782809 -0.18332776
0.14224386 -0.22935988 0.030345619 -0.11669159 0.18481153 0.00022943298 -0.099673085 0.040687058
0.06154471 -0.462161 0.10189554 0.11906608 0.12328367 -0.0008864079 -0.09227843 -0.019501528
0.08559296 0.041576855 0.2578394 0.010698922 0.2651962 -0.019281209 0.093430154 0.19756144
0.15490751 0.111616276 1.1739353 0.37030497 -0.20662573 0.13686697 0.01826346 -0.020497663
0.12644747 0.09904102 0.00055744476 -0.012480585 0.24848796 0.28422597 -0.09817616 -0.7000008
-0.15532926 -0.04921618 -0.5007303 -0.2637437 0.22285199 0.16119838 0.012858481 0.18579099
-0.012555181 0.17385875 0.17800625 0.21197489 0.22360523 0.18538636 -0.01442123 -0.052756015
0.030587679 -0.06377207 -0.014662608 -0.14791286 0.2247734 0.024180057 0.043919265 0.16691373
0.07066499 0.014213469 -0.32281226 0.0020816436 -0.008896802 0.024019575 -0.12771744 -0.12547128
0.20545644 -0.030701939 -0.032283127 0.015196675 0.012964616 -0.0013067469 -0.28796166 -0.2595674
0.16022727 -0.2809098 0.15316458 -0.15887946 -0.006536868 0.16975266 0.014174925 0.16098434
0.39579678 0.25691137 0.011088204 0.40122277 0.21917918 0.07502555 -0.094810024 -0.018056652
0.13854106 -0.038608827 0.03331443 0.07740736 0.22529265 -0.1259823 0.011538625 0.1306586
0.058121204 0.22736707 -0.5796146 0.10388405 -0.24886943 0.16144843 -0.26577628 -0.5017593
0.025146894 0.1340492 -0.075952545 0.046173863 0.18683785 0.27697933 -0.26760903 -0.15415102
0.4786569 -0.13600992 -0.051885728 -0.15892166 0.010002838 -0.56092787 -0.13344863 0.09397319
-0.075471535 0.2724358 0.08192505 0.065859 0.22296795 -0.13147964 -0.013573318 0.41203636
0.09184752 -0.24648958 0.08876795 -0.03570167 0.073563285 -0.054951925 0.003274646 0.09153054
0.09227116 0.11358707 0.44549698 0.17632803 0.18168992 0.09819043 0.21440136 0.08310869
-0.040102728 -0.295314 0.089038424 0.041596558 0.08514932 -0.036500357 -0.044438504 -0.024325809
0.19004592 0.096836716 0.023767335 -0.00489614 0.07248309 0.14656135 -0.15571429 -0.096786074
-0.08961114 -0.22909904 -0.27122733 0.016439613 0.24776304 0.074641034 -0.2696148 -0.08027063
0.01943804 0.15384685 0.05236504 -0.16112056 0.089355394 0.04420477 -0.019245448 0.09716194
0.06852549 -0.036050614 0.18924427 0.39075038 -0.06479153 -0.11720322 -0.13552144 -0.14798489
0.1712415 -0.082611345 -0.14768164 0.0022448425 -0.040303826 0.089577965 0.09731637 -0.08425723
0.21690843 -0.17633756 0.052488558 -0.17224605 0.0958926 0.0040313187 0.05324669 0.059207
-0.048115786 -0.07818109 0.08460313 -0.12676203 -0.039517205 -0.16828872 -0.15567195 -0.036581628
0.16952954 -0.30620986 0.14881459 -0.041265626 -0.07465891 0.014219083 -0.050120506 0.04540072

model.rnn.weight_hh_l1 f4 [160, 40]
00000000: 3dd4 4ebe e337 debd b006 64be 2889 463e
00000010: f41a 1abd 1524 213e dbf9 00bd a863 203e
00000020: bf4b 413e b911 0a3e f9c1 84bd d361 d7bb
00000030: a834 9b3d a88d f93d c9c8 403e c0cb b03a
00000040: b7ff ad3d 8f68 513e 0ea5 203e 0193 2c3d
00000050: 9d52 a4bd a89c d6bd 35f3 b13d 2843 f0bc
00000060: c591 3a3d 5734 4e3e 2d31 043d a657 aabd
00000070: 1b47 183e 128a bd3d 62bb f23d d30c ecbd
00000080: 4a55 273d 04b0 3b3e ee09 5a3d 943c a8bd
00000090: 01b2 20be 9dae 01be d396 7dbd 4c33 663d
000000a0: 9bcf 27be ec75 d2bd 91ff 5bbe db1b 703d
000000b0: 0ab5 44bd 6d45 893e c485 1cbe ac42 693d
000000c0: ce49 8d3e 1bfb 393e 3f28 0ebe bda6 a13e
000000d0: 4f12 793e fb29 e43d 9cfe 0bbd 4e97 23be
000000e0: 4212 c2bb c3ec 993e 935e 963e 1c78 913d
000000f0: 851d b13c 75b2 64be 3425 363e 3101 a73d
00000100: 0492 cdbd 2a7c 4d3d c455 1bbe 0fd4 303e
00000110: b7f9 1b3e 3fe0 1cbd 71b4 74bd e07d 28be
00000120: 7595 c03d 7ae7 ad3e b7e8 29be a619 2c3e
00000130: e807 8ebd 6bb5 debd d269 66be 98e5 c3be
00000140: aa7e 4abd 31f5 a9bd 5a25 d9bd 9217 9e3d
00000150: db8a 17be 4eef 883b c70b a0bc 7be6 783d
00000160: fd6d ff3d 73d9 f03c 6350 22be e542 e2bd
00000170: 0fdb 003e 22ed a33d d09c a33d 468a 83bd
00000180: a6bb 9bbd 926d a43d 3709 a03d 5302 ff3d
00000190: eeeb 9e3d e3ee 2c3d 63bf 9cbd 2924 633d
000001a0: e31d bd3d b02a 3ebd 2c2f 65bc 99f7 33bd
000001b0: 56d9 913d 97f5 89bb 2e48 6abd 44ab eabd
000001c0: cb28 1d3d c3e5 c8bc a311 d63d 494d 61bd
000001d0: b163 09be 988c e0bd cb50 a8bd 3a64 953d
000001e0: 60a5 dd3d 66e6 053c 109e 00bd ad95 593d
000001f0: ed79 64bd 9800 47bd 82e5 d33d 445c d73d
00000200: 686a 433e a703 fdbd ce9c 2dbe 6b29 f03c
00000210: 5d8b 14bc 97ef 0b3d 8a05 c8bc 122f a63d
00000220: 595e 27bd a12c ad3d fcc5 97ba 503f 3e3e
00000230: f94a aebc ef88 c0bd c26f 773d 4a81 7b3d
00000240: 7d52 29be 54da b3bd 2354 b03c 46a1 a4bd
00000250: 7cf0 303e 0c80 b23d 1222 1ebe 7d75 d13d
00000260: 7bc8 3f3e 1027 62bd 1dce b13d 1d51 a53d
00000270: f9a3 aa3c 8149 f7bc 85ac 05be a227 db3d
00000280: 5d12 bf3d f8ee 833d ea88 193e 6bf9 9cbd
00000290: b3b3 5fbd b2f5 35bd 29e8 f8bd c508 f4bd
000002a0: 28d5 a9bd e27d 78bd 11bb 173d 8ab1 bb3d
000002b0: 706b a53c 7b09 abbc 7f55 07be 4dd3 8cba
000002c0: f980 6f3d 5af3 f1bc 3aee 15be 63a5 cfbb
000002d0: 2eba 0ebe b689 2cbe aa40 bf3d f319 c9bd
000002e0: e9d5 103e 945e 65bc 7352 023e c927 86bd
000002f0: 7afb 37bd a099 20be d7b8 10be 1ab2 903d
00000300: d477 043d 7e32 0ebe 2e9d 2a3e a7c5 893d
00000310: 3fa0 003d 6110 df3d 546a 233e 24a6 6dbe
00000320: 507e ae3d 0672 cabd b255 85bc 8414 c7bd
00000330: 7b28 cf3d d3ae 413e 069c fa3b 2eae 803b
00000340: 2e96 66bd ffcc bc3d 7166 3abe 3a78 97bd
00000350: 56dd 513e 8b4c b83d 85c5 6fbd ccfb 533e
00000360: 5603 903d 27cf 483e 2b10 54bc ced3 abbd
00000370: 09da 61bc 6698 893d 5f15 103d 4aab ab3d
00000380: 8204 353b 0b1e 763d 8f12 eabd 6cc3 5f3d
00000390: a96a 9ebd e4e0 a93c e6e0 d1bd 0bc3 af3e
000003a0: 905e a9bd 2ac9 633d 0238 a3bc ad28 34be
000003b0: ad36 06be 9692 7a3d df67 cb3d 42bb 5e3d
000003c0: 9762 853d 1afd cd3b ab10 dabd 9497 5abd
000003d0: 741d db3d 4c9b 273e 9afe ef3d b19c 9ebd
000003e0: c632 843d 78b0 1bbe a633 8c3c abcd d3bd
000003f0: b5f2 3d3d 0a33 9bbc 11bd 513c 8351 21be
-0.2019815 -0.10850503 -0.22268176 0.19388258 -0.03762336 0.1573642 -0.03148828 0.15663016
0.18876551 0.13483323 -0.0648231 -0.006572941 0.07578403 0.12185222 0.18826593 0.0013488457
0.08496039 0.20450042 0.15687963 0.04213238 -0.0802357 -0.104790986 0.08688966 -0.029328898
0.045549173 0.20137154 0.03227346 -0.08317499 0.14870875 0.092548504 0.11852147 -0.115258835
0.040852822 0.18328863 0.053232126 -0.08214679 -0.15692903 -0.12664266 -0.061911415 0.056201264
-0.16387789 -0.10276398 -0.2148421 0.058620315 -0.048024215 0.2681078 -0.15285403 0.05694835
0.2759537 0.18162195 -0.1388254 0.31572524 0.2432339 0.1114082 -0.03417836 -0.15975687
-0.0059225867 0.30063447 0.2936903 0.07102987 0.021620521 -0.22333701 0.1778763 0.08154524
-0.10037616 0.05016724 -0.15169436 0.17268394 0.15231977 -0.038299795 -0.059742395 -0.16454268
0.09403507 0.33965665 -0.1659268 0.16806659 -0.06935102 -0.108744465 -0.22501305 -0.38261104
-0.049437203 -0.0829872 -0.10602827 0.077193394 -0.14799063 0.004178918 -0.019536866 0.06076668
0.124721505 0.029400563 -0.15850978 -0.11047915 0.12583564 0.08004214 0.07988894 -0.06422858
-0.076041505 0.080287114 0.078142576 0.12451615 0.07759844 0.042220008 -0.076536916 0.055454407
0.09234216 -0.04642743 -0.013988297 -0.0439373 0.07121532 -0.004210185 -0.057197742 -0.114584476
0.03836898 -0.024523621 0.10452583 -0.055005345 -0.13416936 -0.10964316 -0.08218535 0.07294507
0.108225584 0.008172607 -0.03140074 0.053121258 -0.05578034 -0.04858455 0.103465095 0.10515645
0.1908356 -0.12354212 -0.16954347 0.029316625 -0.00906643 0.034164038 -0.024416704 0.08114447
-0.04086146 0.08455778 -0.001157939 0.1857884 -0.021275984 -0.09401118 0.060409315 0.061402597
-0.16535373 -0.08781877 0.021524495 -0.08038573 0.17279238 0.08715829 -0.15442684 0.10227487
0.18728821 -0.055213034 0.08681891 0.08072112 0.020830141 -0.030186417 -0.13054092 0.10700919
0.093296744 0.06442064 0.14993635 -0.0766476 -0.054614734 -0.044423766 -0.12153656 -0.11915735
-0.082926095 -0.060666926 0.037043635 0.09164722 0.020192832 -0.020878544 -0.13216208 -0.0010744125
0.058472607 -0.029534984 -0.14641657 -0.0063368543 -0.1393821 -0.16849408 0.093385056 -0.098194025
0.141441 -0.0139996 0.12726764 -0.06550557 -0.04491756 -0.15683603 -0.14133011 0.0706522
0.03234084 -0.13886449 0.16661522 0.06727152 0.031402823 0.10891796 0.1595853 -0.23207909
0.08520186 -0.098850295 -0.016276214 -0.0972071 0.10115143 0.18914346 0.007647994 0.003927014
-0.056295566 0.092187874 -0.18203141 -0.07395978 0.20494589 0.089989744 -0.05853798 0.20701522
0.07031886 0.19610272 -0.012943308 -0.08390008 -0.013784894 0.06718521 0.03517663 0.0838228
0.0027621095 0.060087245 -0.11429321 0.05462973 -0.077351876 0.020737119 -0.10247974 0.34328493
-0.082699895 0.055611767 -0.019924168 -0.17593642 -0.13106795 0.06117495 0.09931921 0.0543778
0.06512945 0.0062862756 -0.106477104 -0.053367212 0.10698977 0.16367835 0.11718483 -0.0774473
0.06454997 -0.15204036 0.017114472 -0.103419624 0.04637404 -0.018945236 0.012801425 -0.1575375

model.rnn.bias_ih_l1 f4 [160]
00000000: 911e 0c3e 3362 d43d 46f9 8c3e bbbb 9b3e
00000010: 4f60 643d 6204 763d 417f d9bd 0d3d 40bd
00000020: fe66 ccbc 839b 1b3e a50a 98bd 0cb0 373e
00000030: e5d6 2e3e 6840 9d3c a952 b83d d30c d2bb
00000040: 757d 4c3e f150 62bd 9391 10be 9ec5 4a3e
00000050: 344c 51bd efbb b43e d42c bb3b 6cb4 f2bd
00000060: c8f0 c53d e968 753d bae2 473e b37c b43d
00000070: ea34 a9bd d3b9 7a3e 0556 1a3e abd0 90bd
00000080: abc6 1f3e 5146 933e f4f5 9f3d baf2 df3d
00000090: 323d 1abc cf3b 053e 8dba f53d 8db6 80bd
000000a0: 7c66 60bd a170 053e 20c5 7f3d 417e 02bc
000000b0: 1aeb 463c 9c37 3c3e b647 afbd f898 4e3e
000000c0: 77f1 263d 3313 3a3e 2109 153d bfd1 db3d
000000d0: 6600 fc3d 92c3 24bd f830 073e 3004 783d
000000e0: da37 c63d 6995 b9bc fb2a b8bd d22a f53d
000000f0: c33e b53d a82a 87bd e882 663c 5ce5 c13c
00000100: 3d8a a03c 8f5e cbbc 7acc dd3d a80e c73d
00000110: 8caf 79bd 6cd5 a9bb 1b18 3c3a a6ba 09bd
00000120: 26a9 3e3e 3a71 cc3d a053 f03d e133 3a3d
00000130: 522e 75bd 1a11 343e 35f8 3a3e b4e3 be3c
00000140: 271d 0ebd 66a4 473d d6e0 30be 444f 89bb
00000150: e9ec 10bb 1ed9 85bd ac0d d3bd 0bf0 c23c
00000160: 115a e73d 90eb 223e ec05 cd3d 52f5 303e
00000170: 57cf 883e c104 ccbb 00fa cdbc 9ecb 8abd
00000180: 4bbe d5bd dda4 d13d 22b2 2139 015e 883d
00000190: e43e 543e a909 95bc 28b8 213e a18f 8f3d
000001a0: d04e 13be 92dd 043e 9d42 91be e0a5 013d
000001b0: 1bf5 4dbd 6b29 6bba 48ad 283e 1db4 c43d
000001c0: c857 073d 343a 0b3e 71e8 633b 55c6 9dbc
000001d0: 2beb 02be cf44 86bd 7767 dabc 4900 f93d
000001e0: 3830 f03c 132a 8c3e f436 743d f9d2 cb3d
000001f0: 01b7 0fbe febb dc3d 92c7 243d b74a 053e
00000200: 2ec2 76bd ec6d de3d e164 403e 331f ffbd
00000210: 2e0d bcbc 4992 733d 936c f6bd 36fe 5b3e
00000220: fd03 4fbd 2fb2 2a3e a7bb 093e 255a 00be
00000230: 971e 2c3e 1561 7c3e b682 3abc 8505 5e3d
00000240: 2ffd dabd 9f27 7e3d 38e6 4b3e 7a35 303e
00000250: 1d17 293e 9a40 25bd 6296 013e 3f5c 0a3e
00000260: 8f94 1b3d 0085 a5bd a300 9cbd b9da 303e
00000270: b999 4f3d c4ca d23d 476c 4ebd 7243 7f3d
0.13683535 0.103702925 0.2753393 0.30416664 0.05575591 0.060062774 -0.10619975 -0.046933223
-0.024951454 0.15196042 -0.07423905 0.1793825 0.17074163 0.01919575 0.09000141 -0.00641022
0.19969733 -0.055252973 -0.14118032 0.19801947 -0.051098064 0.35299632 0.005712131 -0.11850819
0.09665066 0.059914503 0.19520083 0.08812847 -0.08262046 0.24484949 0.15071876 -0.0707105
0.1560313 0.28764585 0.07810584 0.10934968 -0.009414004 0.13011096 0.11998472 -0.06284819
-0.054785237 0.13031246 0.062443852 -0.007964672 0.0121410135 0.18380588 -0.085586 0.2017554
0.040757623 0.18171386 0.03638566 0.10733365 0.123047635 -0.040225573 0.13202274 0.06055087
0.096786216 -0.022654252 -0.08992573 0.11971058 0.088498615 -0.06599933 0.014069296 0.023668937
0.019597167 -0.024825362 0.108300164 0.09719592 -0.06095843 -0.0051829126 0.0007175223 -0.033625267
0.18619213 0.09982534 0.117347 0.04545963 -0.059858628 0.17584649 0.18258746 0.023301937
-0.03469577 0.048740767 -0.17273268 -0.0041903574 -0.0022113866 -0.065355524 -0.10305342 0.023796102
0.11296476 0.15910172 0.10010895 0.17281082 0.26720688 -0.0062261526 -0.025143623 -0.06777118
-0.10436686 0.10236523 0.00015420516 0.06658555 0.20727116 -0.018193083 0.15792906 0.07009817
-0.14385533 0.12975147 -0.28371134 0.03165233 -0.05028258 -0.00089707103 0.16472352 0.096046664
0.0330427 0.13596421 0.0034775997 -0.019259611 -0.12785022 -0.06556093 -0.026660664 0.121582575
0.029319867 0.2737585 0.05962272 0.09952349 -0.14034654 0.10778044 0.040229388 0.13016783
-0.060243778 0.1086081 0.18788482 -0.12457123 -0.022955503 0.05946568 -0.12032428 0.21483693
-0.050540913 0.16669534 0.1345049 -0.12534387 0.16808544 0.24646409 -0.011383703 0.054204483
-0.10692822 0.062049504 0.1991204 0.172079 0.16512723 -0.040344812 0.12655023 0.13511752
0.037983473 -0.08082008 -0.07617309 0.17270936 0.05068371 0.10292581 -0.05039623 0.06232018

model.rnn.bias_hh_l1 f4 [160]
00000000: 4c09 713d 7af2 843d dc33 0c3e d6de 653e
00000010: b248 463d 89ce 213d 1681 5abd c734 b0bc
00000020: a264 1ebd 450f 6c3e 9292 14be dd5d 6b3d
00000030: bfc0 443e 6ba2 263d 2bb4 a8bd 8a34 e6bd
00000040: cdd3 f53d 0f2d 9fbc 3442 e4bb c65c 343e
00000050: 8d0c cb3b a1b0 a03e f2d6 243e a23d ca3d
00000060: b53f 763e 4cb0 92bd 9dfd 613e fa61 473e
00000070: a4aa 84bd 6de7 e93d a6c9 edbd cc85 c33d
00000080: 984f 043e cf46 003e 199b 63bd d91d bd3d
00000090: aa66 0a3e c86d 4f3e 4f3a 26be 0418 1a3d
000000a0: 5bf9 173d 2e05 82bd 3775 5c3e 11ce 0ebb
000000b0: b467 a9bd ebb1 a33c b29c 413b 64c6 09bd
000000c0: 0482 a83d ce84 1f3e 2a5b b8bd a41a 21bd
000000d0: 2ba5 c7bd e40d a7bd ebc9 f83c 75cd 0ebd
000000e0: 5235 c3bb c837 a5bd 0167 a43d 54b9 dfbc
000000f0: 2ff0 b43d c0ca 113e 952c 943d b77d 113e
00000100: 690d ffbc 8cb3 063e 4049 3c3c 8424 15be
00000110: a1aa 943d e293 5a3e 0d00 d23d ab65 143e
00000120: b6ed 1f3e eb6d a0bd 06f3 1e3d 02cc f7bc
00000130: 1ee1 6fbc c305 cc3b 4dcb 013e c935 e13c
00000140: c30d 93be e0f6 12be d6e4 c9bb 7ec2 653e
00000150: ac0c 0c3e ec83 a03d 50f5 dabd 553f 1bbe
00000160: 3756 b43c ebcf 3d3e 3324 b3bd e2f1 193e
00000170: e526 273d 9367 cf3d 3d7b 8b3d 967f 843d
00000180: be6b 69bd a72a 993e 0fde 2d3d 38cd 18bd
00000190: b119 043c a6f5 dcbd 1804 043e b987 c73d
000001a0: ecc9 ccbd 1c3d 1e3e f5c4 50be 06f9 b0bc
000001b0: c3a7 8b3d 6635 c73a fbde 253e 9f7b e93b
000001c0: 7942 52bb 6c59 1c3e 6726 22be 7f3e 01be
000001d0: 320e dabd 9d1a 8cbe 4051 cd3d fd15 f33d
000001e0: cb82 9a3d 9aa3 e53d 9658 b93c 1b76 d6bc
000001f0: 2ed1 b53c f903 643b 28c4 0a3e 690e c2bd
00000200: b0b5 6fbd 3736 1e3e 7a24 bd3d ee42 debd
00000210: d3b5 f1bd 96aa a0bd d028 9abd 4603 96bd
00000220: b652 b3bd 4a78 073e df56 67bd cb29 9c3d
00000230: 9661 2c3c 687a 163c 7753 153b e290 223e
00000240: d69c 043d 00d8 fb3c 9ec4 023c 01ac 7f3d
00000250: 1eed 8d3b 94a2 5e3e cca7 4fbd 2ff3 103c
00000260: c208 93bd 5d24 9c3d 3a6a 2a3e d9a0 7d3d
00000270: 838f 4a3e 268f 843d c6af 9a3c 8087 fcbc
0.058846757 0.06491561 0.13691658 0.22448286 0.04840917 0.039503608 -0.053345762 -0.021509541
-0.03867019 0.230527 -0.14509037 0.057462562 0.19214152 0.040682238 -0.08237489 -0.1124049
0.120032884 -0.019430665 -0.0069659 0.17613515 0.0061965645 0.31384757 0.1609762 0.09875037
0.2404774 -0.07162532 0.22069402 0.19470969 -0.064778596 0.11421094 -0.11610727 0.09547004
0.12920988 0.12527011 -0.055567835 0.092342086 0.13515726 0.20256722 -0.1623318 0.03762056
0.03710304 -0.06348644 0.21529089 -0.0021790306 -0.08271733 0.019982299 0.002954286 -0.033636466
0.082279235 0.15578005 -0.09001763 -0.039332047 -0.097483 -0.08156946 0.03036972 -0.034863908
-0.005957284 -0.0806728 0.08027459 -0.027310051 0.08834874 0.14237499 0.07235066 0.14208113
-0.031134324 0.13154429 0.011492074 -0.14564711 0.072591074 0.21345475 0.10253916 0.14491908
0.15618023 -0.07833465 0.038805984 -0.030248646 -0.014641074 0.006226273 0.1267521 0.027491467
-0.28721437 -0.14351988 -0.0061613126 0.22437474 0.13676709 0.07837662 -0.10691321 -0.15160878
0.022013767 0.18536346 -0.08747139 0.15033677 0.040808577 0.10127177 0.06810615 0.064696476
-0.056987517 0.29915354 0.0424481 -0.037305087 0.008062766 -0.10789041 0.12892187 0.09742684
-0.09999451 0.15452999 -0.20387633 -0.021603119 0.068191074 0.0015198409 0.16198342 0.0071253325
-0.0032083078 0.15268487 -0.15834962 -0.12621497 -0.10647239 -0.27364054 0.10025263 0.11869428
0.07544478 0.11212845 0.022625249 -0.026179364 0.022194471 0.0034792407 0.1355139 -0.09475405
-0.05852288 0.15450369 0.09235473 -0.108526096 -0.11802258 -0.07845037 -0.075273156 -0.07324843
-0.0875601 0.1322948 -0.05647933 0.07625159 0.010521313 0.009184457 0.0022785345 0.15875581
0.032376133 0.030742645 0.0079814475 0.062419895 0.004331245 0.21741706 -0.050697133 0.008847042
-0.07179405 0.07624123 0.16642085 0.061920974 0.19781308 0.06472616 0.018882643 -0.03082633

exp_avg f4 [1, 40]
00000000: 7c17 f2b8 11a8 b439 73b9 82b8 f916 5e38
00000010: b87e dc34 c62a ce38 8749 c338 ea11 f3b7
00000020: b6ac 9c36 db6e 8937 e641 69b8 ece3 6c37
00000030: c845 9738 7e88 23b6 3cd0 0db9 34d2 3c39
00000040: f0cc 17b7 6583 30b9 a458 a137 1952 80b8
00000050: e908 c537 4442 d8b8 84f2 bc36 aa7d e937
00000060: eac1 60b8 9744 ea36 3abb 20b8 855b 2e39
00000070: 2814 57b8 94b1 0bb9 c155 2438 b6a0 9db8
00000080: c0c6 53b7 49cf 8938 17dd 2d37 f46a d739
00000090: 2d37 f0b8 c4fa a6b8 f5a4 3a39 4cec 0539
-0.000115438335 0.00034457495 -6.233426e-05 5.295032e-05 4.1070393e-07 9.8308126e-05 9.31202e-05 -2.89762e-05
4.6692685e-06 1.6383294e-05 -5.56129e-05 1.4119763e-05 7.213239e-05 -2.4368342e-06 -0.00013524381 0.00018007384
-9.048017e-06 -0.00016833616 1.9233972e-05 -6.1188075e-05 2.348838e-05 -0.000103120256 5.631069e-06 2.7834281e-05
-5.358636e-05 6.9817283e-06 -3.832134e-05 0.00016628027 -5.1278766e-05 -0.00013322226 3.918051e-05 -7.516278e-05
-1.2622855e-05 6.571279e-05 1.036308e-05 0.00041087682 -0.00011454369 -7.9622056e-05 0.00017799794 0.00012771896

exp_avg_sq f4 [1, 40]
00000000: f3d2 8c35 731f 8635 3721 a535 fcaa 9235
00000010: 5726 d732 62dc 4435 66d8 c734 260d e634
00000020: eb15 1935 c712 d035 de01 ce34 3c19 da34
00000030: daff 3135 dc1a cd34 aaf2 0835 13f3 a434
00000040: 4f25 6535 16e3 3335 c3ec c234 fda2 ad35
00000050: d61c 4a35 2fd4 8735 4e12 9234 0fdd bb34
00000060: 89a0 5235 7cfb e534 b53c 0936 e442 2535
00000070: 5944 0834 bba7 9635 d44b 7435 7873 3a34
00000080: 58e1 0335 851f 9235 1051 a535 dccc 8734
00000090: 0297 5d34 1004 c635 eee8 2f35 dd50 8e33
1.0492207e-06 9.992931e-07 1.2303125e-06 1.0927611e-06 2.504673e-08 7.333639e-07 3.722409e-07 4.2850405e-07
5.7028836e-07 1.5502673e-06 3.837185e-07 4.0624025e-07 6.630995e-07 3.8203768e-07 5.101707e-07 3.072424e-07
8.536344e-07 6.701315e-07 3.6307583e-07 1.293694e-06 7.5292826e-07 1.0120037e-06 2.7207938e-07 3.4992306e-07
7.8464706e-07 4.2837553e-07 2.0449927e-06 6.156463e-07 1.2690852e-07 1.1224687e-06 9.100743e-07 1.7364607e-07
4.912922e-07 1.0887021e-06 1.231705e-06 2.5294764e-07 2.0637165e-07 1.4753332e-06 6.553154e-07 6.627099e-08

exp_avg f4 [1, 40]
00000000: 9cc0 c6bc 5bdd 0dbd b745 00bd 7116 bc3c
00000010: 72cb ab3b 1bf1 543d e1e8 9fbc ea0c c83c
00000020: 756e a13c e0a1 0c3d 0a51 df3b 56dd c83c
00000030: 44b8 c73c acdf 9d3b b057 f53b eae8 c43c
00000040: 598a 06bd 23bc bc3c b012 9c3c feec 0cbd
00000050: 24b0 f23c 1e86 aebc f6d3 ae3c 4532 233c
00000060: fcec cabc bbca b13c d605 13bd 2743 da3c
00000070: a135 a63b 8933 083d c4d3 d03c 1c47 0b3d
00000080: 1422 29b8 a7c2 063d a3ff 34bd 24c5 b2bc
00000090: 728b 5e3c a7b3 19bd 8ebd 06bd e9fb 5dbc
-0.024261765 -0.03463493 -0.031316485 0.02295992 0.0052427584 0.05198775 -0.019520225 0.02442022
0.01970599 0.034334064 0.0068150805 0.024519604 0.024379857 0.0048179235 0.00748726 0.024036843
-0.032846782 0.02303893 0.01905188 -0.0344057 0.029625006 -0.021304186 0.021341305 0.009960716
-0.024771206 0.021703115 -0.035894237 0.026643349 0.005072311 0.033252273 0.025491603 0.034003362
-4.0324478e-05 0.03290048 -0.044189107 -0.02182252 0.013583051 -0.037524845 -0.032895617 -0.01354883

exp_avg_sq f4 [1, 40]
00000000: 13b1 053f 4f02 3b3f 0795 1e3f 8319 443f
00000010: ddb7 193b b7c3 9a3e af18 913d 5c36 b23e
00000020: 45b2 d13e b5ce 7e3f 3031 a23d 4fae 663d
00000030: 680e 863e 8c7b c33a 747d 613e 359a 443d
00000040: 2991 ca3e f247 373f 1994 c83d f5e5 e23e
00000050: a466 423e f1d4 0d3f a72f b43d 3a70 2f3c
00000060: 8f6f 863e 3dae dc3d 9c01 963f 0353 e13d
00000070: ddbc 6a3c 8f65 423f be9e fe3e df06 3a3d
00000080: 4f7f 463e f866 113f 0371 d03e 5273 e03d
00000090: 2659 323e a796 653f d4b8 143f 935a 213c
0.5222332 0.730504 0.6194615 0.7660143 0.0023455538 0.30227444 0.07084786 0.34807098
0.4095632 0.9953416 0.07919538 0.056318577 0.26182866 0.0014914139 0.22020513 0.047998626
0.39563873 0.71594155 0.097938724 0.44316068 0.18984467 0.5540305 0.087981515 0.010707909
0.26256987 0.10775421 1.1719241 0.11002161 0.014327255 0.75936216 0.49730486 0.04541671
0.19384502 0.5679774 0.4071122 0.109594956 0.1741682 0.89683 0.58094525 0.009848255

exp_avg f4 [1, 40]
00000000: c840 cab9 2388 35bb de05 59ba 655e f539
00000010: ab26 1739 bc80 2a3a f277 b5b9 29d9 033b
00000020: 2ca1 313a 2baa 833a b591 0bb9 5d98 bc38
00000030: cd41 3c3a 4935 24b9 6d27 013a e5f8 073a
00000040: 5b22 4cba 8e8d a43a e104 8539 b69a 80ba
00000050: 2949 4f3a 40bc 16ba f3a3 b439 3bb2 bfb9
00000060: 8f43 89b9 4248 113a 2616 b4ba fe6a 4c3a
00000070: 8226 afb9 754f 843a 2d7d a839 f311 fc39
00000080: 4a09 753a e5db 2d3a 1ff3 6eba b316 4fba
00000090: 5e08 36ba 50d8 69ba a062 a9ba da95 d5b9
-0.00038576708 -0.0027699552 -0.00082787673 0.0004680037 0.00014414887 0.0006504168 -0.00034612376 0.0020118451
0.00067760306 0.0010045221 -0.00013310353 8.9929184e-05 0.0007181436 -0.00015660109 0.00049268344 0.00051869295
-0.0007787102 0.0012554394 0.00025371372 -0.0009811732 0.0007907325 -0.00057500973 0.00034454427 -0.0003656315
-0.0002618101 0.0005542078 -0.0013739511 0.00077979255 -0.00033407292 0.0010094481 0.0003213672 0.0004807856
0.00093473925 0.0006632193 -0.00091152074 -0.0007899806 -0.0006943996 -0.00089204777 -0.0012923069 -0.00040738174

exp_avg_sq f4 [1, 40]
00000000: 2dbb 9b39 3a2f 7739 b2f0 c139 e290 b439
00000010: 320d f336 4fdd 7939 fa18 b538 d8fa 1339
00000020: 0229 4539 fd69 013a 317b be38 23c8 e138
00000030: c955 4539 ff3a 4038 f814 0439 a0ab 7b38
00000040: cd5c 8a39 6947 8039 2a1d d938 5fa2 a239
00000050: 3ae2 5639 6548 a139 bc07 af38 8ea6 bb38
00000060: 031f 6439 7f09 0039 e059 283a 8996 f938
00000070: 40df eb37 f2c2 9939 c7c1 9739 59e7 3a38
00000080: a947 0839 83b9 b339 5df3 b739 b2bd 2f38
00000090: af03 8b38 640a f839 1673 6239 40ab 6d37
0.0002970336 0.00023573349 0.0003699116 0.00034440221 7.2435005e-06 0.00023828934 8.635405e-05 0.00014112459
0.0001880266 0.0004936753 9.082852e-05 0.000107661144 0.00018819341 4.583131e-05 0.00012596312 6.00029e-05
0.00026390553 0.00024467267 0.000103527986 0.00031020024 0.00020492906 0.0003076225 8.346091e-05 8.947878e-05
0.00021755327 0.00012210569 0.0006422084 0.000119012846 2.8118142e-05 0.0002932768 0.0002894534 4.4561315e-05
0.00012996666 0.00034279758 0.000350858 4.189992e-05 6.6287226e-05 0.00047309988 0.00021595912 1.4166173e-05
