lightning_logs/version_16/checkpoints/epoch=28-step=1450.ckpt (torch, 330670 bytes, 33 tensors)

model.param_proj.proj.0.weight f4 [1, 40]
-0.066133074 -0.05592661 0.14177181 -0.0052795117 -0.12566248 -0.30577707 -0.11901668 0.16322358
-0.26936683 -0.07592675 -0.007763983 -0.27447173 -0.24147621 -0.017514134 -0.56503046 -0.25617707
0.3622002 0.81750715 -0.11930913 -0.04332459 -0.08980457 0.038364142 -0.052234426 -1.041318
0.09315522 -0.63711846 -0.16531517 0.098877035 0.06410104 0.06268482 0.5791245 0.020993909
0.08657114 -0.009878569 0.0322863 -0.13199002 -0.31355736 -0.2241872 -0.047356877 -0.04452763
00000000: c770 87bd 4d13 65bd a12c 113e c1ff acbb
00000010: aaad 00be d08e 9cbe 04bf f3bd 1524 273e
00000020: 73ea 89be 7c7f 9bbd 0369 febb 8f87 8cbe
00000030: 8a45 77be cd79 8fbc d6a5 10bf a429 83be
00000040: 4e72 b93e 2648 513f 5858 f4bd 2075 31bd
00000050: 75eb b7bd b823 1d3d c4f3 55bd e949 85bf
00000060: 2ac8 be3d 321a 23bf 6148 29be 0b80 ca3d
00000070: 6847 833d e660 803d 8141 143f 6bfb ab3c
00000080: 364c b13d b9d9 21bc a43e 043d 6428 07be
00000090: 978a a0be 5491 65be 49f9 41bd 9b62 36bd

model.param_proj.proj.1.weight f4 [1, 40]
-0.121161595 0.12594898 0.16742857 -0.09624173 -0.20028664 -0.11228795 -0.086318776 0.05054882
-0.23265377 0.12353385 -0.04590003 -0.030046202 0.034439504 0.2844779 0.25781742 -0.027013715
0.16098604 -0.35630438 0.19766688 -0.0056044823 -0.27453512 0.06295989 0.09438231 0.11180561
-0.11038389 -0.062439807 -0.1996111 0.19272095 0.29874718 0.062601134 -0.028750172 -0.10762764
0.20498107 0.24385914 0.049825933 -0.07023053 0.17902535 -0.22894554 0.13317294 -0.08036054
00000000: 9223 f8bd c5f8 003e 6572 2b3e 621a c5bd
00000010: f117 4dbe 3af7 e5bd e6c7 b0bd 480c 4f3d
00000020: ca3c 6ebe 51ff fc3d ab01 3cbd 7423 f6bc
00000030: 7010 0d3d 16a7 913e a500 843e de4b ddbc
00000040: 86d9 243e 876d b6be 3069 4a3e cea5 b7bb
00000050: de8f 8cbe 1df1 803d 834b c13d 57fa e43d
00000060: f310 e2bd e2c0 7fbd da66 4cbe a458 453e
00000070: 64f5 983e 0635 803d 7b85 ebbc e16b dcbd
00000080: 8fe6 513e 36b6 793e 4716 4c3d 06d5 8fbd
00000090: 6c52 373e b370 6abe 7d5e 083e 1194 a4bd

model.param_proj.proj.2.weight f4 [1, 40]
-0.19802402 -0.11898055 -0.08241091 0.15224259 0.02831931 -0.21817514 0.13244468 -0.12639964
-0.11423827 -0.087058365 0.21799973 -0.35274726 0.3803144 -0.0618973 0.17770344 0.18129644
0.053794518 -0.3930068 -0.15715034 0.30490404 -0.120623454 0.117871754 -0.20756266 0.39889312
0.073524624 0.45573574 0.040208012 0.16990279 0.094169214 -0.06580678 -0.34956983 0.11340366
-0.17076644 -0.024980832 -0.3124107 -0.35048336 0.285095 0.03908574 -0.15353228 -0.13664193
00000000: cfc6 4abe 13ac f3bd 0dc7 a8bd 7be5 1b3e
00000010: e6fd e73c 4e69 5fbe 949f 073e e86e 01be
00000020: c1f5 e9bd a84b b2bd 523b 5f3e 4a9b b4be
00000030: 92b8 c23e 0688 7dbd e4f7 353e c6a5 393e
00000040: a457 5c3d 3038 c9be 05ec 20be 621c 9c3e
00000050: 6e09 f7bd bf66 f13d 4e8b 54be b83b cc3e
00000060: 1494 963d 3256 e93e 28b1 243d fffa 2d3e
00000070: cadb c03d b4c5 86bd d1fa b2be 2e40 e83d
00000080: 66dd 2ebe 9aa4 ccbc 4cf4 9fbe 8e72 b3be
00000090: f9f7 913e 5e18 203d 9137 1dbe ddeb 0bbe

model.rnn.weight_ih_l0 f4 [160, 37]
-0.10000435 -0.060498193 -0.03791183 0.02344817 -0.07643383 -0.011576948 0.09437544 0.021578252
-0.08780056 0.074034795 0.027066506 -0.106730156 -0.12900576 0.021526638 -0.067764714 -0.09208964
0.11385438 -0.12239862 0.080209345 0.017104289 -0.0770311 0.12112163 0.026456812 0.06680645
-0.011444234 0.17072147 0.021176843 -0.4462714 -0.5234376 -0.534267 -0.0621833 -0.0401248
0.08744758 -0.4007661 0.5730594 0.024927335 0.086807206 -0.002558488 0.1745558 0.12455012
-0.061931774 -0.009247983 0.17796774 -0.051070657 0.092402525 -0.09912606 -0.06882555 0.084238224
0.0516868 0.033130325 0.018903177 0.12001936 -0.0048988713 0.14605644 0.22461936 0.19840181
0.15575054 -0.14637639 0.075395666 -0.07188617 -0.009864344 -0.035829406 0.23916988 0.035454072
0.18671873 0.17467314 0.1257142 -0.113321476 0.039553955 0.11422182 -0.55416834 0.50395197
-0.41680706 -0.11334939 0.067974076 -0.07269822 0.18975024 0.048948165 -0.078359604 0.17401788
0.15527242 0.034657165 -0.030734565 0.08412213 0.20428275 -0.10503688 0.032342862 0.011979165
0.07776411 -0.014670641 0.024458954 0.06901623 0.05606638 0.053976428 0.15920383 -0.0931558
0.10362534 0.09500418 -0.15357345 -0.19773366 0.044949956 -0.10996274 -0.2960313 -0.21255267
0.044400077 0.029467857 0.19381101 0.40987378 -0.3023594 0.05831011 0.036014482 0.0056922883
-0.19860008 0.057364102 0.017437417 -0.043500606 -0.11447993 0.03493005 -0.10740009 0.011359941
-0.049764454 -0.03146686 -0.12358621 -0.099093094 -0.040356927 -0.1812703 -0.019341273 -0.0989532
-0.032344952 0.011812275 -0.052832443 -0.13066718 0.10228308 -0.12244559 0.093649834 0.09695296
-0.17500213 -0.17620385 -0.23001803 -0.10513383 -0.20814301 -0.08125572 -0.0084455 -0.08985207
0.39280412 -0.25925714 0.26830631 0.14904307 0.18857718 0.10132313 0.15779899 0.25398028
0.07344519 0.087751016 0.20622857 0.08440199 0.29885307 0.24463817 0.2131809 0.27031124
0.15782648 0.064413756 -0.019340742 0.014995176 -0.08256141 -0.09670654 -0.13271284 0.19307344
0.07169417 -0.16117036 0.008961353 -0.12704663 -0.13952826 -0.05946468 0.026609516 0.10134703
0.007615077 0.061845426 0.2165383 0.009206354 0.034307774 -0.20592873 0.1160486 -0.147633
-0.016648598 0.07042712 0.034952305 0.17907508 0.10879827 0.012430334 0.17338003 0.17884009
-0.05309475 -0.012184553 0.015543004 0.08306941 -0.0032771952 0.13296866 0.116561964 0.15280241
0.12930663 -0.042900115 -0.0013154389 0.09855398 0.15208298 0.028834142 0.23397177 0.010731661
-0.021162502 -0.02217182 0.035456106 0.090421624 -0.020364067 -0.0014495449 -0.0371147 0.1612313
-0.025545081 0.017808264 -0.042701427 -0.22473669 -0.21953143 0.05287784 0.13327381 0.21843144
0.08285274 0.042132277 0.0846921 -0.0071401503 8.1755476e-05 0.046329763 -0.00036698495 -0.020070756
0.08134429 0.14931524 -0.07344648 0.19454238 0.066718586 0.029871305 0.013893771 0.11984659
0.074758984 0.09005911 0.11980033 0.18151282 0.023809677 0.13632344 0.15090527 0.2143621
0.16134815 0.1989526 0.08143841 0.024224397 0.21242356 0.012943741 0.078577295 0.3240583
00000000: 15cf ccbd f4cc 77bd 6f49 1bbd 6016 c03c
00000010: 5789 9cbd 3dad 3dbc e947 c13d e0c4 b03c
00000020: c8d0 b3bd 8e9f 973d 94ba dd3c 5795 dabd
00000030: 161a 04be a258 b03c 3ac8 8abd 7e99 bcbd
00000040: 7c2c e93d 21ac fabd cc44 a43d 4b1e 8c3c
00000050: 7bc2 9dbd 9e0e f83d f5bb d83c d2d1 883d
00000060: 9980 3bbc 9cd1 2e3e 0f7b ad3c af7d e4be
00000070: 0200 06bf b9c5 08bf eab3 7ebd e759 24bd
00000080: b817 b33d 3731 cdbe 05b4 123f 6934 cc3c
00000090: fac7 b13d 4eac 27bb c1be 323e 2214 ff3d
000000a0: 2cac 7dbd da84 17bc 2d3d 363e 772f 51bd
000000b0: 893d bd3d 9b02 cbbd 69f4 8cbd 1785 ac3d
000000c0: 8ab5 533d aab3 073d d6da 9a3c b6cc f53d
000000d0: b686 a0bb d28f 153e 9e02 663e d829 4b3e
000000e0: 127d 1f3e b1e3 15be 0b69 9a3d 0e39 93bd
000000f0: 0f9e 21bc dbc1 12bd f3e8 743e 4a38 113d
00000100: 3233 3f3e 84dd 323e 39bb 003e 1715 e8bd
00000110: 5403 223d 21ed e93d fadd 0dbf ff02 013f
00000120: bc67 d5be ba23 e8bd fe35 8b3d cee2 94bd
00000130: e34d 423e df7d 483d 007b a0bd be31 323e
00000140: bcff 1e3e acf4 0d3d 0ec7 fbbc 3948 ac3d
00000150: 7f2f 513e 931d d7bd f379 043d 4244 443c
00000160: ca42 9f3d 215d 70bc 255e c83c 6258 8d3d
00000170: dca5 653d 6316 5d3d 5406 233e 78c8 bebd
00000180: 8639 d43d 8d91 c23d 5c42 1dbe b17a 4abe
00000190: 721d 383d 2534 e1bd 6a91 97be 68a7 59be
000001a0: dbdc 353d 9366 f13c 6576 463e fada d13e
000001b0: dace 9abe 95d6 6e3d ec83 133d 6086 ba3b
000001c0: d25d 4bbe 9ff6 6a3d ead8 8e3c b12d 32bd
000001d0: 7474 eabd d012 0f3d 94f4 dbbd 0c1f 3a3c
000001e0: d0d5 4bbd 65e3 00bd c41a fdbd 52f1 cabd
000001f0: 4e4d 25bd ec9e 39be 9771 9ebc faa7 cabd
00000200: 247c 04bd 4688 413c d566 58bd 9ecd 05be
00000210: cb79 d13d c1c4 fabd 7ccb bf3d 468f c63d
00000220: c233 33be c86e 34be d989 6bbe 6850 d7bd
00000230: 7123 55be 6669 a6bd ff5e 0abc 5d04 b8bd
00000240: 9f1d c93e 5abd 84be 725f 893e bf9e 183e
00000250: 601a 413e 8082 cf3d 0f96 213e b409 823e
00000260: 6f6a 963d ceb6 b33d 952d 533e f3da ac3d
00000270: 4503 993e 6e82 7a3e 184c 5a3e 3c66 8a3e
00000280: 449d 213e 5ceb 833d 7a70 9ebc 54ae 753c
00000290: f515 a9bd 140e c6bd e0e5 07be 0bb5 453e
000002a0: 65d4 923d d809 25be a4d2 123c 8318 02be
000002b0: 7fe0 0ebe 3c91 73bd 33fc d93c 088f cf3d
000002c0: e587 f93b a151 7d3d 37bc 5d3e 3fd6 163c
000002d0: 4f86 0c3d fbde 52be e3aa ed3d 1b2d 17be
000002e0: a462 88bc 183c 903d 262a 0f3d 755f 373e
000002f0: a1d1 de3d 9aa8 4b3c 898a 313e db21 373e
00000300: e179 59bd b8a1 47bc 15a8 7e3c 4b20 aa3d
00000310: 36c6 56bb f028 083e 0ab8 ee3d 3c78 1c3e
00000320: f568 043e 08b8 2fbd ce6a acba abd6 c93d
00000330: a4bb 1b3e 9435 ec3c 4c96 6f3e d9d3 2f3c
00000340: fc5c adbc ada1 b5bc 6c3a 113d f92e b93d
00000350: 8bd2 a6bc a8fe bdba 9505 18bd d119 253e
00000360: eb43 d1bc a3e2 913c b1e7 2ebd 6021 66be
00000370: d9cc 60be 6f96 583d ee78 083e 7eac 5f3e
00000380: b3ae a93d e592 2c3d 0d73 ad3d ecf7 e9bb
00000390: 2374 ab38 47c4 3d3d e367 c0b9 6d6b a4bc
000003a0: d697 a63d 18e6 183e 1c6b 96bd 1e36 473e
000003b0: c1a3 883d abb4 f43c b3a2 633c 2172 f53d
000003c0: 3d1b 993d e970 b83d e059 f53d 7fde 393e
000003d0: 830c c33c 5f98 0b3e e986 1a3e bd81 5b3e
000003e0: 7338 253e 3bba 4b3e 2ec9 a63d 3e72 c63c
000003f0: 9085 593e fc11 543c 22ed a03d f8ea a53e

model.rnn.weight_hh_l0 f4 [160, 40]
-0.213589 0.10757403 0.018199135 -0.02957451 0.15041623 -0.23882072 -0.16950445 0.08098356
0.14418001 -0.108274676 0.12867212 0.034534447 0.019682894 -0.19019042 -0.18150775 -0.16511337
-0.21477981 -0.04138724 -0.08259041 -0.1758423 -0.18241124 -0.008942795 -0.14439835 0.3124802
-0.074738905 -0.020717064 0.06413804 0.04615595 0.20150489 0.19755317 -0.032613922 -0.32587105
0.069692135 -0.118582115 -0.18547596 0.07479609 0.20222978 -0.03612556 0.11891347 -0.17012553
0.10865359 0.05722295 -0.092613615 0.061739802 -0.13689733 0.12093455 0.15274693 -0.014236554
0.08463573 -0.026086308 -0.055329498 -0.17554313 -0.19789429 -0.009484828 -0.041161213 -0.043409005
-0.1658508 0.12350402 0.21656668 0.043467037 0.024487296 0.065886416 0.122378185 0.18065478
0.119863436 0.08984101 0.09111953 -0.07419188 0.06484869 -0.014715458 -0.062224876 -0.07009264
0.032938596 0.12300026 0.1173214 -0.0131773325 0.05824354 0.24928312 0.07618274 0.19870682
0.16122718 0.045472655 -0.0035725897 0.058769707 0.089111894 -0.10273441 0.26983625 -0.017457806
0.08604684 0.047779243 0.0017281733 0.009989527 0.14364566 -0.029870557 0.06401658 -0.032228373
-0.12953788 0.17970903 0.15610091 0.075938255 0.06433459 -0.095701635 0.024731591 -0.16891322
-0.13886216 -0.12665331 0.011035298 -0.042000152 -0.0631789 -0.14453903 0.076842606 -0.14261544
0.1548678 -0.008210767 -0.047816135 0.11581032 0.070516326 -0.044357367 0.00432008 -0.11720215
0.16086829 -0.05529522 0.1363042 -0.04021845 -0.028124198 0.07470317 0.21037942 -0.13308379
-0.07692667 -0.08873396 0.0368783 0.05444397 0.032673784 -0.10655482 0.09484656 -0.12100437
0.16819564 0.02727082 0.21142957 -0.15030976 0.15406887 -0.15315866 -0.18616465 -0.08387947
-0.065552175 -0.12406447 -0.1074409 0.061201036 -0.01908768 0.03482869 0.024579253 -0.0737746
-0.010942409 0.07775276 -0.054189447 -0.043680206 0.06282721 0.02050934 -0.0030653458 0.045628674
-0.011222338 -0.08371654 0.045632347 0.004828404 0.03066012 -0.091181666 -0.13493676 0.07104102
0.08804412 -0.033460878 0.26925576 -0.017059239 -0.12370436 -0.045844406 0.09923346 -0.029201359
0.04953969 -0.035704978 0.038652975 0.025620107 0.06273371 -0.040776305 -0.016551135 -0.21744804
-0.23697895 -0.11806984 -0.046350423 -0.2965786 -0.051519625 -0.025888588 0.0293296 -0.014920637
0.15069498 0.1321605 0.004813664 0.14136843 -0.46232113 -0.26383808 -0.019447336 -0.0020038672
0.044788398 0.077165775 0.15655383 -0.14071845 -0.08988387 0.20099717 -0.16947715 -0.19091623
-0.09152758 -0.12176952 -0.24507271 0.0010304048 0.037718076 -0.016201291 0.035633314 0.34260494
-0.15241945 -0.04980702 -0.18348147 -0.13826512 0.01746759 -0.109366074 -0.14264463 -0.28160906
-0.12624507 -0.06542754 0.08157608 -0.27607986 -0.1685768 -0.08013311 -0.16541871 0.11130522
0.18429078 0.11372178 -0.15501262 -0.054976452 0.16479515 0.28685084 0.0793571 0.23534487
0.083629236 -0.10579384 0.15846547 -0.4145435 0.085448064 -0.06646209 0.08769284 -0.28311196
0.072532736 -0.1453962 0.03127361 -0.2076527 0.08986029 0.21075976 0.15938367 -0.41926897
00000000: 13b7 5abe c64f dc3d 5a16 953c 3e46 f2bc
00000010: b606 1a3e 6b8d 74be 9392 2dbe b5da a53d
00000020: eda3 133e 1dbf ddbd a0c2 033e fe73 0d3d
00000030: 053e a13c 47c1 42be 2bdd 39be 7b13 29be
00000040: 3def 5bbe ab85 29bd 2925 a9bd 0110 34be
00000050: 03ca 3abe cd84 12bc 29dd 13be 68fd 9f3e
00000060: b610 99bd d5b6 a9bc ce5a 833d 050e 3d3d
00000070: 4c57 4e3e 614b 4a3e 2d96 05bd 92d8 a6be
00000080: c0ba 8e3d 2edb f2bd 69ed 3dbe b12e 993d
00000090: 5315 4f3e 65f8 13bd e888 f33d 6335 2ebe
000000a0: c685 de3d 9d62 6a3d 35ac bdbd e0e2 7c3d
000000b0: d02e 0cbe 89ac f73d b169 1c3e 6f40 69bc
000000c0: 7f55 ad3d f4b2 d5bc 2fa1 62bd 94c1 33be
000000d0: cda4 4abe 4166 1bbc a998 28bd a4cd 31bd
000000e0: cbd4 29be adef fc3d a8c3 5d3e 7e0a 323d
000000f0: 9599 c83c 75ef 863d 6aa1 fa3d 91fd 383e
00000100: f67a f53d 90fe b73d e09c ba3d eaf1 97bd
00000110: 64cf 843d 1b19 71bc 83df 7ebd bb8c 8fbd
00000120: 9fea 063d 8fe7 fb3d 3446 f03d bde5 57bc
00000130: c790 6e3d 1344 7f3e b205 9c3d cd79 4b3e
00000140: bd18 253e 8941 3a3d 1c22 6abb 81b8 703d
00000150: 4c80 b63d 6b66 d2bd fa27 8a3e ac03 8fbc
00000160: 5339 b03d 2bb4 433d e083 e23a 1dab 233c
00000170: d917 133e 19b3 f4bc 201b 833d e601 04bd
00000180: 94a5 04be a505 383e ebd8 1f3e 8485 9b3d
00000190: dbc1 833d 38ff c3bd e899 ca3c 96f7 2cbe
000001a0: e231 0ebe 68b1 01be 65cd 343c 5a08 2cbd
000001b0: f063 81bd 0a02 14be a85f 9d3d c809 12be
000001c0: aa95 1e3e 7486 06bc dada 43bd f62d ed3d
000001d0: dd6a 903d 12b0 35bd 758f 8d3b ae07 f0bd
000001e0: a8ba 243e 3e7d 62bd 5493 0b3e 1abc 24bd
000001f0: b864 e6bc fafd 983d b46d 573e 1e47 08be
00000200: bb8b 9dbd 27ba b5bd b30d 173d a400 5f3d
00000210: f2d4 053d 6a39 dabd ea3e c23d 24d1 f7bd
00000220: 7a3b 2c3e 0e67 df3c fe80 583e cdea 19be
00000230: 3bc4 1d3e a0d5 1cbe f2a1 3ebe 00c9 abbd
00000240: 3840 86bd 8315 febd f909 dcbd f0ad 7a3d
00000250: c45d 9cbc 87a8 0e3d 6e5a c93c 2317 97bd
00000260: ca47 33bc d73c 9f3d c1f5 5dbd 04ea 32bd
00000270: 8dab 803d 3403 a83c f8e3 48bb 22e5 3a3d
00000280: e6dd 37bc 9473 abbd fce8 3a3d 9737 9e3b
00000290: ef2a fb3c 74bd babd dd2c 0abe f47d 913d
000002a0: 7a50 b43d 460e 09bd e4db 893e d1bf 8bbc
000002b0: b658 fdbd 58c7 3bbd ea3a cb3d b037 efbc
000002c0: 21ea 4a3d 623f 12bd 9552 1e3d 42e1 d13c
000002d0: 887a 803d 0e05 27bd 3f96 87bc b3aa 5ebe
000002e0: 9caa 72be 9ace f1bd f1d9 3dbd 26d9 97be
000002f0: 3e06 53bd 4e14 d4bc a144 f03c b075 74bc
00000300: c94f 1a3e 1555 073e f1bb 9d3b e3c2 103e
00000310: 5bb5 ecbe c915 87be 0550 9fbc 5053 03bb
00000320: 0a74 373d 1709 9e3d a64f 203e 7f18 10be
00000330: 0915 b8bd 34d2 4d3e 6b8b 2dbe 8b7f 43be
00000340: d072 bbbd 4c62 f9bd 57f4 7abe a60e 873a
00000350: 457e 1a3d 92b8 84bc 3df4 113d ea69 af3e
00000360: d813 1cbe 7202 4cbd 91e2 3bbe 5f95 0dbe
00000370: 3118 8f3c 52fb dfbd 6f11 12be 102f 90be
00000380: 6346 01be e0fe 85bd 5c11 a73d 575a 8dbe
00000390: 669f 2cbe d41c a4bd 8663 29be fef3 e33d
000003a0: b9b6 3c3e f7e6 e83d a1bb 1ebe fd2e 61bd
000003b0: 0fc0 283e 1dde 923e fa85 a23d 3ffe 703e
000003c0: ce45 ab3d 71aa d8bd c644 223e 0c3f d4be
000003d0: 65ff ae3d 471d 88bd 4e98 b33d 0df4 90be
000003e0: 0b8c 943d bee2 14be c218 003d e9a2 54be
000003f0: ac08 b83d 68d1 573e 7935 233e 6caa d6be

model.rnn.bias_ih_l0 f4 [160]
-0.11862118 0.08944823 0.13674632 -0.09482415 0.10775036 -0.09833964 0.09228308 0.053457774
-0.06645796 0.24287754 -0.011495779 0.148 0.061379306 0.100354105 0.02581108 0.017399486
-0.01414407 0.09147432 0.17077051 0.12094915 -0.11063922 0.074494466 -0.032378655 -0.15210685
0.24384865 0.1597702 -0.11341392 0.3844007 -0.033948433 0.015235094 0.0732231 0.16836017
0.068559274 -0.13207935 0.08903025 -0.040545147 0.13245352 0.12664238 0.15986466 0.024404217
0.08900625 0.08348475 -0.10310563 0.14539611 0.04942067 -0.028526032 0.0075976644 0.0754001
0.0013388854 -0.07384012 -0.006441466 0.04949811 0.017014526 -0.022226756 -0.014924915 -0.056134462
0.11781861 -0.08702212 0.11508344 0.0692438 0.05997717 0.12960503 0.10147891 -0.07163754
0.08458362 0.013173269 0.10571997 0.069671445 0.107573375 -0.09837092 0.047952462 0.105549894
0.041030586 0.12888362 -0.029047552 -0.15253335 0.08787911 -0.15432252 -0.21960776 0.119509436
0.03576735 0.0035916327 0.17127721 0.060985696 0.14288495 0.15720156 -0.048814844 -0.12430023
-0.16421458 -0.072127275 -0.11106415 0.042204015 -0.007552466 -0.04699439 0.0713234 0.055892825
0.17576478 0.2018221 -0.091739446 -0.10375572 -0.018819327 0.07841734 -0.06799173 0.007603871
-0.15335506 -0.03764041 -0.0131142065 0.0983746 0.20183317 -0.052383155 0.021458194 -0.030578233
-0.18598951 0.044741638 -0.049068846 0.15468904 -0.010573227 0.032421205 0.07516766 0.02811281
0.09734257 -0.066223145 0.12374016 0.07054659 -0.0073804352 -0.04247397 0.07420314 0.048994873
-0.052316986 0.112301685 0.07291406 -0.014090451 0.021419868 -0.036134753 0.08673478 -0.16680472
-0.04071183 -0.0030324596 -0.002208401 0.22095142 -0.06545502 0.07238019 0.028172683 0.013285861
0.33345544 0.05297982 -0.044989537 0.15305702 0.1006135 0.12315475 -0.12275215 -0.13738078
0.15193902 -0.09833675 0.16495898 0.16613941 0.024021694 0.13211693 0.04538902 -0.030173123
00000000: a9ef f2bd a230 b73d 3a07 0c3e 2a33 c2bd
00000010: 39ac dc3d 4b66 c9bd e9fe bc3d 8af6 5a3d
00000020: 1c1b 88bd e4b4 783e cb58 3cbc 508d 173e
00000030: de68 7b3d 7486 cd3d c271 d33c 5e89 8e3c
00000040: 88bc 67bc e356 bb3d 77de 2e3e 30b4 f73d
00000050: d196 e2bd 8e90 983d 7b9f 04bd e6c1 1bbe
00000060: 76b3 793e cd9a 233e 8f45 e8bd 2bd0 c43e
00000070: 830d 0bbd 9e9c 793c fef5 953d 9c66 2c3e
00000080: ce68 8c3d cf3f 07be 7e55 b63d ab12 26bd
00000090: e5a1 073e 8aae 013e 90b3 233e 5aeb c73c
000000a0: e948 b63d 0dfa aa3d 0b29 d3bd b8e2 143e
000000b0: 546d 4a3d 6daf e9bc d4f5 f83b 5e6b 9a3d
000000c0: 8a7d af3a 7d39 97bd ef12 d3bb 88be 4a3d
000000d0: 0c62 8b3c e314 b6bc a187 74bc 40ed 65bd
000000e0: e24a f13d a738 b2bd deb0 eb3d b2cf 8d3d
000000f0: 9faa 753d 2eb7 043e 2dd4 cf3d b4b6 92bd
00000100: 2d3a ad3d b2d4 573c b683 d83d e7af 8e3d
00000110: 6e4f dc3d b176 c9bd cd69 443d 8b2a d83d
00000120: b00f 283d 11fa 033e 22f5 edbc b431 1cbe
00000130: f6f9 b33d b906 1ebe dbe0 60be 5dc1 f43d
00000140: c980 123d 9961 6b3b 4b63 2f3e 23cc 793d
00000150: 6f50 123e 72f9 203e 13f2 47bd 1e91 febd
00000160: de27 28be 77b7 93bd 9a75 e3bd 1ede 2c3d
00000170: ad7a f7bb 317d 40bd 0112 923d e0ef 643d
00000180: affb 333e 74aa 4e3e e4e1 bbbd e17d d4bd
00000190: fd2a 9abc 4599 a03d 403f 8bbd e529 f93b
000001a0: 1c09 1dbe d52c 1abd f8dc 56bc 9f78 c93d
000001b0: 5bad 4e3e b88f 56bd 18c9 af3c 347f fabc
000001c0: 0974 3ebe 0243 373d 6afc 48bd ce66 1e3e
000001d0: 543b 2dbc 19cc 043d 81f1 993d d64c e63c
000001e0: 8b5b c73d 00a0 87bd 7b6b fd3d bb7a 903d
000001f0: 94d7 f1bb 30f9 2dbd d1f7 973d d9ae 483d
00000200: 564a 56bd 6dfe e53d f753 953d a3db 66bc
00000210: b878 af3c 0902 14bd 01a2 b13d dbce 2abe
00000220: 73c1 26bd 3bbc 46bb d2ba 10bb 1741 623e
00000230: 480d 86bd 113c 943d 66ca e63c f1ac 593c
00000240: acba aa3e 5e01 593d f346 38bd fbba 1c3e
00000250: 730e ce3d 8f38 fc3d 7b65 fbbd 8cad 0cbe
00000260: e795 1b3e c764 c9bd 02eb 283e 7320 2a3e
00000270: 25c9 c43c a949 073e d6e9 393d a02d f7bc

model.rnn.bias_hh_l0 f4 [160]
0.038242925 0.088538736 0.07735921 0.1478411 0.14904194 0.16201437 0.3295995 0.11851464
0.15155163 0.22191364 -0.008709786 -0.15834408 0.009576949 0.084717 0.12849705 -0.027390076
0.2270762 0.16344516 0.08485835 0.3021209 -0.09789252 -0.02565438 0.07079918 -0.12470864
0.33324876 0.026534447 0.058048718 0.13349147 0.14925726 0.1138804 0.122709244 -0.09797138
0.29042175 0.07235745 -0.022346603 -0.048276417 -0.07786813 0.17869692 0.08467585 0.067348264
-0.0010751149 -0.022853313 -0.095435135 -0.08123976 -0.030569162 0.07290171 0.0893756 0.1684439
-0.041521043 0.19008557 0.02942792 -0.1471796 0.13502946 -0.053557917 0.024558337 0.09956462
-0.026526479 0.017018482 0.13647646 -0.025579346 -0.16948052 0.0925493 -0.010101799 0.041917976
-0.07357493 -0.014577086 0.04696324 0.19130526 0.10152793 -0.049649183 0.07445662 0.12690042
0.07965862 0.09819171 -0.0462471 0.035707988 0.12778254 -0.037503965 -0.12649709 -0.050305713
0.04810497 -0.02067157 0.24542187 0.09328401 -0.09524412 -0.13451143 -0.12159709 -0.04325936
-0.004488488 0.025037594 0.08755637 -0.07058297 -0.1368403 0.03027135 -0.1002078 -0.07750311
-0.031700075 -0.042654358 -0.09650098 -0.114994384 0.097416274 0.03145857 -0.17752747 0.1441614
-0.002220945 -0.09169738 0.12362995 0.061264865 0.04369056 -0.03232857 -0.12844792 -0.10698547
-0.1560332 -0.09795853 0.11030385 -0.034501117 0.0009995416 -0.11891008 0.03969463 0.0019086368
-0.043969743 0.074768916 0.0875727 -0.109286435 -0.09142845 0.033756845 0.05569097 0.14490736
0.13842624 -0.019637408 -0.011769416 0.026751792 -0.14094165 -0.028452778 0.08888254 0.047153596
-0.020400628 0.108952105 -0.114361204 0.027277341 -0.06232714 -0.004215027 -0.04823543 -0.1006731
0.10184728 -0.12201506 0.10095056 -0.045361083 -0.12264094 0.18973194 0.117471606 0.14231215
-0.02495335 0.05976629 0.18730138 0.14555307 0.18348506 0.22325343 0.30098563 -0.010578601
00000000: 9da4 1c3d cc53 b53d 816e 9e3d a863 173e
00000010: 739e 183e 18e7 253e 44c1 a83e ceb7 f23d
00000020: 5a30 1b3e 543d 633e 7eb3 0ebc f324 22be
00000030: a3e8 1c3c 1b80 ad3d bb94 033e 2761 e0bc
00000040: aa86 683e 2b5e 273e 37ca ad3d 97af 9a3e
00000050: e07b c8bd 2229 d2bc 29ff 903d 3e67 ffbd
00000060: 959f aa3e c55e d93c 7ec4 6d3d fdb1 083e
00000070: e5d6 183e 213a e93d fc4e fb3d 38a5 c8bd
00000080: 29b2 943e 2530 943d 3910 b7bc 7ebd 45bd
00000090: 5379 9fbd 53fc 363e 886a ad3d e3ed 893d
000000a0: dfea 8cba df36 bbbc 7f73 c3bd 0861 a6bd
000000b0: 2e6c fabc 7e4d 953d 8e0a b73d 8f7c 2c3e
000000c0: f811 2abd cba5 423e d212 f13c 40b6 16be
000000d0: 2a45 0a3e 8c5f 5bbd 912e c93c 89e8 cb3d
000000e0: 0f4e d9bc 586a 8b3c 7cc0 0b3e c78b d1bc
000000f0: 4d8c 2dbe 7d8a bd3d 0482 25bc 2fb2 2b3d
00000100: 74ae 96bd bbd4 6ebc 875c 403d 87e5 433e
00000110: e0ed cf3d f15c 4bbd b67c 983d 2ff2 013e
00000120: 0f24 a33d bc18 c93d 996d 3dbd 8a42 123d
00000130: 6dd9 023e c29d 19bd 7488 01be 5d0d 4ebd
00000140: b809 453d 6d57 a9bc df4f 7b3e b00b bf3d
00000150: 590f c3bd 5dbd 09be e507 f9bd ba30 31bd
00000160: 2b14 93bb a41b cd3c c150 b33d ce8d 90bd
00000170: dd1f 0cbe 9ffb f73c bf39 cdbd f3b9 9ebd
00000180: f0d7 01bd 56b6 2ebd 4ea2 c5bd 2d82 ebbd
00000190: 2f82 c73d b4da 003d c3c9 35be 0c9f 133e
000001a0: 468d 11bb d6cb bbbd b331 fd3d def0 7a3d
000001b0: dff4 323d f66a 04bd da87 03be 331b dbbd
000001c0: 2bc7 1fbe 7b9e c8bd fce6 e13d 0b51 0dbd
000001d0: 0d03 833a 2187 f3bd d696 223d 392b fa3a
000001e0: 9e19 34bd 7220 993d 5159 b33d 91d1 dfbd
000001f0: d73e bbbd 9e44 0a3d 371c 643d 9862 143e
00000200: 9cbf 0d3e a1de a0bc 82d4 40bc 9326 db3c
00000210: 0253 10be cd15 e9bc 0d08 b63d 2124 413d
00000220: 381f a7bc 4822 df3d 3536 eabd bb74 df3c
00000230: be4a 7fbd 361e 8abb 8492 45bd b32d cebd
00000240: 4f95 d03d 08e3 f9bd 2bbf ce3d 8bcc 39bd
00000250: 2c2b fbbd 1749 423e f494 f03d 47ba 113e
00000260: f86a ccbc 7fcd 743d efcb 3f3e dd0b 153e
00000270: 82e3 3b3e 8c9c 643e ca1a 9a3e de51 2dbc

model.rnn.weight_ih_l1 f4 [160, 40]
0.16998252 -0.05261401 0.0046801525 -0.21103229 -0.1810872 -0.022990517 0.011392018 0.04036927
0.06294476 -0.16595861 -0.097647965 0.07120833 0.005855298 0.037362754 0.21044357 -0.08266441
-0.13500299 0.24906152 -0.102282815 0.12522857 0.27720532 0.07581176 -0.13671756 -0.14872542
-0.20858996 -0.17901005 0.1114707 0.014597541 -0.11430162 -0.18064629 -0.07627949 0.142221
-0.0083164405 0.132646 -0.13083237 0.063040674 0.03265543 0.117246434 0.24697284 -0.022704424
0.1629178 -0.09079723 -0.081198625 0.08446689 -0.116961144 0.13904133 0.002862264 0.0840031
0.040707797 0.049796473 0.100264445 -0.1410366 -0.071417764 0.039760895 -0.06384377 -0.20633887
-0.012163451 0.027226133 0.0391194 0.021222282 0.19507162 0.11639227 -0.07517118 0.17226756
-0.0937893 -0.03665918 0.12173633 0.09289704 -0.07926532 -0.16872285 0.10797582 0.024996025
-0.07009362 0.10299646 0.00038921178 -0.05075897 -0.11432954 -0.26989472 -0.009437562 -0.030410321
-0.014976495 -0.13248757 -0.04802488 0.090320125 -0.11748344 -0.043739595 -0.10800521 0.03154082
0.035114046 -0.023702778 -0.084003046 -0.14138907 -0.03339431 -0.021233443 0.08418199 -0.079089366
0.046599235 -0.034291197 0.097235404 0.18067193 -0.10890549 -0.0056119794 -0.042058434 0.0078808395
0.08646121 -0.12143188 0.13462085 0.08033771 0.0589581 -0.10944424 0.06394697 0.22164066
0.043583248 -0.10198111 0.066841 -0.1394515 0.017629892 -0.1476421 0.012992427 0.18038248
0.1850142 -0.21404052 0.18929058 -0.035540145 -0.19038723 0.2951583 -0.05385104 -0.16481155
-0.19014177 -0.115579166 -0.10016007 -0.13037795 -0.09275338 -0.10014255 0.15820496 -0.2132473
0.05303899 -0.03780124 0.059953094 -0.07486034 -0.0064087035 0.23168358 0.023547038 0.026115868
-0.18284138 0.08228542 0.080436714 -0.027846012 -0.15342575 -0.26099792 -0.17013751 0.11211242
0.06653905 0.21891151 0.029940043 0.015588607 -0.114040226 -0.072211295 0.019433567 0.14901023
0.020854415 -0.06727662 0.014214771 0.15430915 0.07570186 0.11344773 -0.08360461 0.05301949
0.009394004 0.03390632 -0.14894846 0.051867113 -0.025471706 -0.05257933 -0.0676114 -0.019612934
-0.150199 -0.032671746 0.05604252 -0.068354875 0.004086012 0.19424112 -0.13693352 -0.004258496
0.19216684 -0.15267101 0.102579795 -0.15680133 -0.1877951 -0.15086171 0.08928369 -0.05387289
0.068238616 -0.09805855 -0.011843012 -0.23822944 0.15792833 -0.06413207 -0.09682704 0.13917235
0.13548428 -0.032252036 -0.10727125 -0.07413554 -0.074306905 -0.19769241 -0.18384878 -0.137117
-0.07920039 -0.0024118875 -0.018251307 -0.1546472 -0.049987342 0.09487771 0.12147988 0.07578708
-0.14178352 0.13594784 -0.23062147 -0.12022439 0.2343413 -0.080556996 -0.09646731 -0.12118597
-0.2086497 -0.010834581 0.022939673 0.09668098 -0.056904152 0.032050148 -0.16976336 0.071259774
0.16868317 0.14947969 -0.12080512 0.00034478528 0.019293033 -0.05087766 0.19255935 0.12151693
-0.06718762 -0.095744416 0.17493212 -0.1756519 0.11493129 0.012843954 0.045301665 -0.007498677
0.13333116 -0.12777805 -0.12999597 0.04403946 -0.10271864 0.12224972 -0.15105313 -0.22457752
00000000: e60f 2e3e ca81 57bd f75b 993b d918 58be
00000010: ec6e 39be 9c56 bcbc 96a5 3a3c 3f5a 253d
00000020: 2fe9 803d 0ef1 29be a8fb c7bd acd5 913d
00000030: cddd bf3b b009 193d 857e 573e f54b a9bd
00000040: 393e 0abe fc09 7f3e a779 d1bd eb3b 003e
00000050: dbed 8d3e 3243 9b3d b0ff 0bbe 7a4b 18be
00000060: 9b98 55be 694e 37be c04a e43d 862a 6f3c
00000070: f816 eabd 57fb 38be 6c38 9cbd 62a2 113e
00000080: ae41 08bc 5ad4 073e ecf8 05be 781b 813d
00000090: b3c1 053d e61e f03d 73e6 7c3e a1fe b9bc
000000a0: ecd3 263e e6f3 b9bd 774b a6bd fafc ac3d
000000b0: 5389 efbd da60 0e3e d294 3b3b d109 ac3d
000000c0: 38bd 263d 63f7 4b3d 7257 cd3d e66b 10be
000000d0: 7a43 92bd 52dc 223d 86c0 82bd 7f4a 53be
000000e0: 3649 47bc 5709 df3c aa3b 203d 5ada ad3c
000000f0: dbc0 473e 125f ee3d 59f3 99bd e866 303e
00000100: 9b14 c0bd f027 16bd e650 f93d ce40 be3d
00000110: db55 a2bd afc5 2cbe 6d22 dd3d 77c4 cc3c
00000120: 3e8d 8fbd cfef d23d 1f0f cc39 a3e8 4fbd
00000130: 9b25 eabd a42f 8abe 01a0 1abc 111f f9bc
00000140: f95f 75bc d2aa 07be bdb5 44bd c2f9 b83d
00000150: 289b f0bd 4a28 33bd d631 ddbd f230 013d
00000160: bfd3 0f3d 542c c2bc ca09 acbd 4cc8 10be
00000170: 79c8 08bd c2f1 adbc 9b67 ac3d 9bf9 a1bd
00000180: d7de 3e3d ed74 0cbd 5b23 c73d 1002 393e
00000190: d709 dfbd b2e4 b7bb 7745 2cbd a31e 013c
000001a0: 9312 b13d 47b1 f8bd 0cda 093e 1988 a43d
000001b0: 0c7e 713d 4d24 e0bd a1f6 823d c5f5 623e
000001c0: 5984 323d 79db d0bd efe3 883d 60cc 0ebe
000001d0: 906c 903c 7e2f 17be 30de 543c 2fb6 383e
000001e0: 5d74 3d3e 702d 5bbe 64d5 413e 8b92 11bd
000001f0: dff4 42be fd1e 973e e892 5cbd 5cc4 28be
00000200: 86b4 42be c5b4 ecbd b920 cdbd cc81 05be
00000210: 7cf5 bdbd 8a17 cdbd 7b00 223e 805d 5abe
00000220: 693f 593d 79d5 1abd 6091 753d 6150 99bd
00000230: 1a00 d2bb 763e 6d3e b8e5 c03c f2f0 d53c
00000240: c53a 3bbe 4285 a83d 01bc a43d 521d e4bc
00000250: a41b 1dbe 85a1 85be 8738 2ebe 329b e53d
00000260: a045 883d 572a 603e d244 f53c 5b67 7f3c
00000270: ec8d e9bd 84e3 93bd 2533 9f3c 2396 183e
00000280: e1d6 aa3c 53c8 89bd 12e5 683c 3803 1e3e
00000290: 9409 9b3d 4957 e83d e538 abbd f72a 593d
000002a0: 4fe9 193c 5ae1 0a3d f285 18be 9c72 543d
000002b0: 0aaa d0bc 6c5d 57bd d877 8abd 4eab a0bc
000002c0: c4cd 19be cfd2 05bd d78c 653d a4fd 8bbd
000002d0: f4e3 853b 25e7 463e 4d38 0cbe db8a 8bbb
000002e0: 62c7 443e ca55 1cbe 5b15 d23d 8790 20be
000002f0: 5c4d 40be 7e7b 1abe 5eda b63d d2a9 5cbd
00000300: b0c0 8b3d ecd2 c8bd 3109 42bc 6bf2 73be
00000310: f7b7 213e ad57 83bd 414d c6bd 3283 0e3e
00000320: 64bc 0a3e b61a 04bd 07b1 dbbd 60d4 97bd
00000330: 382e 98bd e16f 4abe db42 3cbe 6668 0cbe
00000340: d033 a2bd c210 1ebb c483 95bc d65b 1ebe
00000350: 87bf 4cbd 3f4f c23d 71ca f83d 4236 9b3d
00000360: b32f 11be e935 0b3e 0928 6cbe 3438 f6bd
00000370: 2af7 6f3e 11fb a4bd a790 c5bd 5a30 f8bd
00000380: 44a8 55be 8783 31bc fbeb bb3c ad00 c63d
00000390: 5414 69bd 0447 033d 72d6 2dbe a5f0 913d
000003a0: 48bb 2c3e 3411 193e ad68 f7bd 4cc4 b439
000003b0: 6c0c 9e3c 1865 50bd 472e 453e dedd f83d
000003c0: aa99 89bd a615 c4bd 6821 333e 17de 33be
000003d0: 1961 eb3d 736f 523c 3d8e 393d 76b7 f5bb
000003e0: f787 083e 40d8 02be aa1d 05be b962 343d
000003f0: 265e d2bd 105e fa3d acad 1abe a6f7 65be

model.rnn.weight_hh_l1 f4 [160, 40]
0.04201554 0.19668594 0.27446035 -0.17277677 -0.07233064 0.25855225 -0.06211318 0.17490841
-0.06579899 0.12661836 -0.29730564 0.015743716 -0.20717329 -0.012784215 0.12245861 -0.23169102
-0.05673961 0.09777144 0.043735884 -0.10252445 -0.016281633 0.064331464 0.014061918 -0.06573552
-0.021068044 -0.18281782 -0.21547444 -0.13590603 0.14507471 0.24012484 0.04284214 -0.08401213
0.020070003 -0.11515359 0.15079066 0.0072243637 0.0969992 0.17384821 0.07263526 0.044908483
-0.056187045 0.13435799 -0.110329024 -0.017575929 -0.047288023 -0.049985398 -0.09145607 -0.057348073
0.08424399 0.06087362 -0.04825098 0.094917595 0.11823226 0.14497265 -0.02557427 -0.006224008
-0.077760644 -0.011177293 0.10336148 -0.1777256 0.012303417 0.08689082 0.019662986 -0.13139513
-0.19452171 -0.11958915 -0.09339591 -0.016446384 0.15684539 -0.01889099 0.14597163 0.038701337
0.073594235 -0.14793831 0.20214689 -0.10545259 0.0008916518 0.026505103 0.10801561 0.09373756
0.112311915 -0.030413495 0.019786106 0.07758886 -0.09932112 0.08623576 -0.07298509 0.08633654
0.13190548 -0.04302695 -0.11638897 -0.10400943 -0.09407937 0.131368 0.067810066 0.12867996
-0.070341736 0.0523192 0.118949555 -0.04032886 -0.061761454 0.2351945 0.0068300725 -0.16686615
0.11805131 0.1044022 0.03605979 0.15526003 -0.08341528 0.07174924 -0.012571823 -0.18022816
0.13717651 -0.120211855 -0.045844838 -0.15299392 -0.040037297 0.05962826 -0.10399156 -0.08388906
-0.091957875 0.10501379 -0.09516051 0.09519999 -0.114798665 -0.1257595 -0.05379486 0.1776475
-0.059846897 -0.09668863 -0.06302575 0.10918161 -0.06893239 0.05238627 -0.04864427 0.045486197
-0.10505163 -0.08373169 0.081079446 0.11548918 0.03975002 0.039830517 0.08849677 0.03230808
-0.11045699 -0.08658517 0.023880819 0.0010707214 0.10734545 0.0952742 0.14668472 -0.13918093
0.058403913 0.012748106 0.16509578 -0.086013705 0.12063364 0.014989617 -0.12078463 -0.04700744
-0.121025294 -0.06498781 0.18023302 0.0704703 0.08909638 0.0057177865 -0.115267314 -0.040828336
-0.145285 0.055151895 -0.009974552 -0.07716645 0.04239468 -0.051137358 0.18341471 -0.15873212
-0.024201173 -0.13825351 -0.08173103 -0.15693629 0.03301348 -0.0139796045 -0.085004866 -0.011389692
-0.026366467 -0.04417783 -0.12344766 -0.078546874 -0.015276241 0.068608895 -0.10730182 0.015727075
0.057472665 0.10869451 0.13820377 -0.1322872 0.17074035 -0.091902755 0.022633342 0.057049315
0.17510065 0.019321451 0.041697174 0.0672591 0.07746358 -0.15002367 -0.00594306 -0.08042991
-0.025947684 0.09515885 0.080268286 0.15066974 -0.10115673 -0.011646498 -0.14715178 -0.08968012
0.17956953 0.14863394 -0.12496939 0.07164957 0.008662804 0.16343799 0.0033001124 -0.040124774
0.13657732 0.13316245 -0.1825104 0.119307995 0.11403844 0.07294879 -0.15140104 0.026484625
-0.1038087 -0.11509576 0.18022904 -0.115614295 -0.14327288 -0.10914245 0.1071088 0.051366054
0.11339712 0.018487396 0.022662582 -0.12391891 -0.1251358 0.10212438 -0.08149367 0.028639577
-0.0550939 0.118372664 -0.09842851 0.12994269 -0.15474978 0.08855476 -0.0034760812 0.021294061
00000000: 7d18 2c3d 0a68 493e 1186 8c3e 65ec 30be
00000010: 1622 94bd f660 843e 646a 7ebd 311b 333e
00000020: 9fc1 86bd 3ea8 013e 7238 98be f7f8 803c
00000030: 3c25 54be e274 51bc 94cb fa3d 6940 6dbe
00000040: cb67 68bd 653c c83d 6624 333d 57f8 d1bd
00000050: 0f61 85bc 37c0 833d f563 663c 58a0 86bd
00000060: e496 acbc 9834 3bbe 55a5 5cbe f32a 0bbe
00000070: 778e 143e 49e3 753e 3d7b 2f3d 8d0e acbd
00000080: d969 a43c a5d5 ebbd de68 1a3e 5bba ec3b
00000090: 84a7 c63d 4405 323e ccc1 943d f5f1 373d
000000a0: 6324 66bd 2495 093e 2ff4 e1bd 65fb 8fbc
000000b0: 16b1 41bd 7dbd 4cbd 524d bbbd d0e5 6abd
000000c0: 1d88 ac3d 9e56 793d d2a2 45bd 2864 c23d
000000d0: c123 f23d b673 143e 2281 d1bc c3f2 cbbb
000000e0: f940 9fbd f720 37bc 2faf d33d b3fd 35be
000000f0: 4594 493c d0f3 b13d 4514 a13c 728c 06be
00000100: b330 47be 28eb f4bd 5b46 bfbd 91ba 86bc
00000110: 149c 203e 47c1 9abc 9679 153e 4b85 1e3d
00000120: 93b8 963d 247d 17be 98ff 4e3e 87f7 d7bd
00000130: bdbd 693a 3b21 d93c 4a37 dd3d 7af9 bf3d
00000140: ca03 e63d b925 f9bc 7916 a23c e9e6 9e3d
00000150: df68 cbbd 609c b03d 3579 95bd 36d1 b03d
00000160: 3b12 073e 073d 30bd 575d eebd e502 d5bd
00000170: afac c0bd 5585 063e 01e0 8a3d aec4 033e
00000180: 540f 90bd a84c 563d d39b f33d e02f 25bd
00000190: 94f9 7cbd d4d6 703e cdce df3b f6de 2abe
000001a0: e3c4 f13d d2d0 d53d 6eb3 133d 7cfc 1e3e
000001b0: a1d5 aabd 44f1 923d 0cfa 4dbc bb8d 38be
000001c0: 0078 0c3e a231 f6bd ccc7 3bbd 70aa 1cbe
000001d0: 26fe 23bd c33c 743d 87f9 d4bd 07ce abbd
000001e0: 6954 bcbd 7811 d73d 83e3 c2bd 36f8 c23d
000001f0: 901b ebbd 19c7 00be 0058 5cbd 3ae9 353e
00000200: 0522 75bd b004 c6bd a513 81bd 9c9a df3d
00000210: 6d2c 8dbd fc92 563d 373f 47bd bc4f 3a3d
00000220: 4f25 d7bd 857b abbd fb0c a63d 9785 ec3d
00000230: ebd0 223d 5325 233d cb3d b53d 7a55 043d
00000240: 4637 e2bd 9153 b1bd b5a1 c33c 7357 8c3a
00000250: eed7 db3d 1f1f c33d 8534 163e 7285 0ebe
00000260: f138 6f3d 6fdd 503c de0e 293e f427 b0bd
00000270: c50e f73d 0397 753c ef5d f7bd e08a 40bd
00000280: 1cdc f7bd 5418 85bd 018f 383e bc52 903d
00000290: 2a78 b63d 455c bb3b 4511 ecbd 9d3b 27bd
000002a0: 97c5 14be f4e6 613d 4e6c 23bc 7209 9ebd
000002b0: 0ba6 2d3d 6875 51bd 11d1 3b3e ac8a 22be
000002c0: 8a41 c6bc 5492 0dbe 9962 a7bd e8b3 20be
000002d0: 2539 073d b60a 65bc 0817 aebd d59b 3abc
000002e0: 7dfe d7bc d0f3 34bd 20d2 fcbd 2fdd a0bd
000002f0: 3349 7abc d282 8c3d 0ec1 dbbd 11d6 803c
00000300: 7568 6b3d 3a9b de3d 4a85 0d3e 4c76 07be
00000310: 8fd6 2e3e 8337 bcbd 8f69 b93c 8bac 693d
00000320: 964d 333e 0548 9e3c a8ca 2a3d 24bf 893d
00000330: 3aa5 9e3d ce9f 19be 00be c2bb 70b8 a4bd
00000340: 3d90 d4bc a5e2 c23d b363 a43d 2b49 1a3e
00000350: 422b cfbd f4d0 3ebc f5ae 16be 36aa b7bd
00000360: 13e1 373e 7f33 183e f4ef ffbd 02bd 923d
00000370: 6fee 0d3c 4a5c 273e b346 583b e059 24bd
00000380: edda 0b3e bd5b 083e 02e4 3abe c057 f43d
00000390: fc8c e93d 2d66 953d e008 1bbe 49f6 d83c
000003a0: a899 d4bd 53b7 ebbd f68d 383e 30c7 ecbd
000003b0: 20b6 12be 1486 dfbd dc5b db3d 3665 523d
000003c0: c03c e83d e172 973c e1a6 b93c 33c9 fdbd
000003d0: 9923 00be 9626 d13d 27e6 a6bd 8c9d ea3c
000003e0: 24aa 61bd 5e6d f23d e394 c9bd b20f 053e
000003f0: ba76 1ebe 335c b53d f7ce 63bb e270 ae3c

model.rnn.bias_ih_l1 f4 [160]
0.071275376 0.061113648 -0.022222644 -0.08355026 -0.07166303 0.036968734 -0.024941018 0.11488478
0.10824149 0.09569889 0.09307134 -0.10904545 0.31807378 0.09936793 0.05812004 -0.05971779
-0.044929318 -0.011140322 0.12750396 -0.027632272 -0.091188684 0.057218947 0.040162414 0.017979035
-0.062842146 0.25288162 -0.09437901 0.0100695025 -0.16086453 0.0015995249 0.03895227 0.0358425
0.10198452 -0.14763907 0.11548326 0.18799981 0.124345414 -0.07603504 -0.09544546 0.18311015
0.060777187 0.09416535 0.1644102 -0.012439248 -0.09718335 0.027946204 -0.08343252 0.1388401
0.09427716 -0.0025190567 0.0108608175 -0.08254817 0.21823892 -0.02155306 0.008643891 0.09588303
0.22960317 -0.18459652 0.13819277 0.02411209 -0.10043304 0.15963863 0.14579794 0.21188907
0.03512968 0.024624016 -0.051060885 0.06024928 0.10381632 0.10811052 0.018809754 -0.050877005
-0.060113546 -0.026298767 0.2108901 -0.04260855 -0.093956895 0.15632695 -0.07728842 -0.038423683
0.026072752 0.1496966 -0.071371436 0.07598602 -0.10654177 0.027966069 -0.088441364 0.13684714
-0.012976752 0.07545429 -0.20285167 0.022700192 -0.039791673 0.030541345 -0.13797309 -0.046118174
-0.10379047 0.097069874 0.092653446 -0.027771996 -0.052470494 0.14787304 0.19030814 -0.09661568
0.089871414 -0.08301882 0.09130063 -0.08116031 0.0119127985 0.15596424 -0.035361677 0.021488575
0.014342858 -0.10332905 0.05579256 -0.040778995 -0.017934045 0.019310312 0.08368576 -0.10659551
-0.009930885 0.026906213 0.08970542 0.040093835 0.042334452 -0.07497334 -0.07223149 0.15019628
0.20791177 0.13980466 0.05359411 -0.05951046 -0.04001932 -0.0083485525 -0.08867716 -0.01631279
0.04963703 0.016101444 0.024261976 0.11849819 0.17534281 0.1280518 0.10326083 0.07124793
-0.043555733 -0.0019280313 0.026877226 -0.113580845 0.15007491 0.038685363 0.0102732 0.10148516
0.1581897 0.12124063 0.22791672 0.16302608 -0.010252797 0.053528007 0.1747693 -0.062076688
00000000: d3f8 913d 4e52 7a3d 430c b6bc 661c abbd
00000010: 11c4 92bd 876c 173d 1b51 ccbc b648 eb3d
00000020: b7ad dd3d c8fd c33d 309c be3d 3953 dfbd
00000030: 91da a23e 6a81 cb3d 470f 6e3d a49a 74bd
00000040: ce07 38bd e685 36bc 6690 023e 135d e2bc
00000050: 22c1 babd 6a5e 6a3d 5881 243d c548 933c
00000060: 62b3 80bd b379 813e c849 c1bd 8efa 243c
00000070: acb9 24be 26a7 d13a 6a8c 1f3d 96cf 123d
00000080: 43dd d03d b22e 17be 7d82 ec3d 0683 403e
00000090: cfa8 fe3d 42b8 9bbd e978 c3bd 3a81 3b3e
000000a0: 80f1 783d c3d9 c03d 265b 283e fdcd 4bbc
000000b0: 1008 c7bd 70ef e43c abde aabd 192c 0e3e
000000c0: 6214 c13d c216 25bb 92f1 313c 040f a9bd
000000d0: 067a 5f3e 0b90 b0bc 1b9f 0d3c 525e c43d
000000e0: 181d 6b3e df06 3dbe 6882 0d3e b886 c53c
000000f0: d6af cdbd 4f78 233e 0e4c 153e 73f9 583e
00000100: 24e4 0f3d 4eb8 c93c 3825 51bd f3c7 763d
00000110: a79d d43d 0c69 dd3d ea16 9a3c 6864 50bd
00000120: 9f39 76bd 8370 d7bc 93f3 573e 4e86 2ebd
00000130: 796c c0bd 2c14 203e 6449 9ebd 2762 1dbd
00000140: 8696 d53c 114a 193e 302b 92bd 8f9e 9b3d
00000150: 9232 dabd 1919 e53c bf20 b5bd a821 0c3e
00000160: 719c 54bc c787 9a3d 59b8 4fbe c1f5 b93c
00000170: 98fc 22bd d831 fa3c d148 0dbe 69e6 3cbd
00000180: 1990 d4bd 92cc c63d 17c1 bd3d 1982 e3bc
00000190: 4deb 56bd 086c 173e 23e0 423e 71de c5bd
000001a0: 810e b83d c505 aabd d3fb ba3d 6037 a6bd
000001b0: e62d 433c 17b5 1f3e 68d7 10bd cf08 b03c
000001c0: 4ffe 6a3c 2e9e d3bd bd86 643d e007 27bd
000001d0: 6bea 92bc a930 9e3c 7163 ab3d bf4e dabd
000001e0: 27b5 22bc 6b6a dc3c 7ab7 b73d 6f39 243d
000001f0: e466 2d3d 9f8b 99bd 1aee 93bd 0ecd 193e
00000200: d3e6 543e f428 0f3e 7f85 5b3d 3dc1 73bd
00000210: 4ceb 23bd 5ec8 08bc 5f9c b5bd 66a2 85bc
00000220: 3350 4b3d 2de7 833c 0dc1 c63c 2eaf f23d
00000230: 118d 333e 0320 033e 6a7a d33d 6fea 913d
00000240: 7f67 32bd ffb5 fcba a12d dc3c 139d e8bd
00000250: 3dad 193e 8b74 1e3d ed50 283c 74d7 cf3d
00000260: 7bfc 213e 024d f83d 0063 693e 4ff0 263e
00000270: 59fb 27bc 2f40 5b3d b9f6 323e 2044 7ebd

model.rnn.bias_hh_l1 f4 [160]
0.13852294 0.07986352 -0.06250977 0.03205243 0.1928504 0.15595543 0.017756728 0.21138763
-0.077043876 -0.010742507 0.08526826 -0.0645061 0.23926589 -0.061009057 -0.06375641 -0.06696761
0.007046614 0.07298137 -0.038271725 -0.025209075 0.063735664 0.1323999 0.041001804 0.074511215
0.20367037 0.14080912 0.14475064 0.024449192 0.024775695 -0.09159782 0.14778343 0.024867654
0.08242967 0.062362693 0.14927736 -0.0932091 0.011086738 -0.06246922 -0.09437502 0.11999947
0.09753436 0.0023228463 0.11165581 0.1305851 -0.0059702066 0.14088444 0.014403153 -0.08102164
-0.047466986 -0.044291396 0.17429486 -0.033291683 -0.053470306 -0.099203065 -0.005193143 -0.10983597
0.101513095 -0.07760854 0.04718566 0.106168084 0.17799859 0.20015034 0.14887048 0.11472888
0.05655279 -0.03898476 0.10874217 -0.13638198 0.18477696 0.08256033 -0.06024618 0.13561386
0.044052567 -0.0521946 0.031838186 0.09051592 0.021823527 -0.04526912 0.0530699 0.0746432
-0.062773444 -0.023050701 0.025268774 -0.12038778 -0.11488411 0.13846228 -0.17914325 0.23227482
-0.15171945 0.08182199 -0.05259454 0.07341628 -0.17982458 -0.01392336 0.13957131 0.08050362
0.047859173 -0.0050592716 0.14488176 -0.05801544 -0.08787567 -0.023256542 0.05279999 0.09314441
-0.07278373 -0.19175853 0.056374427 0.014295423 0.1718969 0.09335622 -0.03769505 -0.013470416
0.09218465 -0.08287139 0.07319061 0.042048983 0.08686559 -0.15316753 0.10550919 0.14087221
0.081012726 -0.002235681 -0.116579644 0.22969055 0.06699272 -0.078301795 -0.028063433 0.13662453
-0.026964664 -0.05051672 0.014871345 0.14901187 -0.028407445 -0.121910304 0.14279029 0.13078314
0.194014 0.13366644 0.061480258 0.077038884 0.12857766 -0.052946243 0.21053205 -0.029115308
0.14600411 0.12878063 0.14952338 0.04440074 0.0558694 -0.07533564 0.10966273 0.18862621
-0.09774256 -0.068412945 0.18386833 0.034277633 -0.015937805 0.103824854 0.06027345 0.09540363
00000000: f5d8 0d3e 7c8f a33d 1f05 80bd 6949 033d
00000010: 937a 453e c8b2 1f3e 8f76 913c 0076 583e
00000020: 2ec9 9dbd 5701 30bc 20a1 ae3d c61b 84bd
00000030: 1e02 753e a2e4 79bd b892 82bd 5026 89bd
00000040: 48e7 e63b 4277 953d d0c2 1cbd 4383 cebc
00000050: d887 823d d793 073e 82f1 273d 5699 983d
00000060: f78e 503e 4430 103e 8339 143e ac49 c83c
00000070: 66f6 ca3c a397 bbbd 8a54 173e 40b7 cb3c
00000080: e3d0 a83d 0670 7f3d 2adc 183e 6ae4 bebd
00000090: 26a5 353c badf 7fbd b147 c1bd 48c2 f53d
000000a0: 18c0 c73d e53a 183b cdab e43d 1ab8 053e
000000b0: b9a1 c3bb 0344 103e 34fb 6b3c acee a5bd
000000c0: be6c 42bd e56a 35bd 5a7a 323e dc5c 08bd
000000d0: ae03 5bbd fa2a cbbd 3e2b aabb aef1 e0bd
000000e0: 19e6 cf3d 3af1 9ebd c045 413d a76e d93d
000000f0: 4345 363e 36f4 4c3e 8171 183e faf6 ea3d
00000100: e6a3 673d 7cae 1fbd 37b4 de3d b8a7 0bbe
00000110: 2c36 3d3e 6415 a93d b3c4 76bd 5cde 0a3e
00000120: 7770 343d 01ca 55bd c268 023d 6960 b93d
00000130: 41c7 b23c 1d6c 39bd d35f 593d 89de 983d
00000140: 5d8f 80bd d3d4 bcbc 7600 cf3c de8d f6bd
00000150: 5c48 ebbd 0ec9 0d3e 5471 37be 73d9 6d3e
00000160: 585c 1bbe 4a92 a73d 5f6d 57bd 465b 963d
00000170: ef23 38be ce1e 64bc c8eb 0e3e 15df a43d
00000180: fb07 443d 3fc8 a5bb e25b 143e 99a1 6dbd
00000190: 29f8 b3bd 8184 bebc cd44 583d 7fc2 be3d
000001a0: a30f 95bd 595c 44be dfe8 663d 5a37 6a3c
000001b0: be05 303e 8c31 bf3d 2066 1abd 05b3 5cbc
000001c0: 4ecb bc3d 7ab8 a9bd f5e4 953d 8e3b 2c3d
000001d0: 96e6 b13d f3d7 1cbe 3415 d83d ce40 103e
000001e0: 00ea a53d 8184 12bb 4fc1 eebd 0034 6b3e
000001f0: 7b33 893d b15c a0bd 49e5 e5bc 4de7 0b3e
00000200: 00e5 dcbc 9fea 4ebd f1a6 733c 9196 183e
00000210: bbb6 e8bc 1cac f9bd 9e37 123e 04ec 053e
00000220: 9bab 463e dbdf 083e b9d2 7b3d 90c6 9d3d
00000230: dda9 033e 29de 58bd b795 573e 3a83 eebc
00000240: 1a82 153e 12df 033e a81c 193e 8ddd 353d
00000250: 50d7 643d 9249 9abd da96 e03d 3b27 413e
00000260: 402d c8bd 161c 8cbd fb47 3c3e b466 0c3d
00000270: 0090 82bc 20a2 d43d 4be1 763d fa62 c33d

exp_avg f4 [1, 40]
0.00042173863 0.00045567282 0.00026477018 -0.0005206849 -0.00022072656 0.00035576156 -0.0003896959 0.0004391394
-0.00019634471 0.00039377704 -0.00037023317 -2.7508057e-05 -0.00027102072 3.5541514e-05 0.00032267242 -4.489934e-05
0.00036877018 -0.00057758245 0.00044355722 9.762e-05 -3.8725462e-05 4.870223e-05 0.00046126745 0.0006661209
-0.000459333 0.00011860943 -0.00035280013 -7.828553e-05 1.3681159e-05 0.000276994 -0.00014858194 -0.00044981553
0.00030687486 -0.00014480218 0.0003138423 0.00042125274 -0.00011844174 0.00035826414 0.00032942445 0.00033247712
00000000: cd1c dd39 5fe7 ee39 dad0 8a39 927e 08ba
00000010: d672 67b9 8285 ba39 1950 ccb9 4b3c e639
00000020: e2e1 4db9 dc73 ce39 db1b c2b9 1ac1 e6b7
00000030: c917 8eb9 6912 1538 5c2c a939 4d52 3cb8
00000040: 7f57 c139 e768 17ba 3e8d e839 57b9 cc38
00000050: 266d 22b8 9f45 4c38 45d6 f139 9e9e 2e3a
00000060: a2d2 f0b9 f4bd f838 08f8 b8b9 392d a4b8
00000070: 2188 6537 8139 9139 a9cc 1bb9 38d5 ebb9
00000080: 0ce4 a039 0ad6 17b9 338b a439 96db dc39
00000090: ed63 f8b8 66d5 bb39 9ab6 ac39 5350 ae39

exp_avg_sq f4 [1, 40]
9.745523e-07 1.2261636e-06 6.5774486e-07 2.0424648e-06 4.4088156e-07 3.4634223e-07 1.3152447e-06 1.5227434e-06
4.3177084e-07 8.006681e-07 1.5700117e-06 6.5295346e-08 6.934977e-07 2.1022541e-07 4.481333e-07 1.8702288e-07
8.3750064e-07 3.44393e-07 1.1774617e-06 3.511814e-07 1.8343418e-07 2.1118326e-07 1.3970097e-06 8.1256707e-07
8.166874e-07 5.6207654e-07 9.5026223e-07 1.3855868e-07 2.2469996e-07 5.4060683e-07 1.2604695e-06 1.1376717e-06
7.8699657e-07 1.7635189e-07 1.6112082e-06 1.0310754e-06 3.8691812e-07 4.3101198e-07 7.5153287e-07 8.607526e-07
00000000: 5dcd 8235 a992 a435 e28f 3035 4711 0936
00000010: 4db2 ec34 eaf0 b934 7787 b035 1161 cc35
00000020: 22ce e734 7eed 5635 31b9 d235 7f38 8c33
00000030: cd28 3a35 52ba 6134 f996 f034 75d0 4834
00000040: 9bd0 6035 03e5 b834 4709 9e35 018a bc34
00000050: 01f6 4434 9dc1 6234 e380 bb35 2f1f 5a35
00000060: 553a 5b35 9be1 1635 8615 7f35 b8c6 1434
00000070: 0e45 7134 381e 1135 672d a935 1ab2 9835
00000080: fe41 5335 3d5b 3d34 b140 d835 7b63 8a35
00000090: 9fb9 cf34 d665 e734 f2bc 4935 780e 6735

exp_avg f4 [1, 40]
-0.0023912678 -0.017299403 -0.006921892 0.017618356 0.0042298497 -0.00021384718 0.01375909 -0.014604236
0.034426488 -0.010856951 0.017571377 0.019012818 0.006172557 -0.0056496873 -0.0029691856 0.009504587
-0.028342154 -0.0002539181 -0.014089055 -0.021981932 0.0125277415 -0.01634002 -0.012415732 -0.032361507
0.018557936 -0.007918275 0.020788379 -0.0128159225 -0.0027659093 -0.018995738 -0.013030276 0.014607682
-0.012462895 -0.008060996 -0.018385086 -0.0034806964 0.0060456507 -0.007611411 -0.015128964 -0.009541094
00000000: d1b6 1cbb 7ab7 8dbc 0ad1 e2bb 5f54 903c
00000010: 8d9a 8a3b 2a3c 60b9 ce6d 613c 9b46 6fbc
00000020: ca02 0d3d 5ae1 31bc d9f1 8f3c c5c0 9b3c
00000030: 2943 ca3b 0321 b9bb ab96 42bb 21b9 1b3c
00000040: ce2d e8bc 4f20 85b9 c8d5 66bc 7413 b4bc
00000050: 2841 4d3c 81db 85bc 5b6b 4bbc 808d 04bd
00000060: d006 983c a7bb 01bc 644c aa3c e0f9 51bc
00000070: 4244 35bb f39c 9bbc f07c 55bc 0f55 6f3c
00000080: 2c31 4cbc 4512 04bc 529c 96bc 651c 64bb
00000090: 981a c63b 2569 f9bb 79df 77bc 4052 1cbc

exp_avg_sq f4 [1, 40]
0.6948459 0.501379 0.28570953 0.85789394 0.10196 0.15776752 0.5543776 0.5926962
0.11777139 0.35907462 0.80742866 0.08417922 0.48648462 0.0025656675 0.009676896 0.17062238
0.16138847 0.012631992 0.48608175 0.38304552 0.011321573 0.01773839 0.6543508 0.22236826
0.2155625 0.35437045 0.2750894 0.026168436 0.0017227244 0.18565477 0.4239966 0.3743676
0.32563898 0.13067994 0.6199677 0.56238914 0.15531886 0.17344353 0.2742349 0.25297993
00000000: 6ce1 313f 605a 003f 8548 923e f09e 5b3f
00000010: 68d0 d03d cf8d 213e b1eb 0d3f f0ba 173f
00000020: 2032 f13d a1d8 b73e a5b3 4e3f 2866 ac3d
00000030: 8314 f93e c224 283b d88b 1e3c a2b7 2e3e
00000040: 0543 253e 6af6 4e3c b5df f83e 8b1e c43e
00000050: 1e7e 393c 1a50 913c 8983 273f 81b4 633e
00000060: 6abc 5c3e 0b70 b53e 85d8 8c3e 305f d63c
00000070: 0acd e13a 491c 3e3e 1516 d93e 1cad bf3e
00000080: 27ba a63e f6d0 053e 34b6 1e3f bcf8 0f3f
00000090: e80b 1f3e 2e9b 313e 8468 8c3e 9686 813e

exp_avg f4 [1, 40]
-0.0040860004 -0.004452882 -0.0029926354 0.005489282 0.0016881485 -0.0032725323 0.004350576 -0.0046355072
0.0027229225 -0.0038126183 0.004496369 0.0012947194 0.0028399795 0.0010289925 0.000103325685 0.0016872042
-0.0037719484 0.00064852985 -0.004143106 -0.002526448 -4.560051e-05 -0.00029777864 -0.0044327243 -0.0013808033
0.0024298853 0.0013396931 0.0036623888 0.001303875 0.001002808 -0.0021006044 -0.002387411 0.0039629163
-0.0038838817 0.002718691 -0.003523492 -0.0035654043 0.002086949 -0.0045629498 -0.0033845075 -0.0046722656
00000000: dbe3 85bb 7be9 91bb 1720 44bb 6fdf b33b
00000010: dd44 dd3a fb77 56bb 478f 8e3b 74e5 97bb
00000020: 0f73 323b 1fdd 79bb 4756 933b 93b3 a93a
00000030: f31e 3a3b 42df 863a 8eb0 d838 2e25 dd3a
00000040: cb32 77bb 1a02 2a3a e4c2 87bb c492 25bb
00000050: 2d43 3fb8 2c1f 9cb9 6340 91bb 12fc b4ba
00000060: b63e 1f3b a498 af3a b004 703b c9e6 aa3a
00000070: a770 833a 4baa 09bb 1c76 1cbb 5adb 813b
00000080: b988 7ebb 112c 323b 63ea 66bb 8fa9 69bb
00000090: 32c5 083b cc84 95bb 9dce 5dbb ce19 99bb

exp_avg_sq f4 [1, 40]
0.00032719443 0.00031806712 0.0001626158 0.0005258677 9.946778e-05 9.442373e-05 0.00032653994 0.00038938908
0.00013774345 0.00021812819 0.00040551633 2.3067294e-05 0.00020809674 3.57546e-05 8.773661e-05 5.752054e-05
0.00017129142 4.325567e-05 0.00031137976 0.0001269918 3.8100236e-05 6.3196065e-05 0.00035399693 7.806988e-05
0.0001935298 0.00011174507 0.00022566703 2.6797426e-05 6.569731e-05 0.00014957949 0.00021187533 0.0002844475
0.00018191039 5.9971004e-05 0.00037759062 0.0002474759 0.00010281241 0.00011787886 0.00019136987 0.00015716314
00000000: 4b8b ab39 3fc2 a639 d983 2a39 62da 093a
00000010: 5c99 d038 5b05 c638 7333 ab39 eb26 cc39
00000020: 3a6f 1039 57b9 6439 7b9b d439 a380 c137
00000030: 8b34 5a39 36f7 1538 3cff b738 3642 7138
00000040: b19c 3339 6c6d 3538 af40 a339 1a29 0539
00000050: d1cd 1f38 2188 8438 aa98 b939 73b9 a338
00000060: 43ee 4a39 ad58 ea38 08a1 6c39 09cb e037
00000070: fac6 8938 70d8 1c39 da2a 5e39 e621 9539
00000080: 33bf 3e39 6089 7b38 5bf7 c539 a7bf 8139
00000090: fe9c d738 bb35 f738 75aa 4839 29cc 2439
