lightning_logs/version_7/checkpoints/epoch=96-step=4850.ckpt (torch, 330670 bytes, 33 tensors)

model.param_proj.proj.0.weight f4 [1, 40]
-0.72666687 0.2685229 -1.0608438 -0.96388453 0.054030344 0.105633 -0.24064979 0.030440243
0.6235709 -0.10238031 0.48478 -0.22820108 0.23098187 0.82658535 -0.1553872 0.043657728
0.6080392 -0.716398 -0.10271173 -0.44624737 0.5369869 -0.39220792 0.9315392 0.8767984
0.8581984 -0.084203355 0.29686078 -0.10820055 0.2035344 -0.039112564 0.049923364 -0.035035037
0.0009326241 -0.8643336 0.25188965 0.2977677 1.6325696 0.022984171 0.45769417 0.15229318
00000000: d706 3abf d57b 893e bbc9 87bf 23c1 76bf
00000010: ec4e 5d3d 1d56 d83d e66c 76be d15d f93c
00000020: 58a2 1f3f c5ac d1bd 1635 f83e 8bad 69be
00000030: 8386 6c3e 199b 533f d21d 1fbe 72d2 323d
00000040: 75a8 1b3f dc65 37bf 875a d2bd 897a e4be
00000050: f977 093f 7acf c8be 5a79 6e3f dc75 603f
00000060: e4b2 5b3f cf72 acbd 23fe 973e 4098 ddbd
00000070: 526b 503e 7f34 20bd 717c 4c3d e680 0fbd
00000080: 587b 743a f844 5dbf aef7 803e 0275 983e
00000090: 0af8 d03f 4d49 bc3c e456 ea3e bef2 1b3e

model.param_proj.proj.1.weight f4 [1, 40]
-0.2383194 0.02457369 -0.054936264 0.18013519 0.19075228 -0.18142156 0.1325284 0.13121615
-0.13771906 -0.17640787 0.033296984 -0.09189254 -0.23593934 -0.02739213 -0.1237716 0.14238834
0.15299818 -0.10046846 0.17251918 0.0026769068 0.080397926 -0.10856435 -0.30833486 -0.15182061
-0.0135208545 0.16946493 0.16958271 -0.027261354 -0.116508506 -0.109884314 -0.08842656 -0.113181695
-0.14289342 0.031552073 -0.17348233 -0.18095192 0.078237556 0.18435302 -0.10181073 0.041815266
00000000: 000a 74be c34e c93c d904 61bd 5c75 383e
00000010: 9154 433e 93c6 39be 86b5 073e 875d 063e
00000020: 3a06 0dbe 44a4 34be 6b62 083d 2832 bcbd
00000030: 159a 71be 7665 e0bc f77b fdbd 40ce 113e
00000040: 8eab 1c3e 68c2 cdbd dea8 303e 0b6f 2f3b
00000050: aba7 a43d fc56 debd 11de 9dbe dd76 1bbe
00000060: 9386 5dbc 3788 2d3e 17a7 2d3e 3453 dfbc
00000070: 039c eebd 070b e1bd fc18 b5bd cecb e7bd
00000080: a752 12be bf3c 013d 5aa5 31be 764b 39be
00000090: 033b a03d 0ac7 3c3e 2582 d0bd 7c46 2b3d

model.param_proj.proj.2.weight f4 [1, 40]
-0.013174309 -0.20008522 0.45899892 0.41791752 -0.24352314 0.046082158 -0.16067721 0.119982824
-0.38922808 0.010531317 -0.12147691 0.3724416 -0.096490316 -0.39087945 -0.13874264 -0.13985182
0.051030185 -0.23514691 0.078364104 0.3302884 -0.3514311 -0.014687343 0.06356857 -0.05178682
-0.41652194 0.16560589 0.233508 0.25374717 -0.10024604 0.032937214 0.090996526 -0.28995803
0.021136602 0.5649237 -0.11708425 0.1567496 -0.7922256 0.24638532 -0.2925803 -0.2587107
00000000: 0fd9 57bc 24e3 4cbe e801 eb3e 49f9 d53e
00000010: 215e 79be a5c0 3c3d 9188 24be 8eb9 f53d
00000020: e748 c7be 8c8b 2c3c e3c8 f8bd aab0 be3e
00000030: b79c c5bd 5a21 c8be 8d12 0ebe 5135 0fbe
00000040: 0705 513d 5aca 70be 5c7d a03d 901b a93e
00000050: c7ee b3be 2ea3 70bc 3d30 823d 6b1e 54bd
00000060: 5d42 d5be 9794 293e b91c 6f3e 26eb 813e
00000070: cc4d cdbd 2ce9 063d 635c ba3d 6175 94be
00000080: ab26 ad3c d79e 103f dec9 efbd f882 203e
00000090: 4ccf 4abf 6f4c 7c3e 16cd 95be bb75 84be

model.rnn.weight_ih_l0 f4 [160, 37]
0.17025286 0.25389138 0.20968258 0.2780017 0.20065582 0.19946216 0.16089977 0.23639691
0.164269 0.30121368 0.025677275 -0.0010074914 0.14115907 0.16498971 0.20166555 0.0749887
0.012009073 0.09349941 0.12723802 0.1515545 0.3529232 0.23629554 0.1446839 0.026212322
-0.006735423 -0.045742355 -0.08131032 -0.032177087 -0.005369447 -0.055207837 0.22887978 0.00055703736
0.25403553 -0.19352773 0.22407925 -0.3176007 0.27942696 0.17239547 0.30240092 0.09176147
0.043774962 0.1038924 0.28630137 0.054263562 0.17927866 0.007650808 0.25378636 -0.010942123
0.17338525 -0.034856975 0.24684274 0.020860385 0.1710675 0.13518456 0.18080674 0.21774112
0.20197256 0.2096672 0.076623194 -0.03580779 0.033334933 -0.029468957 -0.09578625 -0.12981944
-0.019245118 0.02544967 0.10351084 0.07055247 0.00074549404 0.179609 -0.005226098 0.13182676
0.11301719 0.19215587 0.26596367 0.40540302 0.27691704 0.06129805 0.21578126 0.07588974
-0.057953395 0.019079102 0.013089537 0.09680604 0.0982487 0.13561141 0.22756666 0.2507931
0.21967277 0.124784544 0.31168807 0.15002695 0.31025726 0.22110459 0.006344515 0.14178249
-0.040720496 -0.07883148 0.2008065 0.103463896 0.044564348 -0.21307237 0.017320473 -0.03885465
0.25597763 -0.0010943899 0.22610904 0.12513196 0.13000128 -0.046282906 -0.027362332 0.13201791
-0.017345885 -0.21968807 -0.12775564 0.2933016 -0.075790696 0.03477422 0.23330516 0.26597512
0.14640369 -0.16796063 0.049853798 -0.13999623 0.029878275 0.38029563 -0.083939314 -0.04091751
-0.041138064 0.13072984 -0.17081933 -0.18592434 0.16143307 0.30618533 0.3785031 0.45272705
0.6476377 0.5787117 0.57363755 0.5693001 0.70060956 -0.014291157 -0.000100694546 0.18938178
0.2744331 -1.6773167 0.045558777 0.13502142 -0.1527356 0.14794967 -0.081798404 -0.26924106
0.053708166 0.13361958 -0.15004942 0.03104322 0.067314304 0.08713762 -0.037092373 0.068510175
-0.13382939 -0.17339693 0.06031775 0.14273171 0.33400178 0.2665283 0.28350788 0.054337684
-0.010095499 0.1321722 -0.017808678 -0.05057284 -0.13476074 -0.09207753 -0.06632228 0.02902669
0.0054186997 0.22943254 0.13616124 0.00032803655 0.0032333615 0.9605723 -1.2627872 0.94238305
-0.06300938 -0.1529735 0.023027606 -0.0971589 -0.09821522 -0.10602311 -0.25647035 -0.034513913
0.03219468 -0.08601582 -0.16607447 0.06513483 0.09421596 -0.11626958 -0.112475984 -0.21257165
-0.21553464 0.005638052 -0.05506156 -0.11441917 -0.12455412 -0.12627415 -0.2365661 -0.022560807
0.014827731 0.09355985 -0.07468098 0.09925716 0.117409244 -0.053291336 -0.023968104 0.029150063
0.0010091955 0.008600435 0.7607349 -0.17750433 -0.4446826 0.0021527368 0.3049432 0.114637196
0.12084594 0.20651704 -0.01943623 0.10339063 0.09461308 0.08461425 0.15308641 0.101181425
0.24023747 0.10013816 -0.088321805 -0.11043099 -0.11800864 -0.040559676 -0.090198405 -0.14575303
0.37347105 0.0046009244 0.07672964 0.10667923 -0.11463119 -0.15007828 0.20377567 0.43509036
0.36734706 0.018559447 0.47115645 0.40815422 0.18433775 -2.5163836e-05 -0.032253888 -0.18752529
00000000: c456 2e3e 0dfe 813e 08b7 563e 3d56 8e3e
00000010: b878 4d3e cf3f 4c3e e9c2 243e 0812 723e
00000020: 2236 283e ae38 9a3e 2659 d23c cd0d 84ba
00000030: 018c 103e 10f3 283e 6a81 4e3e ad93 993d
00000040: b4c1 443c 9e7c bf3d af4a 023e 1a31 1b3e
00000050: 5ab2 b43e 75f7 713e 0428 143e 39bb d63c
00000060: d3b4 dcbb 565c 3bbd 0686 a6bd 1fcc 03bd
00000070: 30f2 afbb 9d21 62bd 765f 6a3e 2506 123a
00000080: f210 823e 222c 46be 0875 653e 8f9c a2be
00000090: 0d11 8f3e 7088 303e 4bd4 9a3e 70ed bb3d
000000a0: 604d 333d 8ac5 d43d 1896 923e 7843 5e3d
000000b0: d394 373e a1b3 fa3b 49f0 813e 9746 33bc
000000c0: e78b 313e 30c6 0ebd 58c4 7c3e 66e3 aa3c
000000d0: 522c 2f3e d26d 0a3e 6725 393e 87f7 5e3e
000000e0: e5d1 4e3e 00b3 563e 9fec 9c3d 30ab 12bd
000000f0: 368a 083d e268 f1bc 952b c4bd 63ef 04be
00000100: f0a7 9dbc d47b d03c 7efd d33d d07d 903d
00000110: 426d 433a 6ceb 373e b03f abbb 98fd 063e
00000120: 8e75 e73d 82c4 443e 642c 883e fc90 cf3e
00000130: 12c8 8d3e aa13 7b3d c3f5 5c3e 146c 9b3d
00000140: 8a60 6dbd c74b 9c3c 7f75 563c 3f42 c63d
00000150: 9d36 c93d b8dd 0a3e 3c07 693e f467 803e
00000160: e6f1 603e 0a8f ff3d 9495 9f3e aaa0 193e
00000170: 0ada 9e3e 3e69 623e a6e5 cf3b 6e2f 113e
00000180: 89ca 26bd 6672 a1bd 38a0 4d3e e1e4 d33d
00000190: 1b89 363d a52f 5abe aae3 8d3c 0e26 1fbd
000001a0: 800f 833e a271 8fba 2189 673e 9822 003e
000001b0: 0e1f 053e 2593 3dbd f826 e0bc b42f 073e
000001c0: f518 8ebc e9f5 60be 60d2 02be a12b 963e
000001d0: 2738 9bbd 6a6f 0e3d 8ce7 6e3e e42d 883e
000001e0: d9ea 153e dffd 2bbe 7f33 4c3d 2c5b 0fbe
000001f0: 49c3 f43c 1cb6 c23e 60e8 abbd 1e99 27bd
00000200: 6380 28bd 0bde 053e 43eb 2ebe f362 3ebe
00000210: b64e 253e 53c4 9c3e 29cb c13e d7cb e73e
00000220: 96cb 253f 7326 143f e9d9 123f a7bd 113f
00000230: 265b 333f 7525 6abc f92b d3b8 4ced 413e
00000240: 7f82 8c3e 50b2 d6bf d79b 3a3d 0e43 0a3e
00000250: b966 1cbe 1e80 173e ec85 a7bd f7d9 89be
00000260: 18fd 5b3d 92d3 083e 8ea6 19be 5a4e fe3c
00000270: 15dc 893d 3575 b23d 2cee 17bd 104f 8c3d
00000280: 920a 09be f78e 31be bf0f 773d 4328 123e
00000290: 4802 ab3e 6676 883e f227 913e 3191 5e3d
000002a0: 9867 25bc 2658 073e 81e3 91bc 7725 4fbd
000002b0: b8fe 09be 2593 bcbd fad3 87bd 62c9 ed3c
000002c0: 598f b13b 5df0 6a3e da6d 0b3e 52fc ab39
000002d0: cee6 533b 11e8 753f 03a3 a1bf 0440 713f
000002e0: 100b 81bd 16a5 1cbe 64a4 bc3c 3ffb c6bd
000002f0: 1025 c9bd a522 d9bd 1550 83be 765e 0dbd
00000300: 92de 033d 1029 b0bd 6d0f 2abe 6965 853d
00000310: 4cf4 c03d bf1e eebd cf59 e6bd 62ac 59be
00000320: 1db5 5cbe 68bf b83b 3b88 61bd 9954 eabd
00000330: 3b16 ffbd 034e 01be 623e 72be 71d1 b8bc
00000340: 03f0 723c 4e9c bf3d 57f2 98bd 5747 cb3d
00000350: 4274 f03d 0448 5abd c258 c4bc 1dcc ee3c
00000360: fb46 843a d7e8 0c3c 86bf 423f b2c3 35be
00000370: 70ad e3be ee14 0d3b 8421 9c3e e8c6 ea3d
00000380: 147e f73d 3479 533e bb38 9fbc 77be d33d
00000390: 81c4 c13d 3c4a ad3d afc2 1c3e 3538 cf3d
000003a0: d000 763e 3c15 cd3d 10e2 b4bd a529 e2bd
000003b0: 84ae f1bd e721 26bd f1b9 b8bd 4840 15be
000003c0: 9937 bf3e 5ac3 963b 6e24 9d3d a47a da3d
000003d0: c2c3 eabd 1fae 19be 92aa 503e 2ac4 de3e
000003e0: ea14 bc3e fb09 983c 6b3b f13e 97f9 d03e
000003f0: 09c3 3c3e ed16 d3b7 a71c 04bd a106 40be

model.rnn.weight_hh_l0 f4 [160, 40]
-0.0075917295 0.17330323 -0.18392046 0.08453945 0.14270455 -0.028009746 -0.053169414 -0.039139893
0.21529838 -0.0680831 -0.13876094 -0.0025141647 0.14261739 0.028973337 -0.114669845 -0.29893792
0.009701158 -0.1844074 0.050575104 -0.2589713 0.07097602 0.03378996 -0.17895107 0.023251154
0.014005496 0.22420746 0.20592444 0.23920834 -0.04320599 -0.19219239 -0.097310185 -0.16951272
0.17608137 -0.27690944 -0.039619584 0.11198213 0.21606301 0.023306528 -0.17200892 0.21589468
-0.015011388 0.0041056317 0.20421308 -0.039754003 0.0005861968 -0.03616496 0.058796804 0.09418141
0.2760195 0.053135224 0.15238397 0.12984537 -0.19173701 -0.07205433 -0.19273087 -0.2061614
0.042003855 0.011095435 0.212522 -0.19394678 0.26372164 -0.108815566 0.07313039 0.065312475
0.001750362 0.08464303 0.04597962 -0.3151577 0.053966414 -0.2872033 -0.118542805 0.04769403
-0.0938111 -0.02103408 0.072533585 -0.05301633 0.17043993 -0.09544882 -0.16595955 -0.2435678
-0.18515886 -0.010983543 0.15180798 0.077836834 -0.10746121 0.075289555 0.11847226 -0.12755553
-0.06322685 -0.076676264 0.03892687 0.08803938 -0.18125086 0.16425131 0.024210246 -0.11808663
0.083663255 -0.14322117 -0.001993179 -0.08808715 0.3308054 0.038857553 -0.06868107 0.07829134
-0.14063053 0.09647263 0.13092566 -0.15254693 0.23938996 0.014732851 -0.12331493 -0.20131731
0.2017297 -0.13641116 -0.04805569 0.10435769 0.21660073 -0.021145925 -0.30513728 -0.15892369
0.1437607 0.12662305 -0.29013893 -0.2917812 0.28889138 0.1405067 -0.33576453 -0.1403106
0.017380096 -0.118826084 -0.029995974 0.428134 0.19258037 0.17007872 -0.16202909 0.15924223
-0.15219223 0.23605959 -0.12046836 -0.8083348 -0.19475329 0.28286234 0.10787907 -0.32567546
-1.4395722 -0.10186951 0.08717968 -0.40321016 0.13544142 -0.3710759 0.021002313 -0.006004492
0.08840854 -0.16097248 -0.5599401 0.1875319 0.13965124 0.032080375 -0.2850335 -1.1505847
-0.08868711 0.19343543 -0.39746535 -0.12075533 -0.003620771 0.009188115 0.4412925 -0.21070337
-0.20915061 -0.23405467 0.21700904 0.19683217 -0.01591846 0.17915145 -0.26862556 -0.11944395
0.036175583 -0.22537506 -0.050076794 -0.16175719 0.7042853 -0.07655154 0.06904492 -0.13538186
0.20984119 0.014982214 0.0066300803 -0.65148985 0.32258415 -0.006313199 0.3330126 0.24508795
0.2954822 -0.41592735 0.20688611 0.37908018 0.33366236 0.6068589 -0.21528094 0.15860897
-0.07856602 0.13553996 0.16689917 -0.44624102 -0.18891113 -0.031811394 -0.12477236 0.2228877
0.22052395 0.15961306 0.1483359 0.08799052 0.22041744 0.09983919 0.1725282 -0.01571652
0.11944127 0.07746651 0.11651922 0.15173571 0.14289102 -0.012331587 -0.09325531 0.102568604
0.004261084 -0.053853076 0.07794092 -0.060967706 0.006097483 -0.11659638 0.051361267 0.08726735
0.009782236 0.06929398 0.055097163 -0.21635279 0.013121381 -0.10641555 0.04496114 0.03937082
-0.0415975 0.16103336 -0.61316997 -0.19070338 0.36580348 -0.2549427 0.18450399 -0.01416437
0.36609685 -0.122777686 0.21063176 -0.120942436 0.18245733 0.04652593 -0.1268501 0.0683072
00000000: 0bc4 f8bb 6776 313e a555 3cbe 0523 ad3d
00000010: 2421 123e b274 e5bc 2cc8 59bd 2751 20bd
00000020: 2e77 5c3e 276f 8bbd 5917 0ebe afc4 24bb
00000030: 4b0a 123e 7e59 ed3c 06d8 eabd 640e 99be
00000040: 9bf1 1e3c 4bd5 3cbe d727 4f3d e397 84be
00000050: e05b 913d 5767 0a3d f33e 37be 3479 be3c
00000060: 4f77 653c a496 653e dbdd 523e 08f3 743e
00000070: c4f8 30bd 15ce 44be 904a c7bd be94 2dbe
00000080: ad4e 343e 13c7 8dbe 2548 22bd e356 e53d
00000090: 9f3f 5d3e 55ed be3c 1b23 30be 7f13 5d3e
000000a0: 53f2 75bc 8988 863b 3c1d 513e 18d5 22bd
000000b0: 00ab 193a b621 14bd ebd4 703d 2fe2 c03d
000000c0: 6e52 8d3e 52a4 593d 8b0a 1c3e 2ff6 043e
000000d0: b556 44be 3891 93bd 3e5b 45be f91b 53be
000000e0: 3c0c 2c3d a1c9 353c 5e9f 593e fc99 46be
000000f0: 8606 873e b2da debd 63c5 953d 8cc2 853d
00000100: 676c e53a 5359 ad3d 2055 3c3d 5a5c a1be
00000110: e30b 5d3d 500c 93be 92c6 f2bd d15a 433d
00000120: 0920 c0bd aa4f acbc 7d8c 943d a727 59bd
00000130: ce87 2e3e ac7a c3bd 4df1 29be d669 79be
00000140: 499a 3dbe 51f4 33bc 8d73 1b3e eb68 9f3d
00000150: 9f14 dcbd 6931 9a3d 96a1 f23d eb9d 02be
00000160: 147d 81bd 7208 9dbd c871 1f3d fe4d b43d
00000170: d399 39be 7f31 283e 9154 c63c 67d7 f1bd
00000180: a457 ab3d 92a8 12be ff9f 02bb 0967 b4bd
00000190: 535f a93e 1929 1f3d a9a8 8cbd 3657 a03d
000001a0: 7301 10be 7193 c53d 6011 063e 4335 1cbe
000001b0: a422 753e 0e62 713c 8a8c fcbd 2026 4ebe
000001c0: 3b92 4e3e 5eaf 0bbe 0bd6 44bd 7cb9 d53d
000001d0: 95cc 5d3e 383a adbc f43a 9cbe e4bc 22be
000001e0: 0136 133e 79a9 013e 178d 94be 5864 95be
000001f0: 92e9 933e fde0 0f3e 54e9 abbe 95ad 0fbe
00000200: b460 8e3c 175b f3bd 1eba f5bc 6134 db3e
00000210: ca33 453e 1e29 2e3e f4ea 25be 6510 233e
00000220: 48d8 1bbe 9bb9 713e 1eb8 f6bd 08ef 4ebf
00000230: 686d 47be 55d3 903e b4ef dc3d efbe a6be
00000240: e743 b8bf f6a0 d0bd 438b b23d 9071 cebe
00000250: 28b1 0a3e a9fd bdbe 0b0d ac3c 54c1 c4bb
00000260: 890f b53d f8d5 24be 3c58 0fbf 5d08 403e
00000270: bc00 0f3e b666 033d e9ef 91be 5c46 93bf
00000280: 96a1 b5bd f013 463e 9480 cbbe 924e f7bd
00000290: 754a 6dbb bf89 163c 17f1 e13e a0c2 57be
000002a0: 942b 56be 07ac 6fbe 9e37 5e3e 5f8e 493e
000002b0: 6e67 82bc 7a73 373e 4a89 89be 089f f4bd
000002c0: d92c 143d b8c8 66be 531d 4dbd ada3 25be
000002d0: 0b4c 343f 0ec7 9cbd 6c67 8d3d 8ba1 0abe
000002e0: 9ce0 563e f677 753c 2541 d93b 0ac8 26bf
000002f0: c029 a53e f4de cebb a180 aa3e 56f8 7a3e
00000300: 7149 973e 6ef4 d4be f4d9 533e cc16 c23e
00000310: cbd5 aa3e 1b5b 1b3f 9b72 5cbe 646a 223e
00000320: 39e7 a0bd fdca 0a3e 9ee7 2a3e b479 e4be
00000330: eb71 41be aa4c 02bd a788 ffbd ac3c 643e
00000340: 08d1 613e 9b71 233e 5ee5 173e 6034 b43d
00000350: 1cb5 613e 7d78 cc3d 3cab 303e eebf 80bc
00000360: a09d f43d c3a6 9e3d a1a1 ee3d 9b60 1b3e
00000370: 0652 123e 6d0a 4abc a4fc bebd 7d0f d23d
00000380: 90a0 8b3b 0b95 5cbd 7d9f 9f3d 46b9 79bd
00000390: 65cd c73b 15ca eebd 3160 523d 39b9 b23d
000003a0: ac45 203c 01ea 8d3d 90ad 613d 968b 5dbe
000003b0: 10fb 563c 65f0 d9bd 2c29 383d 4c43 213d
000003c0: 2462 2abd eee5 243e b5f8 1cbf bf47 43be
000003d0: 984a bb3e d987 82be 9dee 3c3e ac11 68bc
000003e0: 0c71 bb3e de72 fbbd daaf 573e abb0 f7bd
000003f0: 18d6 3a3e f991 3e3d fee4 01be a5e4 8b3d

model.rnn.bias_ih_l0 f4 [160]
0.057981886 0.21609126 0.013276022 0.060369737 0.094901994 0.18051004 0.040650614 -0.19350904
0.07413239 -0.06863968 -0.09975657 0.085080914 -0.083637096 -0.048187636 -0.032974597 0.11238956
-0.01155048 -0.029950812 0.048328053 -0.07662439 0.0017228972 0.09350896 0.37079766 0.24582309
-0.09362679 0.016780617 0.011077547 0.1425805 0.029949794 0.096253514 0.0052900333 -0.00066881016
-0.05645268 0.05021055 0.16854021 -0.010222782 0.28496766 -0.0096114185 -0.027577734 0.0051969327
-0.04569053 0.0347643 -0.20622668 0.1562779 -0.008917037 0.06124399 -0.22921589 0.031603836
0.0510342 -0.24990182 0.076472886 -0.08526201 0.107800506 -0.16408834 0.16917098 0.12721968
-0.04388194 -0.05912754 -0.05326118 0.057340194 0.035383612 0.07718021 0.021380033 0.13206048
-0.038824007 0.040812798 0.18988624 -0.19766484 0.046478488 0.25005132 0.006241536 0.11068831
-0.08374493 0.1690887 -0.08460303 -0.07206174 0.12196036 -0.026430175 -0.06966489 0.0012947869
-0.109942645 0.16505858 -0.08177409 -0.019895429 -0.034635685 0.11340122 -0.084704556 -0.082510546
0.04646127 0.13213699 -0.015650153 0.07872516 0.09191735 0.04667986 -0.11894597 0.056485422
0.08031834 -0.13741092 -0.08996913 -0.027780114 0.019429032 -0.15433443 -0.111939244 -0.059743565
-0.048978686 0.15744284 0.021260157 -0.104531035 -0.019809736 -0.09322399 0.13100918 -0.032981567
0.08884918 -0.1872444 -0.15979165 -0.14764717 0.21693556 0.096979976 0.08896158 0.006181693
-0.03600142 0.045371003 0.2061636 -0.116358764 0.14236179 -0.019447306 -0.14960459 0.051429424
0.09620573 -0.09708036 0.032739535 0.24761471 0.0510971 0.079234615 0.1776686 0.11747129
-0.11140772 -0.035716813 -0.14312424 0.03915003 -0.07227698 0.36095265 -0.0041111056 -0.018033182
-0.034782518 0.10287171 -0.028403774 0.11588395 0.019031337 0.08036065 0.10241435 -0.18706201
0.12995097 0.038378663 -0.13121442 0.13953055 -0.041045055 0.08989291 -0.049899314 0.257937
00000000: 6a7e 6d3d 0747 5d3e ac83 593c 4246 773d
00000010: fa5b c23d a0d7 383e 4281 263d 3c27 46be
00000020: b9d2 973d f692 8cbd 2c4d ccbd e73e ae3d
00000030: ed49 abbd 6660 45bd 5f10 07bd 7f2c e63d
00000040: 393e 3dbc 685b f5bc a3f3 453d 40ed 9cbd
00000050: d6d2 e13a a081 bf3d 31d9 bd3e 0cb9 7b3e
00000060: 67bf bfbd 8177 893c 9a7e 353c 9f00 123e
00000070: 4559 f53c 9020 c53d 0458 ad3b 1753 2fba
00000080: ed3a 67bd 94a9 4d3d ce95 2c3e 757d 27bc
00000090: 48e7 913e 3679 1dbc b3ea e1bc 084b aa3b
000000a0: fe25 3bbd 0365 0e3d 162d 53be 5007 203e
000000b0: c418 12bc fada 7a3d 92b7 6abe 0673 013d
000000c0: 3d09 513d 43e6 7fbe d19d 9c3d d99d aebd
000000d0: 83c6 dc3d c606 28be 283b 2d3e e045 023e
000000e0: 8dbd 33bd b82f 72bd 6528 5abd 8ddd 6a3d
000000f0: 68ee 103d a810 9e3d 2e25 af3c dd3a 073e
00000100: ec05 1fbd 522b 273d 8a71 423e a768 4abe
00000110: 3a60 3e3d ba06 803e cc85 cc3b 8db0 e23d
00000120: 7682 abbd 9725 2d3e 5a44 adbd 1b95 93bd
00000130: 5ac6 f93d 1884 d8bc 77ac 8ebd d7b5 a93a
00000140: 9c29 e1bd 1e05 293e 2d79 a7bd bdfb a2bc
00000150: 26de 0dbd e63e e83d 9579 adbd 4afb a8bd
00000160: 2c4e 3e3d eb4e 073e c034 80bc a83a a13d
00000170: 2a3f bc3d 6233 3f3d f299 f3bd 425d 673d
00000180: f17d a43d 73b5 0cbe bc41 b8bd 1f93 e3bc
00000190: a229 9f3c d809 1ebe 6740 e5bd abb5 74bd
000001a0: e09d 48bd b238 213e c829 ae3c 5e14 d6bd
000001b0: 0748 a2bc 38ec bebd 4527 063e ae17 07bd
000001c0: 8ff6 b53d ffbc 3fbe 6ca0 23be d230 17be
000001d0: 5b24 5e3e 709d c63d 7d31 b63d cd8f ca3b
000001e0: 3a76 13bd f2d6 393d 8d1c 533e 814d eebd
000001f0: 4ac7 113e f54f 9fbc f231 19be a9a7 523d
00000200: 8307 c53d 11d2 c6bd e419 063d b68e 7d3e
00000210: 314b 513d c245 a23d c2ee 353e ca94 f03d
00000220: bb29 e4bd cb4b 12bd 298f 12be c85b 203d
00000230: f405 94bd c9ce b83e 74b6 86bb 53ba 93bc
00000240: 1d78 0ebd 67ae d23d 08af e8bc 9054 ed3d
00000250: 9be7 9b3c 2094 a43d 9dbe d13d 2f8d 3fbe
00000260: de11 053e f232 1d3d 135d 06be 19e1 0e3e
00000270: dc1e 28bd c619 b83d 3963 4cbd 5210 843e

model.rnn.bias_hh_l0 f4 [160]
0.1508895 0.16051476 0.010845477 -0.06773818 -0.042420883 0.04241583 0.01903645 0.00890313
0.06758836 -0.068416 0.03607889 0.1763578 -0.046514936 -0.064433716 0.030195102 0.17117968
-0.055531096 0.12813804 -0.008541166 -0.009472577 0.15594718 0.270507 0.40840992 0.04503639
0.08308413 0.05025992 0.0116491625 -0.065284476 -0.04389187 0.19857079 -0.08120282 -0.082896225
-0.085024066 -0.05531406 -0.11073063 0.04871042 0.1220016 -0.113783546 0.10977014 0.08785443
0.15126385 -0.01045951 -0.19790542 0.037982672 -0.030003529 0.13578866 -0.19512334 0.17302378
0.13836381 -0.16110654 0.11633704 -0.08764539 -0.08290366 0.06919692 -0.08949591 0.115758784
-0.0026722036 -0.007764109 -0.066543095 0.1206853 0.10551894 -0.0634238 0.17497252 0.16394284
-0.03305858 -0.08227254 0.013574127 -0.22002593 -0.10734016 -0.006541825 -0.12270054 0.017572042
-0.042942706 0.025913242 -0.065614276 0.11197945 0.059598133 -0.10946477 0.09671802 -0.14757463
0.10120045 -0.021209959 0.11085554 0.14041501 0.071327835 -0.00013562123 -0.040909927 0.061127096
0.20436078 0.19331999 0.055798437 0.045318738 0.17755893 0.022005752 0.12360442 0.13942191
-0.19030297 0.11400927 0.19378954 -0.1707569 -0.015125181 -0.016632732 -0.008472163 -0.07146232
-0.0691741 0.14871407 -0.11265182 -0.14097217 0.08584145 0.13872793 0.0633413 0.07716219
-0.009624795 0.058708925 -0.16218996 -0.033222985 0.2127812 -0.08240137 0.0057898685 -0.0817686
-0.053539492 0.17482051 0.24349405 0.09087958 0.17103405 0.08017272 -0.18537688 0.08242942
-0.01735847 -0.11615545 0.014830375 0.21639264 0.081283875 -0.13593295 0.072576895 -0.07432473
-0.07710051 0.07322791 0.09737946 -0.060394216 0.005485223 0.0657297 0.13530524 -0.053337652
0.15627417 -0.05914703 -0.046894863 -0.02208197 -0.07213462 -0.09101625 0.11859405 0.057193052
0.07201509 0.18479948 0.004426419 -0.108957656 -0.11755293 -0.11844883 -0.029594786 0.2897771
00000000: c782 1a3e fb5d 243e 3ab1 313c 51ba 8abd
00000010: 85c1 2dbd 39bc 2d3d 54f2 9b3c 6fde 113c
00000020: c46b 8a3d b01d 8cbd 75c7 133d 2497 343e
00000030: 7286 3ebd d3f5 83bd b85b f73c ba49 2f3e
00000040: 9374 63bd 9e36 033e 3ff0 0bbc de32 1bbc
00000050: 9eb0 1f3e e57f 8a3e 1b1b d13e 1478 383d
00000060: 0328 aa3d 59dd 4d3d 21dc 3e3c deb3 85bd
00000070: f6c7 33bd 2456 4b3e aa4d a6bd 7fc5 a9bd
00000080: 1921 aebd ff90 62bd bec6 e2bd 9484 473d
00000090: fadb f93d 5907 e9bd 2bcf e03d 06ed b33d
000000a0: e9e4 1a3e 5d5e 2bbc b8a7 4abe b893 1b3d
000000b0: f6c9 f5bc 2f0c 0b3e 6ace 47be 252d 313e
000000c0: 3eaf 0d3e 1df9 24be 1d42 ee3d 6d7f b3bd
000000d0: 65c9 a9bd 1db7 8d3d a249 b7bd f112 ed3d
000000e0: 2320 2fbb 116a febb bf47 88bd db29 f73d
000000f0: 501a d83d 56e4 81bd ff2b 333e a2e0 273e
00000100: 6f68 07bd 817e a8bd 0466 5e3c 7a4e 61be
00000110: 28d5 dbbd ce5c d6bb 6c4a fbbd 3ef3 8f3c
00000120: b1e4 2fbd 0248 d43c c760 86bd 7b55 e53d
00000130: 2c1d 743d 112f e0bd 1914 c63d ce1d 17be
00000140: 2e42 cf3d 82c0 adbc 3b08 e33d f4c8 0f3e
00000150: 5414 923d 8c35 0eb9 2b91 27bd 6860 7a3d
00000160: f443 513e adf5 453e e78c 643d 24a0 393d
00000170: 02d2 353e 6845 b43c 5024 fd3d 9ec4 0e3e
00000180: c8de 42be b17d e93d c470 463e e6da 2ebe
00000190: 9bcf 77bc 5e41 88bc d4ce 0abc d65a 92bd
000001a0: 27ab 8dbd 8048 183e ffb5 e6bd 025b 10be
000001b0: a4cd af3d b20e 0e3e 15b9 813d 3607 9e3d
000001c0: 51b1 1dbc c578 703d 2015 26be d314 08bd
000001d0: 51e3 593e 0dc2 a8bd f0b8 bd3b 4c76 a7bd
000001e0: 3a4c 5bbd 2604 333e 8156 793e 131f ba3d
000001f0: 8d23 2f3e 9831 a43d 70d3 3dbe c1d0 a83d
00000200: 5a33 8ebc e9e2 edbd 1afb 723c 0896 5d3e
00000210: 2978 a63d 0232 0bbe 32a3 943d 9037 98bd
00000220: dfe6 9dbd 84f8 953d e26e c73d ed5f 77bd
00000230: 63bd b33b 4b9d 863d 758d 0a3e 9578 5abd
00000240: 5606 203e 2844 72bd d414 40bd 3fe5 b4bc
00000250: 51bb 93bd ba66 babd 70e1 f23d 4343 6a3d
00000260: a67c 933d 133c 3d3e 7e0b 913b 3125 dfbd
00000270: 97bf f0bd 4d95 f2bd c470 f2bc aa5d 943e

model.rnn.weight_ih_l1 f4 [160, 40]
0.026596503 -0.07043391 -0.32399723 0.1144008 0.017576877 0.14096819 0.1782294 -0.11502323
-0.02836925 -0.358296 -0.10628834 -0.07211327 -0.26043046 0.09449631 -0.024591379 -0.04339767
0.17621951 0.07718409 -0.3021948 0.12117654 0.11321107 0.018928848 0.07615248 -0.06405432
-0.15371005 -0.051492263 -0.08407855 0.4530726 0.012281144 0.15411913 -0.23091768 -0.275145
0.12583517 0.0050519034 0.20276883 0.07190431 0.17002644 0.10033499 -0.0045806454 0.37462273
-0.2135601 -0.22743599 -0.13036266 -0.020537289 -0.1765823 0.07457862 0.723199 -0.17607722
-0.30043292 -0.4217421 -0.11746363 -0.55180615 0.067445725 0.21570723 0.089045994 -0.035297908
0.023101976 0.048323065 -0.0914287 -0.70650905 0.15897426 0.094902225 -0.0413835 -0.24062608
-0.0197955 0.46606535 0.43674275 0.19487223 0.0033531405 -0.07459439 -0.18633778 -0.08726214
0.39001322 -0.43537974 0.12987247 0.07953551 0.028496869 0.2677172 -0.46101224 0.35412094
0.01931589 0.062218383 0.11314062 0.006276744 -0.14387871 -0.0689564 -0.24222852 -0.2637062
0.15469435 0.070256725 -0.037944347 0.21636122 -0.051669776 -0.17334513 -0.00928464 -0.015900118
-0.34705907 -0.10209413 -0.025183069 -0.1345488 -0.5051383 0.2040399 0.1591517 -0.025703939
0.00012542051 -0.13229111 -0.18106206 -0.17876607 0.09383548 0.38522226 -0.32153857 0.4299202
-0.48337647 0.1646287 -0.23629431 0.028863939 0.11277693 -0.11874353 -0.20260149 -0.16938291
-0.08758705 -0.4717695 0.07255475 0.28825617 -0.030217905 -0.07280582 0.59162354 1.1308591
-0.0025510506 -0.4395402 0.09969051 -0.48475775 0.1168451 0.05379431 -0.03958361 0.068892755
0.06230983 -0.13352719 -0.3390939 -0.043646436 0.22151406 -0.60974294 0.05175405 0.16696885
-0.41407406 0.12758201 0.0059013604 -0.6158041 -0.1531242 0.030457415 0.22802603 0.31462327
0.25650063 -0.20544982 -0.041014962 0.005985263 -0.05452821 0.445242 -0.11177755 0.36158612
-0.17408973 0.39839447 -0.19186886 0.31136486 -0.28995192 -0.07647079 -0.20303746 0.022500597
0.13007256 0.1445169 0.0013197224 -0.08448366 -0.19370319 0.057373464 0.053958878 -0.09734528
0.23990807 0.010041235 0.05862968 -0.07252979 0.1433786 0.09780321 0.06728727 -0.28155607
-0.2704176 0.12852186 -0.0067945523 0.18223712 0.006597098 -0.5442072 -0.0080070915 -0.14643614
0.20440912 0.01853413 0.016392808 0.22532937 -0.1378218 0.20896061 -0.16955058 -0.5045759
0.13577273 -0.2129075 0.121787764 -0.12026931 0.13436005 0.0012748484 -0.17588273 0.051024288
0.0041316375 0.12478602 0.15775894 0.0046998607 -0.03190778 0.043462574 -0.003752234 0.17193943
0.13310581 0.056024395 -0.24522352 -0.040523194 0.10327855 0.10758586 0.03381842 0.17412116
0.15641686 0.12516464 -0.05923417 0.034946643 -0.0057542683 0.10799528 0.047190223 0.0014410118
-0.01835967 0.08254447 -0.03336445 0.015007871 -0.11023314 0.19895303 -0.081966266 -0.29331776
-0.31756485 -0.20280042 -0.14068966 0.1740613 -0.1159375 -0.09142287 0.22303589 -0.13203067
-0.17571124 -0.05040714 -0.15902743 0.01436673 -0.19549522 0.20409504 -0.12426948 -0.10535347
00000000: e9e0 d93c a73f 90bd f7e2 a5be f74a ea3d
00000010: 62fd 8f3c f759 103e c581 363e 4d91 ebbd
00000020: a166 e8bc 9372 b7be b4ad d9bd 1fb0 93bd
00000030: 2457 85be 4887 c13d dc73 c9bc c1c1 31bd
00000040: e372 343e b112 9e3d 47b9 9abe 682b f83d
00000050: 35db e73d ac10 9b3c d5f5 9b3d e92e 83bd
00000060: 2b66 1dbe 8de9 52bd 6031 acbd 22f9 e73e
00000070: da36 493c 68d1 1d3e af75 6cbe cedf 8cbe
00000080: efda 003e 708a a53b a2a2 4f3e 9142 933d
00000090: 691b 2e3e 6e7c cd3d 3d19 96bb 8dce bf3e
000000a0: 80af 5abe fbe4 68be ca7d 05be d13d a8bc
000000b0: fed1 34be adbc 983d 9223 393f 964d 34be
000000c0: 58d2 99be 95ee d7be c690 f0bd 2b43 0dbf
000000d0: fc20 8a3d 5be2 5c3e bf5d b63d 8a94 10bd
000000e0: 5b40 bd3c 68ee 453d f83e bbbd c7dd 34bf
000000f0: 26ca 223e 195c c23d bf81 29bd af66 76be
00000100: 2c2a a2bc 1ea0 ee3e bf9c df3e 968c 473e
00000110: 5dc0 5b3b f2c4 98bd 55cf 3ebe 7eb6 b2bd
00000120: d0af c73e 18ea debe 4afd 043e 83e3 a23d
00000130: 4472 e93c 3b12 893e cc09 ecbe 574f b53e
00000140: 5b3c 9e3c b4d8 7e3d 45b6 e73d 25ad cd3b
00000150: f154 13be 0339 8dbd c10a 78be 8004 87be
00000160: 3268 1e3e c2e2 8f3d 886b 1bbd cc8d 5d3e
00000170: b0a3 53bd 6381 31be 9a1e 18bc f740 82bc
00000180: bab1 b1be ba16 d1bd b94c cebc 29c7 09be
00000190: be50 01bf d6ef 503e aaf8 223e 1191 d2bc
000001a0: 5083 0339 5277 07be 5568 39be 740e 37be
000001b0: d12c c03d da3b c53e b4a0 a4be 801e dc3e
000001c0: 1f7d f7be 6d94 283e 23f7 71be 1174 ec3c
000001d0: 97f7 e63d cf2f f3bd c476 4fbe b772 2dbe
000001e0: d760 b3bd c68b f1be 9697 943d 5096 933e
000001f0: 8a8b f7bc 381b 95bd a474 173f febf 903f
00000200: 872f 27bb 6a0b e1be 8a2a cc3d 2b32 f8be
00000210: 7c4c ef3d 6c57 5c3d 6c22 22bd a517 8d3d
00000220: 9838 7f3d 5abb 08be b79d adbe 9bc6 32bd
00000230: 95d4 623e 1d18 1cbf 0efc 533d e2f9 2a3e
00000240: 8401 d4be dca4 023e 3360 c13b 56a5 1dbf
00000250: 97cc 1cbe d481 f93c a87f 693e 4d16 a13e
00000260: 0d54 833e 7061 52be 4eff 27bd 0620 c43b
00000270: f958 5fbd c2f6 e33e a1eb e4bd d121 b93e
00000280: 9444 32be 5cfa cb3e 4579 44be 376b 9f3e
00000290: 9474 94be b89c 9cbd 0de9 4fbe 2c53 b83c
000002a0: be31 053e 3dfc 133e 89fa ac3a c505 adbd
000002b0: 215a 46be 7000 6b3d fc03 5d3d f65c c7bd
000002c0: 76aa 753e fe83 243c ad25 703d 808a 94bd
000002d0: d7d1 123e 0d4d c83d e9cd 893d 1e28 90be
000002e0: 2d74 8abe 3c9b 033e d6a4 debb 5e9c 3a3e
000002f0: 782c d83b 2a51 0bbf 2d30 03bc 5bf3 15be
00000300: a050 513e e3d4 973c 364a 863c bebc 663e
00000310: 2821 0dbe c5f9 553e ab9e 2dbe e32b 01bf
00000320: 0208 0b3e 6c04 5abe dd6b f93d c24f f6bd
00000330: ae95 093e d018 a73a 9a1a 34be d8fe 503d
00000340: b062 873b d08f ff3d 8f8b 213e 4a01 9a3b
00000350: bbb1 02bd d005 323d 0ae8 75bb e410 303e
00000360: e44c 083e d679 653d e01b 7bbe a6fb 25bd
00000370: b483 d33d fa55 dc3d 2f85 0a3d d14c 323e
00000380: be2b 203e 292b 003e 879f 72bd 3624 0f3d
00000390: 4d8e bcbb a12c dd3d 894a 413d 55e0 bc3a
000003a0: 0567 96bc 130d a93d 29a9 08bd 93e3 753c
000003b0: eac1 e1bd 58ba 4b3e eedd a7bd bf2d 96be
000003c0: dc97 a2be eaaa 4fbe f310 10be 203d 323e
000003d0: a470 edbd ea3b bbbd 8563 643e 0c33 07be
000003e0: a6ed 33be b877 4ebd 16d8 22be 6f62 6b3c
000003f0: e62f 48be 4afe 503e ff80 febd 8fc3 d7bd

model.rnn.weight_hh_l1 f4 [160, 40]
-0.024925623 0.1411407 -0.16411701 -0.0649336 -0.098199 -0.11744467 0.11864708 -0.057665177
-0.11820503 -0.16474962 -0.03501962 0.10272332 -0.000424431 -0.015925078 -0.075818345 -0.10183009
0.2977274 -0.028567944 0.13381779 -0.0026811794 -0.026349306 0.03135299 -0.044259395 -0.13240948
0.121711455 0.1612425 0.08824125 -0.043917898 0.0074884896 0.03832585 -0.1693356 -0.045275435
0.08086908 -0.01768109 -0.076895036 0.033285413 0.008543924 -0.0069779316 0.0723877 0.16343209
-0.19960326 0.20206004 -0.1715901 0.09388611 0.067683116 0.07207302 0.24465089 -0.01415154
-0.1804173 -0.2088434 0.051971138 -0.08550701 -0.12959369 0.13012648 -0.027360277 0.02413123
-0.03433504 0.045783445 0.23755544 -0.091935575 0.06696764 0.097871415 -0.24032502 -0.01932749
0.076972775 0.085937925 -0.023333715 -0.08508055 -0.027927475 0.045193434 -0.13988361 0.04749255
0.04406601 0.035547614 -0.08901624 -0.15941457 -0.13140763 -0.091216326 0.113300785 0.23515433
-0.08300593 0.020841075 0.14538366 -0.044847418 -0.03578042 0.16874465 -0.017387172 -0.057850283
-0.22554493 -0.19086859 0.10582868 0.15723951 0.07921454 0.13117625 0.078266 0.058679093
0.12250147 0.25726572 0.0863642 0.18499571 -0.078808 0.135423 0.33508375 0.27352872
-0.08319522 0.11880174 -0.09456415 -0.16565903 0.25016215 0.01670439 0.0129281245 -0.14739726
-0.053590775 0.47064632 0.26629525 0.17577785 -0.35592234 -0.10342739 0.21789329 0.094999924
-0.21350595 0.042650346 -0.4211194 -0.05834232 -0.3444567 0.091423124 0.24786864 -0.10809629
-0.35471323 0.06875884 0.16281357 -0.14149229 0.07492058 -0.034748446 -0.04664404 0.07290126
-0.16114134 0.38328996 -0.08060953 -0.20853232 0.17567155 -0.15622221 0.048016515 0.09742868
0.29972824 0.00948486 0.18160976 0.0035064816 0.11159843 -0.056864925 -0.063825786 -0.12161811
0.027843708 -0.07595898 -0.09053329 -0.12009704 -0.08374597 -0.06971458 -0.08327 0.111709304
0.02946518 0.11458647 -0.14863384 -0.08464785 0.06751766 0.14198525 -0.042759746 -0.019387256
-0.024379803 -0.14008668 -0.12550607 0.11495659 -0.08785003 -0.13998377 0.19409509 0.096414395
0.1428424 0.6944663 0.062445126 -0.107460745 0.06326527 0.03322377 0.1172219 0.30413616
-0.036178466 0.07218934 0.05600563 -0.02336738 -0.15814433 -0.14644895 -0.078012645 -0.042093802
-0.11587738 0.18743098 0.06693844 0.012456655 -0.08504248 -0.023833143 0.07331623 0.010964603
0.049754232 0.12664936 -0.040621437 0.13910165 -0.13359946 0.109646246 0.038450748 0.091114506
0.12057091 0.095191084 0.12572955 0.036743943 0.03913669 -0.03924741 0.17212515 0.16108988
-0.029763842 -0.21484582 0.05114881 0.056232065 -0.027458692 0.12100586 0.19908296 0.041956104
0.05762202 -0.03807416 0.07085314 0.03985188 -0.11902424 -0.065506026 0.14545424 -0.058089867
-0.15333569 -0.17177154 -0.020891236 0.060193747 -0.06810833 -0.16401455 0.024051594 0.109543815
-0.12723291 0.1261342 -0.07261018 -0.041565087 0.027182296 -0.032698486 0.18960467 0.12338617
0.08242331 -0.15442699 0.10185818 -0.08876236 -0.047314834 -0.00029545545 0.07710835 0.13105908
00000000: d230 ccbc 3087 103e 4a0e 28be e8fb 84bd
00000010: 8f1c c9bd d586 f0bd 3efd f23d 5232 6cbd
00000020: 7b15 f2bd 20b4 28be bc70 0fbd 9b60 d23d
00000030: 2a86 deb9 4f75 82bc a646 9bbd 4b8c d0bd
00000040: ba6f 983e 5207 eabc 8807 093e bab6 2fbb
00000050: 80da d7bc fe6b 003d 5749 35bd 5a96 07be
00000060: db43 f93d c11c 253e d4b7 b43d 41e3 33bd
00000070: 0162 f53b 91fb 1c3d 5066 2dbe bc72 39bd
00000080: b09e a53d efd7 90bc 257b 9dbd 4956 083d
00000090: d1fb 0b3c 22a7 e4bb 0140 943d be5a 273e
000000a0: cc64 4cbe d4e8 4e3e 51b5 2fbe 5c47 c03d
000000b0: 729d 8a3d 059b 933d c385 7a3e dcdb 67bc
000000c0: 50bf 38be 0bdb 55be b0df 543d 4d1e afbd
000000d0: 35b4 04be e03f 053e a922 e0bc dbae c53c
000000e0: e6a2 0cbd 6c87 3b3d bc41 733e b848 bcbd
000000f0: 5426 893d cf70 c83d c317 76be af54 9ebc
00000100: e7a3 9d3d 3900 b03d 5926 bfbc b63e aebd
00000110: 29c8 e4bc c01c 393d a63d 0fbe 8c87 423d
00000120: 8f7e 343d 609a 113d 254e b6bd 933d 23be
00000130: b98f 06be a0cf babd 3e0a e83d 4ccc 703e
00000140: 03ff a9bd e7ba aa3c 74df 143e edb1 37bd
00000150: 7d8e 12bd 66cb 2c3e 8b6f 8ebc 6bf4 6cbd
00000160: 40f5 66be 0e73 43be b5bc d83d 6503 213e
00000170: 3c3b a23d 1153 063e ed49 a03d 7d59 703d
00000180: 0de2 fa3d 55b8 833e b7df b03d 846f 3d3e
00000190: 1766 a1bd 54ac 0a3e 1990 ab3e f50b 8c3e
000001a0: 4162 aabd 544e f33d d9aa c1bd 85a2 29be
000001b0: 4115 803e a5d7 883c 7cd0 533c 4fef 16be
000001c0: 0082 5bbd 8ef8 f03e da57 883e 1cff 333e
000001d0: 743b b6be bdd1 d3bd 6b1f 5f3e 528f c23d
000001e0: 4ea1 5abe 21b2 2e3d f69c d7be 5bf8 6ebd
000001f0: a15c b0be 0c3c bb3d 47d1 7d3e 9661 ddbd
00000200: f99c b5be 6fd1 8c3d 9ab8 263e 5be3 10be
00000210: f66f 993d 6354 0ebd d20d 3fbd 414d 953d
00000220: 3c02 25be 953e c43e 9c16 a5bd 7f89 55be
00000230: 3ee3 333e b7f8 1fbe f7ac 443d b088 c73d
00000240: fb75 993e 6366 1b3c e9f7 393e 00cd 653b
00000250: b88d e43d 32eb 68bd 18b7 82bd ea12 f9bd
00000260: 7d18 e43c 6290 9bbd 8469 b9bd 70f5 f5bd
00000270: 0283 abbd 85c6 8ebd 7689 aabd d9c7 e43d
00000280: f660 f13c 50ac ea3d 7833 18be da5b adbd
00000290: b346 8a3d 9564 113e d824 2fbd 06d2 9ebc
000002a0: 27b8 c7bc e272 0fbe aa84 00be 5c6e eb3d
000002b0: b7ea b3bd e857 0fbe ddc0 463e e974 c53d
000002c0: 4745 123e 8bc8 313f 76c6 7f3d 6114 dcbd
000002d0: 3991 813d a615 083d 0912 f03d bcb7 9b3e
000002e0: df2f 14bd 01d8 933d 2966 653d f36c bfbc
000002f0: 96f0 21be b7f6 15be 18c5 9fbd 8d6a 2cbd
00000300: 1f51 edbd e8ed 3f3e 0517 893d ff16 4c3c
00000310: c02a aebd b93d c3bc d226 963d e1a4 333c
00000320: 18cb 4b3d 5fb0 013e aa62 26bd aa70 0e3e
00000330: 4cce 08be 368e e03d 887e 1d3d 3e9a ba3d
00000340: e2ed f63d 8bf3 c23d 3fbf 003e d180 163d
00000350: cb4d 203d e4c1 20bd 9341 303e bff4 243e
00000360: 4dd3 f3bc 8b00 5cbe 6a81 513d 9853 663d
00000370: 0df1 e0bc ecd1 f73d 67dc 4b3e 2ada 2b3d
00000380: 1105 6c3d a7f3 1bbd 731b 913d ba3b 233d
00000390: fbc2 f3bd 0628 86bd f5f1 143e a4ef 6dbd
000003a0: 0804 1dbe e1e4 2fbe 1924 abbc b88d 763d
000003b0: 617c 8bbd 6ef3 27be d907 c53c 8258 e03d
000003c0: 5849 02be 5329 013e a5b4 94bd 2740 2abd
000003d0: 68ad de3c d9ee 05bd ba27 423e e3b1 fc3d
000003e0: 8dcd a83d 1c22 1ebe 059b d03d 0ac9 b5bd
000003f0: 33cd 41bd 5ce7 9ab9 fcea 9d3d 5a34 063e

model.rnn.bias_ih_l1 f4 [160]
0.14997652 0.1461671 -0.12057411 -0.085191004 0.07777595 -0.06800798 0.36323875 -0.01710527
0.1518383 0.04208768 0.15063816 0.07270777 0.084543176 -0.116937466 0.14529315 0.16216585
0.25024325 0.15201823 0.08816277 0.19222574 0.2113094 -0.009570454 0.27421603 0.1981934
0.064607196 -0.074898854 -0.106951326 0.0725018 0.09292508 0.25745484 0.050606575 -0.0034113943
0.042741932 -0.11315356 -0.082399614 0.050901804 0.17216682 0.014010316 0.18313769 0.54388297
0.09202128 0.2636721 0.18323803 0.23131832 0.22277535 0.05379103 0.02211244 -0.029570106
0.18923827 0.094522305 -0.03670891 0.18199544 0.05636428 -0.047101058 0.21594192 0.10979677
0.08783878 0.021009067 0.06502631 0.17861034 0.07150686 0.14402536 -0.030611675 -0.038012534
0.041438293 0.15414862 0.04846803 -0.034547403 -0.07185697 0.1457628 0.17364033 0.12191423
-0.09144206 -0.083429255 -0.023626352 -0.05381327 0.08653198 0.06673596 0.19535801 0.14711742
-0.07595146 0.13838851 0.1296447 -0.08588861 -0.026739236 -0.07101294 0.17161237 -0.05760634
0.0908534 -0.019426147 0.04008488 -0.28732172 -0.1712238 0.11759836 -0.18167181 0.107941516
-0.097220294 0.14739987 0.044707164 -0.104841374 0.15310179 -0.0462112 0.09991993 -0.13959035
0.0009461903 -0.028218757 -0.15452623 -0.09358243 0.13393486 -0.047578134 -0.10423385 -0.15687469
0.008129207 0.058738723 -0.01197353 -0.17952156 -0.030854324 -0.13188 0.1778828 0.053689804
-0.122808464 0.1849836 0.17167263 -0.02415492 -0.09963849 0.07095203 0.14410304 0.07127463
-0.015195017 0.002058378 -0.06353135 0.0065987813 -0.021421745 -0.092276886 0.21824478 0.044802178
0.2155342 0.10743496 0.13167588 -0.07270338 0.14534234 -0.072295226 0.03591869 0.22870426
0.03907906 0.054261155 0.019176312 0.1760265 -0.12383637 0.037304603 -0.07433666 -0.09690409
0.014102107 0.09911231 -0.13373186 -0.0039937505 0.30192012 0.18098816 0.027498297 0.16155249
00000000: 7293 193e d4ac 153e 8fef f6bd 9f78 aebd
00000010: ff48 9f3d c547 8bbd 6efa b93e 5a20 8cbc
00000020: 807b 1b3e 2264 2c3d e440 1a3e d0e7 943d
00000030: f924 ad3d e97c efbd bac7 143e ce0e 263e
00000040: e21f 803e abaa 1b3e af8e b43d d3d6 443e
00000050: 7e61 583e 65cd 1cbc 0b66 8c3e 36f3 4a3e
00000060: c750 843d 9264 99bd 4c09 dbbd d37b 943d
00000070: 814f be3d 1fd1 833e d748 4f3d b391 5fbb
00000080: 2a12 2f3d 0ebd e7bd 21c1 a8bd 697e 503d
00000090: 804c 303e 868b 653c 7288 3b3e ea3b 0b3f
000000a0: a775 bc3d 0800 873e c0a2 3b3e b6de 6c3e
000000b0: 391f 643e fc53 5c3d 2625 b53c 023d f2bc
000000c0: adc7 413e e994 c13d 155c 16bd 035d 3a3e
000000d0: 3bde 663d 0aed 40bd e11f 5d3e 21dd e03d
000000e0: d1e4 b33d 351b ac3c 842c 853d a1e5 363e
000000f0: 3072 923d 627b 133e 56c5 fabc 08b3 1bbd
00000100: 33bb 293d 23d9 1d3e 6a86 463d 9481 0dbd
00000110: bf29 93bd d842 153e c5ce 313e 2bae f93d
00000120: fa45 bbbd f5dc aabd 0d8c c1bc 4e6b 5cbd
00000130: ae37 b13d ddac 883d ee0b 483e f3a5 163e
00000140: 708c 9bbd b8b5 0d3e 95c1 043e 5ee6 afbd
00000150: 3e0c dbbc 3b6f 91bd 27bb 2f3e a0f4 6bbd
00000160: 5911 ba3d 9523 9fbc 0b30 243d d51b 93be
00000170: 4b55 2fbe 69d7 f03d 2d08 3abe 7110 dd3d
00000180: 6f1b c7bd feef 163e dc1e 373d 13b7 d6bd
00000190: b7c6 1c3e f547 3dbd d2a2 cc3d c6f0 0ebe
000001a0: c209 783a 062b e7bc 203c 1ebe 25a8 bfbd
000001b0: 3826 093e 4ae1 42bd 8f78 d5bd c2a3 20be
000001c0: 5e30 053c 0498 703d a02c 44bc 80d4 37be
000001d0: 35c2 fcbc 8d0b 07be e926 363e d7e9 5b3d
000001e0: 0183 fbbd 576c 3d3e f3ca 2f3e 8ae0 c5bc
000001f0: 440f ccbd 4c4f 913d bf8f 133e 6ff8 913d
00000200: 85f4 78bc dae5 063b b91c 82bd 973a d83b
00000210: a87c afbc aafb bcbd 8f7b 5f3e 7d82 373d
00000220: ffb4 5c3e dc06 dc3d 0bd6 063e 82e5 94bd
00000230: 9fd4 143e 850f 94bd 7a1f 133d 7331 6a3e
00000240: 5d11 203d f240 5e3d a417 9d3c 4a40 343e
00000250: ec9d fdbd b6cc 183d d23d 98bd a775 c6bd
00000260: 860c 673c 65fb ca3d 01f1 08be 02de 82bb
00000270: 4695 9a3e f654 393e 1c44 e13c 046e 253e

model.rnn.bias_hh_l1 f4 [160]
0.17874148 0.33276254 -0.091004945 0.19855332 0.21684793 -0.06699706 0.26248053 -0.16247497
-0.07622594 0.08702475 0.17489764 0.1663906 -0.09288206 -0.10543073 0.27979743 0.020643502
0.04424106 -0.016347103 0.17414719 -0.010399173 0.27766415 0.008982069 0.25970507 0.22425897
0.10468046 0.018072898 0.08796972 0.15535882 -0.054412067 0.35625398 0.11940612 -0.0409004
0.071266815 0.039166275 0.010709881 0.23399284 0.33999413 0.0018714303 -0.03754741 0.52160656
-0.1283974 -0.01924632 -0.023504207 0.104421385 0.19694124 0.031531796 -0.052675743 0.15976834
-0.046580695 -0.06143632 -0.046795957 0.12713541 -0.07122554 0.079545684 -0.03686068 0.094836526
0.1479416 0.016163072 0.032025855 0.19260539 0.16125926 -0.11098208 0.047235776 -0.055442944
-0.10005143 -0.097915865 0.052908264 0.09691283 -0.08481335 0.16792837 -0.07434844 0.09143009
-0.03743654 0.14445154 -0.0367695 0.21961474 -0.16574945 0.017018745 -0.08656033 0.08211045
-0.08509642 0.28638184 0.055697195 -0.07217336 0.07698395 -0.10994512 0.1499706 0.10353264
-0.11902166 -0.047229275 0.18899071 -0.028365413 0.07908473 0.120142065 0.055451937 0.05908638
0.036885515 -0.131336 0.17948276 -0.07076452 0.23217258 -0.15872626 -0.15496975 0.023301873
-0.10490898 0.06980371 -0.13255748 -0.20753954 -0.11913777 -0.045014147 -0.22030748 0.06589323
-0.23729008 0.079080224 -0.10855696 -0.21542373 0.15433426 -0.09793125 0.039131097 0.24493569
-0.10321479 0.22215903 0.2049962 0.04465899 0.13484329 0.023516752 0.1994822 0.17280854
-0.0607985 0.12512128 0.14816384 0.22928488 0.05722715 0.16956368 0.11865919 -0.0781582
0.082843035 0.0309379 0.03303664 0.1227289 0.052209754 0.102869995 0.14851019 0.17037542
0.1677651 -0.13126656 0.043729596 -0.045300715 0.13629717 0.15775084 0.031490326 0.12670259
-0.008475719 0.12548189 -0.09981568 -0.095150396 0.11158166 0.13811514 0.047799375 0.06073092
00000000: 0208 373e da5f aa3e cd60 babd 9051 4b3e
00000010: 620d 5e3e c135 89bd d963 863e d75f 26be
00000020: 581c 9cbd 083a b23d 5e18 333e 4c62 2a3e
00000030: f338 bebd 11ec d7bd 9c41 8f3e 901c a93c
00000040: 1d36 353d 5cea 85bc a453 323e 4b61 2abc
00000050: ff29 8e3e 8729 133c 10f8 843e 25a4 653e
00000060: b662 d63d 9d0d 943c 7829 b43d 6216 1f3e
00000070: 30df 5ebd ec66 b63e 328b f43d 2e87 27bd
00000080: 56f4 913d d16c 203d 7f78 2f3c d29b 6f3e
00000090: b613 ae3e c84a f53a 50cb 19bd 0288 053f
000000a0: 9c7a 03be 75aa 9dbc e58b c0bc e1da d53d
000000b0: f7aa 493e 7c27 013d 85c2 57bd 509a 233e
000000c0: 66cb 3ebd a7a4 7bbd 1ead 3fbd c92f 023e
000000d0: b2de 91bd d9e8 a23d 39fb 16bd a739 c23d
000000e0: 017e 173e 6b68 843c 8b2d 033d 593a 453e
000000f0: 2621 253e 934a e3bd 4d7a 413d 2418 63bd
00000100: c4e7 ccbd 1d88 c8bd 56b6 583d 3c7a c63d
00000110: 9fb2 adbd 6af5 2b3e ff43 98bd b33f bb3d
00000120: 0f57 19bd 1beb 133e 9d9b 16bd b0e2 603e
00000130: 39ba 29be e56a 8b3c 8b46 b1bd 8629 a83d
00000140: 0847 aebd a4a0 923e be22 643d a0cf 93bd
00000150: c3a9 9d3d e82a e1bd e591 193e ec08 d43d
00000160: a1c1 f3bd 7c73 41bd c886 413e 955e e8bc
00000170: 2df7 a13d 0b0d f63d 9221 633d 8f04 723d
00000180: 4415 173d f27c 06be 54ca 373e fdec 90bd
00000190: a6be 6d3e 2389 22be 64b0 1ebe 92e3 be3c
000001a0: 85da d6bd 3ff5 8e3d 26bd 07be 3f85 54be
000001b0: 81fe f3bd c160 38bd 4998 61be 08f3 863d
000001c0: 2cfc 72be d0f4 a13d 1d53 debd 0a98 5cbe
000001d0: cd09 1e3e 2e90 c8bd ee47 203d 6cd0 7a3e
000001e0: 4762 d3bd a87d 633e 86ea 513e 58ec 363d
000001f0: 5c14 0a3e 34a6 c03c 1045 4c3e b9f4 303e
00000200: d907 79bd cb1f 003e 43b8 173e a8c9 6a3e
00000210: 0467 6a3d 1aa2 2d3e 9703 f33d 6811 a0bd
00000220: 9ca9 a93d 7b71 fd3c 6e51 073d 4a59 fb3d
00000230: e5d9 553d 81ad d23d 0e13 183e e576 2e3e
00000240: 9dca 2b3e be6a 06be ce1d 333d 3e8d 39bd
00000250: 7c91 0b3e 7089 213e 00fc 003d 53be 013e
00000260: bedd 0abc 537e 003e 2a6c ccbd 36de c2bd
00000270: ed84 e43d 0e6e 0d3e 47c9 433d fcc0 783d

exp_avg f4 [1, 40]
7.79765e-05 -7.479485e-05 0.00026335195 4.3418626e-05 -3.8587103e-05 2.4827725e-05 -2.143065e-05 -3.0662304e-05
2.4545969e-05 3.3717857e-05 -0.00010380897 6.648469e-05 1.7505416e-05 -0.00012971992 -1.58906e-07 -6.2619794e-05
-9.8319884e-05 2.994735e-05 -2.4507726e-05 0.00010007917 -5.0715378e-05 5.6345372e-05 -3.1624088e-05 -0.00011293783
-0.00018045424 4.6181576e-06 6.0436655e-06 7.9563e-05 -5.6488003e-05 9.980217e-06 4.54384e-05 -6.0565406e-05
1.39764625e-05 8.243984e-05 -2.8740606e-05 2.4171026e-05 -0.000215583 -7.3778097e-06 -4.3132586e-05 -8.139958e-06
00000000: 5187 a338 2edb 9cb8 8012 8a39 651c 3638
00000010: 96d8 21b8 2245 d037 f8c5 b3b7 669b 00b8
00000020: 11e8 cd37 466c 0d38 04b4 d9b8 b26d 8b38
00000030: 98d8 9237 6d05 08b9 c09f 2ab4 bf52 83b8
00000040: 1631 ceb8 7237 fb37 f195 cdb7 98e1 d138
00000050: 39b7 54b8 6254 6c38 1ba4 04b8 09d9 ecb8
00000060: 5138 3db9 acf5 9a36 b1ca ca36 0fdb a638
00000070: 88ed 6cb8 b570 2737 1c95 3e38 9c07 7eb8
00000080: 737c 6a37 8de3 ac38 fb17 f1b7 e2c2 ca37
00000090: 1f0e 62b9 e78e f7b6 43e9 34b8 da90 08b7

exp_avg_sq f4 [1, 40]
1.3164349e-07 4.018563e-07 1.5390383e-07 1.0793333e-07 2.0284989e-07 1.3651395e-07 3.3530196e-07 6.00186e-08
8.876466e-08 1.7700032e-07 1.9324845e-07 2.8111958e-07 2.184998e-08 1.8999485e-07 2.5942e-07 3.3417103e-07
1.11217645e-07 5.860035e-08 1.417786e-07 4.4312923e-08 1.5967406e-07 1.4073976e-07 1.5492232e-07 7.652738e-08
1.1757656e-07 4.028631e-08 2.3829625e-07 3.301244e-07 6.995977e-08 2.723821e-07 1.564251e-07 9.592857e-08
1.3578615e-07 2.9200894e-08 6.606961e-08 2.4939814e-07 2.3017714e-07 2.6257476e-07 3.2131493e-07 2.5025926e-07
00000000: e359 0d34 b6be d734 c340 2534 fac8 e733
00000010: f4ce 5934 ab94 1234 8d03 b434 93e3 8033
00000020: e39e be33 7a0d 3e34 bb7f 4f34 c8ec 9634
00000030: 9db0 bb32 6301 4c34 6a46 8b34 1e68 b334
00000040: 8cd6 ee33 c4af 7b33 ce3b 1834 9352 3e33
00000050: df72 2b34 401e 1734 b958 2634 5f57 a433
00000060: 667e fc33 4407 2d33 60de 7f34 f43b b134
00000070: ca3c 9633 e93b 9234 cef5 2734 4a01 ce33
00000080: 9dcc 1134 72d5 fa32 27e2 8d33 05e5 8534
00000090: 9c26 7734 00f8 8c34 3081 ac34 5f5b 8634

exp_avg f4 [1, 40]
-0.06888981 -0.08945795 0.07119009 0.071866125 -0.08801619 0.041267842 -0.08944239 -0.025668157
0.063292146 0.06860381 -0.0668919 0.082053594 0.007964874 -0.041678958 0.121508345 -0.08708517
-0.03204232 -0.029618341 -0.053507417 -0.0129375225 -0.027968116 0.05158232 0.07205978 0.06268965
-0.010778707 -0.017072452 0.08564872 0.08132863 -0.04720004 0.07725962 0.066223875 -0.049324602
0.056935344 -0.008794983 0.019388258 0.076362185 -0.09170379 0.082041584 -0.07979116 -0.075329825
00000000: 1a16 8dbd bb35 b7bd 1ccc 913d 8c2e 933d
00000010: d541 b4bd 7808 293d 922d b7bd 0746 d2bc
00000020: 509f 813d 2880 8c3d 9ffe 88bd b70b a83d
00000030: 1a7f 023c 8eb7 2abd 5ed9 f83d b659 b2bd
00000040: cf3e 03bd 2aa2 f2bc 982a 5bbd e7f7 53bc
00000050: 641d e5bc fc47 533d 1494 933d 6e63 803d
00000060: 2d99 30bc 87db 8bbc 9968 af3d a08f a63d
00000070: d454 41bd 4b3a 9e3d 62a0 873d 9808 4abd
00000080: 0935 693d d518 10bc 20d4 9e3c c763 9c3d
00000090: 32cf bbbd 6b05 a83d 8c69 a3bd 8646 9abd

exp_avg_sq f4 [1, 40]
0.30936965 1.3499236 0.29168934 0.46173966 0.4309311 0.28533787 1.0504858 0.04352984
0.10721236 0.40032557 0.608131 1.2356634 0.0075334297 0.6864401 0.6890108 1.1585366
0.21436365 0.0422469 0.31481516 0.07268325 0.64816123 0.41416514 0.16626038 0.052037902
0.28234506 0.041417643 0.82369614 1.22375 0.23630771 0.938222 0.3993453 0.32042596
0.3366085 0.084182404 0.10637972 0.6987306 1.2517365 1.158617 1.3967365 0.6469547
00000000: b365 9e3e 4cca ac3f 4e58 953e 2469 ec3e
00000010: 00a3 dc3e ce17 923e 5276 863f 584c 323d
00000020: 2792 db3d 79f7 cc3e 79ae 1b3f 382a 9e3f
00000030: fdda f63b 8aba 2f3f 0363 303f ed4a 943f
00000040: 2582 5b3e 160b 2d3d 742f a13e f5da 943d
00000050: e5ed 253f 740d d43e 2940 2a3e b225 553d
00000060: 888f 903e 8ca5 293d c0dd 523f d7a3 9c3f
00000070: a6fa 713e 512f 703f fd76 cc3e df0e a43e
00000080: f357 ac3e d367 ac3d 9cdd d93d 02e0 323f
00000090: e738 a03f 904d 943f 43c8 b23f d39e 253f

exp_avg f4 [1, 40]
0.0020072346 0.004270174 -0.0022582642 -0.0015512651 0.0033169931 -0.002188592 0.0039598234 0.0011285726
-0.00028527985 -0.0025418987 0.0026922796 -0.004111085 -0.0006408761 0.0035995664 -0.003374284 0.003780567
0.0013045057 -0.0011730772 0.0022989332 1.6928821e-05 0.0026134092 -0.0020915754 -0.0022417111 -0.0007901488
0.0027152528 0.0010178192 -0.0031368511 -0.004139058 0.001487374 -0.0032776503 -0.0030300573 0.0021281603
-0.0022433382 -0.0010967733 -0.0011538601 -0.003421825 0.0053612436 -0.003212566 0.003634569 0.0029820881
00000000: cf8b 033b d1ec 8b3b 63ff 13bb d253 cbba
00000010: e961 593b 7b6e 0fbb 68c1 813b 9dec 933a
00000020: 9d91 95b9 fc95 26bb f570 303b 48b6 86bb
00000030: 7800 28ba b4e6 6b3b 1723 5dbb 64c3 773b
00000040: f3fb aa3a f0c1 99ba b3a9 163b 5e02 8e37
00000050: bb45 2b3b d012 09bb ace9 12bb fd21 4fba
00000060: 62f2 313b 5868 853a a193 4dbb efa0 87bb
00000070: fdf3 c23a d9cd 56bb ed93 46bb 9b78 0b3b
00000080: f804 13bb 9bc1 8fba 1f3d 97ba b240 60bb
00000090: 5fad af3b ea89 52bb f331 6e3b 236f 433b

exp_avg_sq f4 [1, 40]
7.349186e-05 0.00025500692 5.3109383e-05 6.872683e-05 0.00011597367 6.804134e-05 0.00020725171 2.215546e-05
2.9630783e-05 9.96128e-05 0.0001233784 0.0002061251 6.481133e-06 0.00012469925 0.00016835557 0.0002152557
5.4858447e-05 1.8781517e-05 7.8888916e-05 1.8818651e-05 9.8951765e-05 8.372439e-05 5.3793647e-05 1.8000219e-05
5.867841e-05 1.7335684e-05 0.00015504238 0.00022325116 4.1704578e-05 0.00017307176 9.470577e-05 5.8322006e-05
7.711475e-05 1.615452e-05 2.7694081e-05 0.0001476203 0.00018372628 0.0001927251 0.00022467117 0.00013911896
00000000: a41f 9a38 73b2 8539 c4c1 5e38 7021 9038
00000010: e436 f338 6bb1 8e38 b551 5939 7dda b937
00000020: 9f8f f837 37e7 d038 235f 0139 4923 5839
00000030: 8278 d936 b3c1 0239 9b88 3039 43b6 6139
00000040: cf17 6638 008d 9d37 2a71 a538 bfdc 9d37
00000050: 5384 cf38 3195 af38 7da0 6138 2dff 9637
00000060: 771d 7638 196c 9137 df92 2239 8718 6a39
00000070: f3eb 2e38 997a 3539 c69c c638 c79e 7438
00000080: abb8 a138 9183 8737 9650 e837 86ca 1a39
00000090: a6a6 4039 4016 4a39 b595 6b39 76e0 1139
