lightning_logs/version_9/checkpoints/epoch=14-step=750.ckpt (torch, 330670 bytes, 33 tensors)

model.param_proj.proj.0.weight f4 [1, 40]
0.16363469 0.081009105 0.040208966 0.0074956133 0.1353215 0.041538704 -0.23044981 -0.12799074
0.094860815 -0.1603195 -0.15829135 -0.11848791 0.12776418 0.067813314 -0.15767704 -0.0320178
0.083511434 -0.2537297 -0.011984127 -0.2730936 -0.13534522 0.07868198 0.00915174 0.054063447
-0.31996295 0.083151996 -0.20319542 0.009783232 0.083163485 -0.09693933 -0.03400651 -0.086289115
0.20399746 -0.037528075 -0.23274547 -0.101373374 0.019055892 -0.068116836 -0.011292042 0.15537171
00000000: da8f 273e 1ae8 a53d 28b2 243d c39d f53b
00000010: b891 0a3e 7d24 2a3d 09fb 6bbe 0110 03be
00000020: 6346 c23d cc2a 24be 2117 22be caa9 f2bd
00000030: 9dd4 023e b5e1 8a3d 1776 21be 1925 03bd
00000040: 0b08 ab3d dce8 81be 1259 44bc edd2 8bbe
00000050: f097 0abe 0524 a13d 2ef1 153c a271 5d3d
00000060: 2fd2 a3be 984b aa3d 7612 50be d949 203c
00000070: 9e51 aa3d 2188 c6bd 694a 0bbd 59b8 b0bd
00000080: b6e4 503e 0ab7 19bd d454 6ebe d89c cfbd
00000090: 1a1b 9c3c d780 8bbd 4202 39bc c319 1f3e

model.param_proj.proj.1.weight f4 [1, 40]
0.16086935 -0.11485979 -0.13387664 -0.200011 0.16959757 0.107975155 -0.027494285 0.15897949
-0.12692922 -0.1501125 -0.16052696 -0.09798532 0.16359422 -0.050880257 0.029217474 -0.04901958
-0.16009414 -0.06681532 -0.15697166 0.0684434 0.17354439 0.10159757 -0.00578644 -0.1379444
-0.09278488 0.11318101 -0.045659672 0.17983602 0.20399834 -0.09827426 0.14400661 0.18226822
-0.17915018 -0.10632032 0.066483974 0.06092202 0.04327014 0.20922743 0.045982197 -0.12002078
00000000: efba 243e 9c3b ebbd f516 09be afcf 4cbe
00000010: fcaa 2d3e 1422 dd3d b23b e1bc 85cb 223e
00000020: bcf9 01be 17b7 19be 2e61 24be 87ac c8bd
00000030: 3e85 273e d167 50bd 7c59 ef3c c1c8 48bd
00000040: b8ef 23be 78d6 88bd 2ebd 20be 0e2c 8c3d
00000050: 9fb5 313e 6312 d03d 2d9c bdbb 4c41 0dbe
00000060: 0006 bebd 72cb e73d a305 3bbd ef26 383e
00000070: f1e4 503e 0444 c9bd 7876 133e 85a4 3a3e
00000080: 2573 37be 78be d9bd c028 883d 5e89 793d
00000090: 083c 313d b73f 563e d457 3c3d 74cd f5bd

model.param_proj.proj.2.weight f4 [1, 40]
0.05183425 0.23411785 -0.0934198 -0.04868106 0.027266648 0.12123924 0.30460027 0.03723702
-0.17290801 0.17202154 0.18408953 -0.2559105 -0.10495956 0.1601745 0.3493996 0.22799751
0.058569122 -0.012401387 0.17716603 0.3131216 -0.048130672 0.055189498 0.30286145 -0.099942505
0.22636734 -0.06373491 0.16258657 -0.015746893 -0.086480804 0.117343575 0.15300098 0.13197285
-0.21919955 0.022117758 0.28436658 0.07588016 0.32043472 -0.05369591 -0.08026659 -0.035562582
00000000: 2750 543d 97bc 6f3e e152 bfbd cb65 47bd
00000010: 4e5e df3c 474c f83d 91f4 9b3e d885 183d
00000020: cc0e 31be 6a26 303e f781 3c3e b306 83be
00000030: 0af5 d6bd c904 243e 81e4 b23e 2e78 693e
00000040: 2de6 6f3d 302f 4bbc 036b 353e 7951 a03e
00000050: ab24 45bd 620e 623d a810 9b3e a8ae ccbd
00000060: d7cc 673e 7387 82bd 187d 263e a1ff 80bc
00000070: d91c b1bd d451 f03d 4aac 1c3e e423 073e
00000080: d975 60be 4d30 b53c 7f98 913e 0f67 9b3d
00000090: 0510 a43e 3ef0 5bbd cf62 a4bd 12aa 11bd

model.rnn.weight_ih_l0 f4 [160, 37]
-0.016101599 -0.028503604 0.21097654 -0.0794013 0.059482105 -0.018465169 -0.029295642 -0.011876607
-0.06443086 0.081739716 -0.0700281 0.15584958 0.05654434 -0.056548804 -0.039114296 0.14391981
-0.054929696 0.1129333 0.046256136 0.18309456 0.083864115 -0.019147381 0.10988754 -0.025745077
0.012158538 0.13090034 -0.016853636 0.043808874 -0.13268445 -0.0337376 0.097090624 0.068727
0.24823195 -0.1851358 -0.30702016 -0.1350189 0.16809137 -0.020182857 -0.042158484 -0.027432717
0.005030357 0.13800249 0.092838526 -0.004807642 -0.1292894 0.17580977 0.12323903 0.014347804
-0.1054163 0.032794658 0.14508316 0.16367066 -0.08765302 0.06106763 0.13318586 0.0888811
0.10422444 0.13341255 -0.12225919 -0.06937941 0.009171115 -0.083952725 -0.10382888 0.08551196
-0.008586653 0.16720952 0.061029363 -0.0861859 -0.04331953 -0.008928146 -0.32478377 0.0343189
-0.18078603 0.067132466 -0.0571998 -0.045918215 -0.08030347 0.0025546455 0.013040142 -0.07480033
-0.05016233 0.04597451 -0.07726441 -0.08566955 0.13687336 0.1489237 -0.070601486 0.08814547
0.022692021 0.119776264 0.06433699 0.20215157 0.11410855 -0.09026045 0.0027634695 0.16163106
-0.060115587 0.071189314 -0.019194221 0.0007734558 0.06502912 0.15768391 -0.0074336077 0.034197766
0.0064392677 -0.0026835331 0.046532325 0.028576676 0.13564514 -0.02110605 -0.060951605 0.22375226
-0.02612958 0.11773307 -0.09086118 -0.008656418 -0.012123115 -0.102691226 -0.12595771 -0.053874917
0.110557854 -0.027481992 0.07187263 0.17560199 0.18601386 0.0942634 0.12407571 -0.05192584
-0.09315883 -0.13319758 0.07707252 -0.041303683 -0.08225591 0.04951647 0.112561025 -0.02916658
-0.034073085 0.07600344 -0.13780874 -0.119531415 -0.040945176 -0.088025354 -0.0065341713 -0.14216554
-0.31460106 -0.12100867 0.15136896 0.010083572 0.15221664 0.21585354 0.3076781 0.046302084
0.013349133 0.08072655 0.019931328 0.24222235 0.039471474 0.06712392 0.23184727 0.01570432
-0.015988147 0.019422295 0.2056356 0.24217181 0.0459467 0.11757309 0.04808776 0.20243901
0.099890456 0.10984113 0.12751515 0.16211835 0.13217314 0.14878544 0.1165718 0.005255324
0.05814355 0.12755877 0.25777575 0.050599754 0.15763909 -0.04209404 -0.4377903 -0.2662512
0.033803694 0.06379773 0.009750662 -0.14624874 -0.1788949 -0.16367283 0.08623308 0.053483505
0.095985785 0.005678204 0.16827494 0.10307003 -0.0281311 0.025352512 0.08856819 0.0189354
0.17444079 0.035685226 -0.15662001 0.1946036 -0.12209498 0.03901274 -0.057823062 0.21445535
0.030517679 0.11154991 -0.08015946 -0.011207298 -0.0040873606 -0.1432872 0.07419901 -0.028659223
0.08055258 0.07906421 -0.4706176 0.075162016 -0.076011166 0.1413088 0.15328917 0.20685779
0.23081103 0.05730418 0.15399052 0.22547238 0.08126487 0.25170487 -0.06585521 0.06699576
0.077125944 0.040708788 -0.0613439 0.03749686 0.19764446 0.16551271 0.103745446 -0.025225308
0.0043557715 -0.09961944 0.013352821 0.066931985 -0.21992704 -0.048451997 0.10033787 0.010831699
0.026752232 0.1523728 0.31125224 0.014767914 0.035491135 0.06507715 0.0978084 0.04712257
00000000: 80e7 83bc 6480 e9bc 3c0a 583e 269d a2bd
00000010: 82a3 733d 4444 97bc 6afd efbc 1a96 42bc
00000020: 54f4 83bd 2767 a73d e46a 8fbd 0897 1f3e
00000030: 0a9b 673d b89f 67bd 5036 20bd b75f 133e
00000040: f6fd 60bd 9349 e73d 1377 3d3d 247d 3b3e
00000050: f3c0 ab3d f8da 9cbc b80c e13d 57e7 d2bc
00000060: 9b34 473c bd0a 063e a310 8abc ef70 333d
00000070: 6fde 07be 7030 0abd 73d7 c63d bec0 8c3d
00000080: 8430 7e3e 3d94 3dbe bf31 9dbe 6542 0abe
00000090: 2520 2c3e 8556 a5bc 60ae 2cbd 94ba e0bc
000000a0: b1d5 a43b 8650 0d3e 2022 be3d 6d89 9dbb
000000b0: 7164 04be 7a07 343e bf64 fc3d 0d13 6b3c
000000c0: 80e4 d7bd b153 063d ae90 143e 4899 273e
000000d0: 6d83 b3bd 0d22 7a3d e061 083e 4b07 b63d
000000e0: a073 d53d 4d9d 083e 0763 fabd cb16 8ebd
000000f0: 7242 163c 68ef abbd 3ca4 d4bd e520 af3d
00000100: 08af 0cbc f938 2b3e edf9 793d 3c82 b0bd
00000110: d26f 31bd 5c47 12bc 0f4a a6be fa91 0c3d
00000120: f91f 39be bf7c 893d 564a 6abd bd14 3cbd
00000130: 2576 a4bd d76b 273b 52a6 553c ea30 99bd
00000140: 0477 4dbd c54f 3c3d ce3c 9ebd 8473 afbd
00000150: 8828 0c3e 747f 183e 8397 90bd 9d85 b43d
00000160: 9ee4 b93c 424d f53d 1dc3 833d d200 4f3e
00000170: beb1 e93d 79da b8bd 531b 353b 9d82 253e
00000180: c33b 76bd b4cb 913d 333d 9dbc bdc1 4a3a
00000190: fd2d 853d e477 213e 9f95 f3bb f512 0c3d
000001a0: 7e00 d33b 37de 2fbb ae98 3e3d a219 ea3c
000001b0: 8fe6 0a3e 98e6 acbc 64a8 79bd 501f 653e
000001c0: b30d d6bc 091e f13d 6d15 babd a6d3 0dbc
000001d0: 08a0 46bc c74f d2bd 0ffb 00be f2ab 5cbd
000001e0: 286c e23d ea21 e1bc f531 933d 02d1 333e
000001f0: 6b7a 3e3e 2b0d c13d 681b fe3d 31b0 54bd
00000200: 0fca bebd f264 08be 33d8 9d3d 0d2e 29bd
00000210: c975 a8bd c8d1 4a3d 6586 e63d c0ee eebc
00000220: 3890 0bbd b1a7 9b3d bc1d 0dbe e3cc f4bd
00000230: 21b6 27bd a346 b4bd 9a1c d6bb d893 11be
00000240: 6413 a1be 65d3 f7bd 7700 1b3e 9135 253c
00000250: aede 1b3e b608 5d3e fc87 9d3e 41a7 3d3d
00000260: 52b6 5a3c f653 a53d 0647 a33c 2309 783e
00000270: d7ac 213d 4478 893d 5f69 6d3e 59a6 803c
00000280: 93f9 82bc 811b 9f3c 2492 523e e3fb 773e
00000290: 9b32 3c3d 29ca f03d acf7 443d 2c4c 4f3e
000002a0: 5e93 cc3d 63f4 e03d 5593 023e 5a02 263e
000002b0: 6558 073e 365b 183e 32bd ee3d da34 ac3b
000002c0: ee27 6e3d c49e 023e 2ffb 833e b041 4f3d
000002d0: 246c 213e cd6a 2cbd 0d26 e0be 1452 88be
000002e0: be75 0a3d 62a8 823d 3ec1 1f3c 3bc2 15be
000002f0: 3a30 37be da99 27be f89a b03d 8511 5b3d
00000300: 3294 c43d 3a10 ba3b 4450 2c3e 6116 d33d
00000310: 3173 e6bc 12b0 cf3c 3d63 b53d 691e 9b3c
00000320: 9ba0 323e ac2a 123d ff60 20be 2b46 473e
00000330: ef0c fabd d3cb 1f3d e0d7 6cbd 2f9a 5b3e
00000340: 3600 fa3c 4774 e43d a52a a4bd d19e 37bc
00000350: 44ef 85bb e1b9 12be a7f5 973d bfc6 eabc
00000360: c0f8 a43d 6bec a13d caf4 f0be 8bee 993d
00000370: beab 9bbd 41b3 103e d6f7 1c3e 87d2 533e
00000380: ba59 6c3e cab7 6a3d b1af 1d3e 3be2 663e
00000390: 326e a63d 76df 803e 19df 86bd 1335 893d
000003a0: 35f4 9d3d 42be 263d be43 7bbd 4f96 193d
000003b0: 4f63 4a3e 2a7c 293e 7e78 d43d 4ea5 cebc
000003c0: dcba 8e3b 4705 ccbd cac5 5a3c a313 893d
000003d0: 8e34 61be 9a75 46bd f17d cd3d 7077 313c
000003e0: 7f27 db3c 9e07 1c3e 745c 9f3e 1ff5 713c
000003f0: 275f 113d 2b47 853d c54f c83d 9903 413d

model.rnn.weight_hh_l0 f4 [160, 40]
0.06489253 -0.10162314 -0.105369866 0.14531057 0.18686967 -0.1295332 -0.05290542 -0.10454043
0.059057336 -0.10845532 0.05862399 0.14124238 0.001831994 0.12835366 0.12301874 0.008203773
0.00050887105 0.036439653 -0.16830549 0.21691263 -0.0451972 0.18538474 -0.01126396 -0.06925945
-0.21280035 -0.017008966 -0.07033736 -0.026222466 0.026606428 0.07183785 0.08269377 -0.09879029
0.17675088 -0.044908542 0.12349606 -0.06336041 0.055819187 -0.0115774395 0.26968813 -0.17420188
0.023803081 0.1069223 0.13236254 -0.0077008074 0.12415488 0.07519885 0.015839139 -0.104433924
-0.16893305 0.07235432 -0.045172267 0.08310817 0.107057706 -0.13036788 0.029073281 -0.101418085
-0.01916413 -0.05596967 -0.005667577 0.040612083 0.0738944 0.055245984 -0.06495238 -0.06441386
0.051600974 0.050791584 -0.14565885 0.10868093 -0.03907939 -0.05869604 -0.017724713 -0.021591477
-0.19853842 0.07755407 -0.06825301 -0.110453926 0.1460662 -0.07975243 0.07421854 0.03293023
-0.055413406 -0.07784213 -0.053841334 -0.066517755 0.17342232 0.065274075 -0.15709428 -0.12116526
0.10788184 0.027385412 -0.010627678 0.1600646 -0.13060814 -0.10363548 0.07702768 0.006328126
-0.06912234 -0.075952776 -0.06537403 -0.06825934 -0.026430322 -0.047736347 -0.12548849 0.050949123
-0.09218338 -0.10388514 0.022047991 -0.17607093 0.0032391737 -0.013242149 -0.068742566 -0.10998657
-0.06677678 0.0565713 -0.08001048 -0.098664045 0.01623553 0.10832532 0.17061733 0.12230125
0.01570134 -0.12010922 -0.108540334 -0.09954133 -0.09350829 -0.08666913 -0.021576349 0.016562907
-0.107823215 -0.106386 -0.038010217 0.13144569 -0.15379177 -0.031713672 0.10600534 0.13432066
0.03602968 -0.1483992 -0.049250975 -0.0014419353 0.097221844 -0.007679819 0.12716718 -0.03407797
-0.05755786 0.091534406 -0.002712253 -0.203993 -0.17083067 -0.29462078 0.14700437 -0.15675119
-0.20242314 -0.0003014014 0.11354191 0.11327994 0.12270092 0.011035298 0.13258472 0.24484032
-0.22659013 -0.28352523 -0.05555661 -0.20917441 0.13833643 -0.18972614 0.013402654 -0.032610264
-0.20843428 -0.027255196 0.21336341 0.115547806 -0.21212678 -0.11174175 0.114672884 0.078741185
0.13181311 -0.22746792 -0.030137865 0.2747999 0.009947531 0.059593033 -0.08513142 -0.15874323
-0.28848654 -0.030337004 0.24909993 -0.08982048 -0.20442916 0.051346015 0.25096992 0.07278228
-0.028916726 0.24589498 0.13319041 0.101317585 -0.024981672 -0.27988154 0.24018775 -0.044833377
0.19879715 -0.10535903 0.13970186 -0.15193392 -0.30408427 -0.08252291 0.059030246 -0.00735052
-0.15817598 -0.035620626 -0.11659997 -0.11629007 -0.12925662 -0.04475937 0.018496608 -0.090047345
0.28970805 -0.19945885 0.23693831 0.08103518 0.09670515 0.1340583 -0.024661135 0.03607283
0.08750516 0.07406973 -0.08359658 -0.07241727 -0.28160664 -0.22246042 0.05020889 0.3777579
-0.32972944 -0.056843802 0.0752351 0.04844242 0.3057694 0.11193333 -0.085656315 -0.14806238
0.055566207 -0.038838614 -0.11305715 -0.07333614 0.035118572 -0.032606762 -0.15489826 -0.21604538
0.03108511 -0.020039612 0.050487947 -0.025094751 -0.2956238 0.14140514 -0.12209179 0.16836813
00000000: 60e6 843d cb1f d0bd 28cc d7bd 4bcc 143e
00000010: c35a 3f3e 5aa4 04be 5bb3 58bd 4b19 d6bd
00000020: 1be6 713d d31d debd b51f 703d d8a1 103e
00000030: 851f f03a 246f 033e 40f1 fb3d 1e69 063c
00000040: c265 053a bf41 153d 4658 2cbe 581e 5e3e
00000050: b320 39bd 7fd5 3d3e 798c 38bc e6d7 8dbd
00000060: 56e8 59be 6356 8bbc 090d 90bd 7fd0 d6bc
00000070: b9f5 d93c b91f 933d 5a5b a93d 9052 cabd
00000080: 2ffe 343e 05f2 37bd 81eb fc3d 1ac3 81bd
00000090: a9a2 643d 4daf 3dbc 9014 8a3e fa61 32be
000000a0: aefe c23c 14fa da3d 0c8a 073e 0e57 fcbb
000000b0: ea44 fe3d db01 9a3d 15c1 813c 74e1 d5bd
000000c0: c9fc 2cbe 802e 943d 8e06 39bd 9e34 aa3d
000000d0: 1241 db3d 287f 05be 172b ee3c 49b4 cfbd
000000e0: 18fe 9cbc 7440 65bd 15b7 b9bb db58 263d
000000f0: f255 973d 9d49 623d c105 85bd 6aeb 83bd
00000100: 8b5b 533d d60a 503d 9827 15be 1c94 de3d
00000110: b611 20bd 426b 70bd 6b33 91bc 9ce0 b0bc
00000120: a84d 4bbe abd4 9e3d 3cc8 8bbd ab35 e2bd
00000130: 6192 153e 3e55 a3bd e4ff 973d d9e1 063d
00000140: 2bf9 62bd b26b 9fbd bb88 5cbd 763a 88bd
00000150: 9f95 313e 6aae 853d 53dd 20be 7e25 f8bd
00000160: 27f1 dc3d 5f57 e03c b61f 2ebc f9e7 233e
00000170: 24be 05be d73e d4bd b0c0 9d3d 2b5c cf3b
00000180: 0390 8dbd 218d 9bbd d2e2 85bd 8ecb 8bbd
00000190: 6784 d8bc 3087 43bd 0e80 00be 07b0 503d
000001a0: a4ca bcbd bbc1 d4bd fd9d b43c f04b 34be
000001b0: 5148 543b 99f5 58bc e7c8 8cbd a440 e1bd
000001c0: 44c2 88bd 4fb7 673d 89dc a3bd 6010 cabd
000001d0: 6000 853c aad9 dd3d 4fb6 2e3e 1479 fa3d
000001e0: 19a0 803c d3fb f5bd 654a debd 53dc cbbd
000001f0: 4681 bfbd 967f b1bd e2c0 b0bc efae 873c
00000200: 6bd2 dcbd e7e0 d9bd 9ab0 1bbd b399 063e
00000210: 977b 1dbe 32e6 01bd 5419 d93d 5b8b 093e
00000220: dc93 133d f6f5 17be 64bb 49bd 52ff bcba
00000230: 3f1c c73d fea6 fbbb 1d38 023e 5795 0bbd
00000240: cac1 6bbd 6476 bb3d 0ec0 31bb 8ae3 50be
00000250: 3cee 2ebe 89d8 96be 5088 163e 6283 20be
00000260: 0348 4fbe 6905 9eb9 a988 e83d 50ff e73d
00000270: 9f4a fb3d 65cd 343c 4ac4 073e 6cb7 7a3e
00000280: 3e07 68be 382a 91be 548f 63bd d131 56be
00000290: 11a8 0d3e 9247 42be ce96 5b3c 5792 05bd
000002a0: cc6f 55be 4a46 dfbc f07b 5a3e 54a4 ec3d
000002b0: c337 59be dcd8 e4bd 9ed9 ea3d 0f43 a13d
000002c0: 04fa 063e 5aed 68be afe3 f6bc 93b2 8c3e
000002d0: f8fa 223c d317 743d 6259 aebd 968d 22be
000002e0: 82b4 93be 4f85 f8bc 0d14 7f3e cdf3 b7bd
000002f0: e155 51be 3350 523d 217f 803e e00e 953d
00000300: c5e2 ecbc e5cb 7b3e 1163 083e 987f cf3d
00000310: 5da6 ccbc a24c 8fbe c7f3 753e 34a3 37bd
00000320: 7b91 4b3e 7ac6 d7bd 010e 0f3e 9194 1bbe
00000330: efb0 9bbe c501 a9bd b3c9 713d a2dc f0bb
00000340: e2f8 21be efe6 11bd f7cb eebd 7d29 eebd
00000350: d95b 04be 9a55 37bd 3386 973c be6a b8bd
00000360: 9d54 943e f13e 4cbe f59f 723e c6f5 a53d
00000370: 5a0d c63d 9446 093e 2606 cabc 1bc1 133d
00000380: e835 b33d dfb1 973d af34 abbd 814f 94bd
00000390: bf2e 90be aacc 63be d6a7 4d3d 7c69 c13e
000003a0: 4cd2 a8be 0cd5 68bd dc14 9a3d 8f6b 463d
000003b0: cf8d 9c3e 4d3d e53d 946c afbd aa9d 17be
000003c0: 6499 633d 3d15 1fbd 828a e7bd 4231 96bd
000003d0: 7ed8 0f3d ab8e 05bd a69d 1ebe 003b 5dbe
000003e0: 33a6 fe3c 1d2a a4bc 73cc 4e3d 8293 cdbc
000003f0: 015c 97be 82cc 103e 430b fabd b268 2c3e

model.rnn.bias_ih_l0 f4 [160]
0.17675924 0.07979042 0.03531671 -0.02592953 0.018907301 0.06129235 -0.042011876 0.036310382
0.13561979 0.11427756 0.05671335 -0.04248808 0.23637635 -0.065233074 -0.0040924405 -0.08146908
0.16305406 -0.11880935 0.1666761 0.05974864 -0.07063476 0.12945414 0.089086175 0.078320935
-0.13777284 -0.073059395 -0.0032446946 0.04862993 0.09767012 -0.031879503 -0.07450477 0.05841125
-0.058802925 0.016107865 0.14559577 0.20656936 0.035895854 0.18896239 0.1710109 -0.05977563
0.14438304 0.1418594 0.17251782 -0.0037651644 0.05270055 0.07054217 -0.11390036 0.06140365
0.061015904 -0.096919015 -0.11482376 0.1684015 -0.08010065 -0.026988996 0.051947765 0.14634626
-0.11503731 0.032831788 -0.0959163 -0.061087728 -0.053043723 -0.04228939 0.15443799 -0.12869814
-0.031197567 -0.05162061 0.10439158 -0.05493913 -0.0740377 -0.052568693 -0.060489032 -0.13724701
0.1396895 0.08778021 0.1260511 0.05992691 0.023198728 0.1587906 0.11996854 -0.003853791
0.11015612 -0.06920452 0.002461634 -0.05777488 0.13577498 0.077328406 0.10640273 -0.16251123
0.06569577 -0.023172494 0.1111559 -0.10896318 -0.06146717 -0.101287566 0.055250052 0.045533855
-0.15888514 0.018599939 -0.12527004 0.039941605 0.15889096 0.1373391 0.078235455 0.08405928
-0.1615919 0.035317235 0.14964923 0.08304905 0.089924365 -0.11467094 0.073306955 0.081224
0.13304901 0.13540521 0.051451158 0.05769161 -0.15013547 -0.11138596 0.029714067 0.09082671
0.057768095 0.04421594 0.09704254 -0.021498736 0.1159832 0.21308856 0.1746228 -0.00205672
0.055750452 0.07317145 -0.011355787 -0.10406778 0.13258088 0.10167212 0.04989733 0.11731182
0.18774448 -0.030082839 -0.057319585 0.100707255 0.18354249 0.116762966 0.09539667 0.095636316
0.01173172 -0.019216022 -0.0012177577 -0.054786623 0.0063619036 0.18696018 -0.06263036 0.033636894
-0.008821546 0.088694945 0.09595656 -0.111150295 0.17621788 0.11381489 -0.11021121 0.0010827789
00000000: 6000 353e 2969 a33d 41a8 103d 2a6a d4bc
00000010: 7ce3 9a3c b00d 7b3d a514 2cbd 32ba 143d
00000020: eadf 0a3e 5a0a ea3d 424c 683d fb07 2ebd
00000030: a40c 723e eb98 85bd e119 86bb 43d9 a6bd
00000040: a5f7 263e 5152 f3bd 24ad 2a3e fdba 743d
00000050: f5a8 90bd a08f 043e d072 b63d ba66 a03d
00000060: 5314 0dbe 2aa0 95bd f1a4 54bb 2d30 473d
00000070: 4607 c83d 1594 02bd f595 98bd a340 6f3d
00000080: 56db 70bd a4f4 833c 0f17 153e eb86 533e
00000090: 8807 133d 5b7f 413e 7b1d 2f3e 4ad7 74bd
000000a0: 26d9 133e 9743 113e 83a8 303e fac0 76bb
000000b0: 88dc 573d 6a78 903d 9844 e9bd 6582 7b3d
000000c0: d0eb 793d 7a7d c6bd b828 ebbd 7171 2c3e
000000d0: cf0b a4bd 0718 ddbc 2ec7 543d cbdb 153e
000000e0: ae98 ebbd a07a 063d c46f c4bd 2037 7abd
000000f0: 6044 59bd a437 2dbd fe24 1e3e 72c9 03be
00000100: 0a92 ffbc 2270 53bd 41cb d53d da07 61bd
00000110: 14a1 97bd 4552 57bd 59c3 77bd 7b8a 0cbe
00000120: c40a 0f3e 1cc6 b33d 8a13 013e eb75 753d
00000130: 420b be3c 019a 223e 11b2 f53d e28f 7cbb
00000140: 8899 e13d 19bb 8dbd 5e53 213b 5aa5 6cbd
00000150: 9908 0b3e 5b5e 9e3d ade9 d93d 5869 26be
00000160: 818b 863d 3ed4 bdbc b4a5 e33d 1628 dfbd
00000170: 00c5 7bbd db6f cfbd e14d 623d b581 3a3d
00000180: c9b2 22be e65e 983c ca46 00be cf99 233d
00000190: 50b4 223e 9fa2 0c3e e939 a03d 4627 ac3d
000001a0: 5978 25be cea8 103d a63d 193e 9f15 aa3d
000001b0: 442a b83d 99d8 eabd f521 963d c558 a63d
000001c0: 003e 083e aaa7 0a3e 73be 523d 0a4e 6c3d
000001d0: 1dbd 19be 521e e4bd ea6a f33c 5b03 ba3d
000001e0: 3d9e 6c3d c61b 353d 3dbe c63d 1e1e b0bc
000001f0: 9a88 ed3d e333 5a3e 52d0 323e 09ca 06bb
00000200: 965a 643d eada 953d 9f0d 3abc 7d21 d5bd
00000210: 48c3 073e 7939 d03d 2561 4c3d 2e41 f03d
00000220: 1740 403e 4970 f6bc f1c7 6abd 9b3f ce3d
00000230: 90f2 3b3e 6c21 ef3d 545f c33d f9dc c33d
00000240: 6636 403c eb6a 9dbc 2b9d 9fba f067 60bd
00000250: 8477 d03b 7d72 3f3e 5944 80bd d7c6 093d
00000260: 3f88 10bc b2a5 b53d df84 c43d c4a2 e3bd
00000270: 7672 343e c817 e93d 6ab6 e1bd 08ec 8d3a

model.rnn.bias_hh_l0 f4 [160]
0.153712 0.07412026 0.1784775 -0.06401668 0.28680643 -0.0042040017 0.03350039 -0.033285994
0.116496064 0.07478418 0.26418802 0.15403745 -0.002170687 0.02444451 0.16352424 0.11126802
0.19875063 0.13886455 -0.031935383 0.055327762 0.094291426 0.05367628 0.12269464 -0.11114444
-0.11558121 0.09213545 0.010176604 0.17517124 0.14875774 0.015994083 -0.045500074 -0.026684247
0.16998716 0.1187893 0.14634085 0.18565734 0.013946297 -0.030565389 0.14160664 -0.14387181
-0.035517383 0.007929182 0.12635975 0.043473903 -0.0151772 0.100363 -0.01922945 -0.02684124
0.15976709 0.15204988 0.008518889 -0.044357765 0.13376275 -0.05878448 0.19977705 0.15334906
-0.054472942 0.06654687 0.059443023 -0.05712919 -0.018794766 0.08122238 -0.031172013 -0.15102519
-0.10866681 0.07824719 0.0045099063 0.0059728175 0.10214876 0.09104442 0.157333 -0.019601101
0.0856913 -0.1553099 -0.009517671 0.0026059682 -0.034008022 0.17918345 0.18993573 -0.09892277
0.061648827 -0.09757114 0.10598884 0.053651158 0.14214593 0.1565569 0.1658437 -0.048716277
-0.17500474 0.17046864 -0.107129805 0.15076055 -0.0836191 -0.12886925 0.067014106 -0.08442224
-0.04517918 0.10410429 0.011618031 -0.1472359 -0.08797218 -0.1454696 0.102865726 0.075066715
-0.029587885 0.117926165 -0.10670427 0.09777671 -0.16142504 -0.05933588 -0.024135306 0.032132827
-0.08725346 0.0008830738 0.06948565 -0.06183058 -0.010498363 -0.016087947 -0.034218147 0.08872127
0.028716497 0.10926876 0.016488517 0.058209907 0.040042106 -0.03023764 0.08501814 0.15168835
-0.089445345 0.101395234 -0.010688343 0.14448209 0.13801983 -0.028910793 -0.008007511 0.18757682
0.12651077 -0.0044221734 0.034793664 -0.06549628 0.15160911 -0.02747813 0.16965884 -0.03927612
0.16634996 -0.039161574 0.106159925 0.027118513 0.010278353 0.14349608 0.15743296 -0.07718295
0.025306204 0.092976846 0.1729371 -0.22940105 0.1796121 0.053877983 -0.040824413 0.07307646
00000000: ae66 1d3e 5dcc 973d cec2 363e 2d1b 83bd
00000010: 4bd8 923e b9c1 89bb b437 093d e556 08bd
00000020: 7d95 ee3d 7328 993d a743 873e febb 1d3e
00000030: 1642 0ebb da3f c83c e672 273e 7de0 e33d
00000040: 4985 4b3e 8232 0e3e adce 02bd 5d9f 623d
00000050: dd1b c13d a9db 5b3d 5447 fb3d b29f e3bd
00000060: d7b5 ecbd 83b1 bc3d c5bb 263c 1760 333e
00000070: f353 183e 0606 833c 495e 3abd ec98 dabc
00000080: 1d11 2e3e ce47 f33d 60da 153e f51c 3e3e
00000090: 027f 643c 4464 fabc 5501 113e 2253 13be
000000a0: ad7a 11bd 66e9 013c 7364 013e b111 323d
000000b0: caa9 78bc 1e8b cd3d 1487 9dbc 29e2 dbbc
000000c0: fc99 233e f7b2 1b3e cf92 0b3c 7db0 35bd
000000d0: 1af9 083e ffc7 70bd 5b92 4c3e 8907 1d3e
000000e0: 051f 5fbd ba49 883d 877a 733d 4c00 6abd
000000f0: 7bf7 99bc eb57 a63d 735c ffbc 59a6 1abe
00000100: b48c debd 1040 a03d d6c7 933b a0b7 c33b
00000110: 5e33 d13d 7f75 ba3d e71b 213e 7d92 a0bc
00000120: ec7e af3d 8f09 1fbe 01f0 1bbc e4c8 2a3b
00000130: ff4b 0bbd de7b 373e 837e 423e 0598 cabd
00000140: 7b83 7c3d 61d3 c7bd ad10 d93d 51c1 5b3d
00000150: b48e 113e 7450 203e eed2 293e b88a 47bd
00000160: 7134 33be 558f 2e3e df66 dbbd f960 1a3e
00000170: 7e40 abbd 4df6 03be b13e 893d 91e5 acbd
00000180: ce0d 39bd a134 d53d 8e59 3e3c 02c5 16be
00000190: c22a b4bd fcf5 14be 44ab d23d 94bc 993d
000001a0: 4b62 f2bc 4683 f13d c587 dabd 283f c83d
000001b0: 9b4c 25be 2e0a 73bd 68b7 c5bc b69d 033d
000001c0: f1b1 b2bd 147e 673a 7e4e 8e3d 1042 7dbd
000001d0: 5301 2cbc dfca 83bc 5428 0cbd 7fb3 b53d
000001e0: dc3e eb3c 4dc8 df3d ed12 873c 836d 6e3d
000001f0: 3103 243d edb4 f7bc fe1d ae3d 3154 1b3e
00000200: 1f2f b7bd 4ea8 cf3d 291e 2fbc 1df3 133e
00000210: 1255 0d3e 54d6 ecbc ef31 03bc 2314 403e
00000220: 0a8c 013e e1e7 90bb cd83 0e3d ea22 86bd
00000230: 6b3f 1b3e d119 e1bc 0cbb 2d3e ffdf 20bd
00000240: a557 2a3e e367 20bd 606a d93d a527 de3c
00000250: 8966 283c a3f0 123e 1b36 213e 1812 9ebd
00000260: f54e cf3c a56a be3d 6c16 313e 1ce8 6abe
00000270: 3cec 373e 29af 5c3d 8037 27bd 1ca9 953d

model.rnn.weight_ih_l1 f4 [160, 40]
0.08734749 0.07573716 -0.1812443 -0.0021484478 -0.0022727202 -0.13300966 0.0588484 0.100648075
0.11646752 -0.046690203 -0.054880816 -0.0103867715 -0.1497339 -0.06718914 0.16332242 0.107259944
0.19683336 0.022519642 -0.09124366 0.13074861 -0.053515725 0.049985595 -0.07408488 0.07521489
0.02266828 -0.13200033 0.049142383 0.036445305 0.09063315 -0.10846365 -0.07481066 -0.12373887
-0.26705617 0.018020168 -0.0073823044 0.13114373 0.24483293 -0.12256533 -0.098051 -0.041027255
-0.06630829 -0.22108632 -0.16638091 -0.22095963 0.08804202 -0.07123204 -0.18531182 -0.07507054
-0.026975257 -0.24223904 0.27533907 0.25025305 0.08938034 -0.06396852 0.081078276 0.053019267
0.21288548 -0.086618595 0.09515662 0.02407528 0.024049351 0.06466849 -0.13868538 0.08857851
-0.27082154 -0.14145084 0.19592065 -0.30136004 -0.26794705 0.20723502 0.15007389 -0.019856997
0.059225533 -0.11057006 0.21705145 0.05457824 0.06464632 0.030819537 0.20635596 -0.014462306
-0.074891604 0.1406676 -0.064515814 0.08721645 0.20476817 -0.01058383 -0.21097499 -0.098337576
0.1003415 -0.051193014 0.091793254 0.012965966 -0.064960495 -0.10832939 -0.039729718 0.06147067
-0.09512865 -0.037809364 0.08864287 -0.069243066 -0.090057015 -0.033669308 -0.06050075 -0.1421306
-0.12390227 -0.25090706 0.1529595 -0.2065374 0.033749286 -0.07806197 -0.07865834 -0.005726963
0.2712484 0.1663982 0.07347212 -0.03318975 0.21454899 -0.031183753 0.103160545 -0.06372224
0.05101096 -0.09475135 -0.118442334 0.05872384 0.34262273 -0.23413403 -0.1222203 -0.18504748
-0.16121785 0.047670774 0.21865165 -0.02645714 -0.2942533 0.0021081418 -0.13979483 -0.09681013
0.22518098 -0.21723908 -0.097726025 0.019688642 0.046561 0.13301224 -0.17435354 -0.15285754
-0.0021546122 -0.111307114 -0.06921475 -0.09911474 -0.073343895 0.006133249 -0.024657892 0.14452137
-0.054587364 0.0121870935 0.20718831 -0.018129088 0.03129814 -0.02521853 -0.039536603 -0.107364506
-0.14498985 0.021728331 -0.08529781 -0.15133564 0.1427828 0.052892026 -0.108662434 0.06676996
0.031057974 0.101645336 0.092805974 0.034278292 0.029790917 -0.079898864 0.09948159 -0.11393445
0.015520627 -0.16148768 -0.0058571016 -0.14156228 -0.15039544 -0.047621798 -0.065283485 -0.05062237
0.08533641 0.053540602 -0.116971016 0.06591409 0.06111273 0.13114554 -0.036962014 -0.07101483
-0.11131504 0.11864649 0.17776597 0.13169551 0.00046349777 0.1201179 0.10990722 -0.067192495
-0.052052237 0.060089543 -0.083946824 0.038265977 0.21948372 0.029759148 0.12547751 -0.042433683
-0.07578966 0.033540294 0.002941329 0.09809978 -0.15738998 -0.017628469 0.02049865 -0.09636443
-0.018091775 0.02407666 0.026007611 -0.12134531 -0.1415249 0.13054349 -0.08217811 0.10385165
0.09922189 -0.08886593 0.03908231 -0.062242407 -0.07410414 -0.06850408 0.028882464 -0.0040747933
0.0931062 0.09398582 -0.064865686 0.21763313 0.13384365 0.07370154 0.027274644 -0.0950819
-0.23583378 -0.2224747 -0.007823953 0.11800656 0.175682 -0.005402065 -0.026592309 -0.022440895
-0.039358884 -0.08245182 0.16820388 0.026391553 0.049892977 -0.016446115 0.16694638 -0.0035493488
00000000: 3ee3 b23d 161c 9b3d 1b98 39be f9cc 0cbb
00000010: ebf1 14bb af33 08be 050b 713d 9420 ce3d
00000020: 8686 ee3d 3a3e 3fbd b5ca 60bd 472d 2abc
00000030: d853 19be 769a 89bd fe3d 273e 1aab db3d
00000040: af8e 493e 1d7b b83c f5dd babd f7e2 053e
00000050: 4e33 5bbd b2bd 4c3d d0b9 97bd 440a 9a3d
00000060: d4b2 b93c 182b 07be 8649 493d ac47 153d
00000070: df9d b93d 3122 debd 5536 99bd ce6a fdbd
00000080: 96bb 88be 089f 933c 42e7 f1bb 8b4a 063e
00000090: 7cb5 7a3e 8803 fbbd f6ce c8bd 320c 28bd
000000a0: a4cc 87bd 7464 62be c25f 2abe 3e43 62be
000000b0: 604f b43d 1be2 91bd 62c2 3dbe 95be 99bd
000000c0: 37fb dcbc 830d 78be 3ef9 8c3e 2b21 803e
000000d0: 0a0d b73d ed01 83bd 5e0c a63d bb2a 593d
000000e0: a7fe 593e 1765 b1bd 79e1 c23d 8639 c53c
000000f0: 2503 c53c ea70 843d 8a03 0ebe a668 b53d
00000100: 1fa9 8abe 7dd8 10be 6c9f 483e dd4b 9abe
00000110: 5b30 89be 6b35 543e f8ac 193e 24ab a2bc
00000120: 7996 723d 8e72 e2bd bc42 5e3e 6f8d 5f3d
00000130: 4a65 843d 4179 fc3c fa4e 533e 4ff3 6cbc
00000140: c560 99bd 2b0b 103e de20 84bd 8a9e b23d
00000150: bfae 513e cd67 2dbc d409 58be 3665 c9bd
00000160: d87f cd3d c4af 51bd 1afe bb3d 346f 543c
00000170: 020a 85bd cddb ddbd a1bb 22bd abc8 7b3d
00000180: cfd2 c2bd fedd 1abd 658a b53d 4fcf 8dbd
00000190: d06f b8bd d4e8 09bd a2cf 77bd af8a 11be
000001a0: 79c0 fdbd e476 80be 6aa1 1c3e 8a7e 53be
000001b0: b13c 0a3d f4de 9fbd a017 a1bd 3fa9 bbbb
000001c0: 12e1 8a3e 4a64 2a3e 8d78 963d faf1 07bd
000001d0: bbb2 5b3e 1275 ffbc d645 d33d ce80 82bd
000001e0: def0 503d ff0c c2bd e591 f2bd 6988 703d
000001f0: 3f6c af3e d5c0 6fbe a34e fabd 167d 3dbe
00000200: 4b16 25be 6e42 433d 38e6 5f3e a5bc d8bc
00000210: 5ea8 96be c028 0a3b 6026 0fbe 6444 c6bd
00000220: d895 663e ec73 5ebe 9524 c8bd 134a a13c
00000230: bfb6 3e3d 5c34 083e bc89 32be b086 1cbe
00000240: 6534 0dbb fcf4 e3bd 76c0 8dbd abfc cabd
00000250: 5335 96bd 6cf9 c83b 59ff c9bc 69fd 133e
00000260: 0097 5fbd 60ac 473c 2c29 543e 7483 94bc
00000270: 7a32 003d 1797 cebc 22f1 21bd ece1 dbbd
00000280: 3878 14be 9dff b13c 9eb0 aebd bbf7 1abe
00000290: a835 123e 4fa5 583d 698a debd b0be 883d
000002a0: 4b6d fe3c 6e2b d03d 0f11 be3d 6567 0c3d
000002b0: 150c f43c 04a2 a3bd 01bd cb3d 7756 e9bd
000002c0: 3a4a 7e3c 075d 25be eeec bfbb b4f5 10be
000002d0: 4301 1abe 130f 43bd 59b3 85bd 6759 4fbd
000002e0: dbc4 ae3d 644d 5b3d 808e efbd f7fd 863d
000002f0: 5851 7a3d 044b 063e 7b65 17bd 3970 91bd
00000300: 24f9 e3bd eefc f23d 4808 363e 30db 063e
00000310: 9e01 f339 6000 f63d 0917 e13d 389c 89bd
00000320: ba34 55bd 7420 763d 50ec abbd c9bc 1c3d
00000330: 57c0 603e 75c9 f33c 2d7d 003e f1ce 2dbd
00000340: 9c37 9bbd 8c61 093d 50c3 403b 8ae8 c83d
00000350: d72a 21be 9469 90bc c9ec a73c b75a c5bd
00000360: 3435 94bc 6a3c c53c ea0d d53c e483 f8bd
00000370: e7eb 10be 31ad 053e ff4c a8bd 2db0 d43d
00000380: d934 cb3d 57ff b5bd c614 203d e5f1 7ebd
00000390: e9c3 97bd de4b 8cbd eb9a ec3c d885 85bb
000003a0: 77ae be3d a37b c03d 4dd8 84bd 38db 5e3e
000003b0: 4f0e 093e d5f0 963d 136f df3c 4dba c2bd
000003c0: 697e 71be 68d0 63be 0a30 00bc 6cad f13d
000003d0: fbe5 333e ce03 b1bb 1dd8 d9bc f8d5 b7bc
000003e0: c836 21bd 80dc a8bd a33d 2c3e 1933 d83c
000003f0: 945c 4c3d 01ba 86bc fef3 2a3e 319c 68bb

model.rnn.weight_hh_l1 f4 [160, 40]
0.047635138 -0.114540294 0.028632086 -0.114317 0.18989392 0.17378083 0.05994492 0.109996706
0.012310543 -0.0012216194 0.047626883 -0.04688436 0.15350461 -0.119716644 -0.18543735 -0.16290827
-0.17172593 -0.045754015 -0.11063168 0.14039284 0.16928245 0.1483141 0.03078127 0.025342783
0.048700515 0.15991318 0.12282719 0.0729475 -0.11097043 -0.10189585 -0.0022343576 0.20051819
-0.08842976 0.118832536 -0.054629605 -0.054925382 0.021441799 0.06641125 0.08232293 0.004333881
0.2158409 -0.046491858 -0.16855694 -0.12839556 0.15014677 -0.083931826 -0.026258297 0.15158448
-0.06216283 -0.080411136 0.0007751778 -0.052768145 0.11046952 -0.0039183125 -0.15072581 0.032079298
-0.044652455 0.040082995 -0.18158767 0.05765022 -0.042677075 -0.04609554 -0.13995026 -0.050836865
-0.002178635 0.04207495 -0.1814904 0.07581762 0.15902025 0.039319795 0.09691483 -0.11792913
-0.06709176 -0.04621193 -0.10968212 0.105355956 -0.022195831 0.14592063 0.085440494 0.031532645
-0.018172322 -0.13003145 -0.03501916 0.066231765 -0.027424451 -0.0308327 -0.10027813 -0.07723421
0.13601188 0.14441626 -0.07572248 0.18701816 0.10081575 -0.14355935 -0.17980039 -0.001900891
-0.1507414 0.06936223 0.11249561 0.019577079 0.04304108 0.046404213 -0.070642084 0.05253886
0.018354932 -0.12633741 -0.15342575 0.11326955 -0.13394712 0.10546537 0.17108448 7.183464e-05
0.13517341 0.082597375 -0.11414654 -0.030487275 0.06813262 -0.095595025 -0.108545296 -0.023861822
-0.19221742 0.18635884 0.11785219 -0.13784799 0.077424444 -0.055481143 0.12734477 0.072171524
0.025081864 0.015996685 -0.005310114 -0.19929805 0.083462715 -0.090380915 0.11703156 0.07379772
-0.15295018 0.054601066 0.14427918 0.016921123 0.08334806 -0.09708751 -0.07117906 -0.07536249
0.023601077 0.07732862 -0.06595578 0.019604769 0.10952373 -0.09624041 0.18016432 -0.07729823
-0.028966637 0.113590926 -0.0782583 -0.09562629 -0.0049764225 0.16600037 0.042040363 -0.1415863
-0.06295357 -0.019150518 0.015758613 -0.052831355 -0.12760326 -0.06805266 0.0033166022 0.041173562
0.01087553 0.07538505 0.05401153 -0.1404223 -0.08462731 -0.15953784 -0.12841296 0.11668801
-0.14042321 0.1312191 0.02113465 -0.036337674 -0.008384597 0.14153908 0.15962267 -0.16103998
-0.057396352 -0.10446446 -0.13054451 0.11527075 0.076002344 -0.04665172 0.0461336 0.16852005
0.11853849 -0.14209002 0.01381542 0.0560716 0.06069078 0.08923232 0.1240795 0.13063271
-0.12023694 0.08712462 -0.099987164 -0.1273232 0.06430829 -0.07523147 0.025444226 -0.023896424
0.12339585 -0.067802645 0.076623715 -0.009208925 0.052007627 0.11344661 -0.022005506 -0.06909724
-0.0923738 0.09836996 0.14031038 -0.07981443 0.039801657 -0.15678988 -0.05425237 -0.04824396
-0.13224901 0.015342671 -0.13076654 -0.010762448 0.14984407 -0.03719156 -0.11220649 -0.10364979
-0.122734 -0.049429 0.016866583 -0.08895265 0.1344182 0.08880755 -0.1308568 0.08461779
0.12001237 -0.11728909 -0.10918577 0.078155555 -0.041198406 -0.11533431 -0.043718796 0.028307762
0.015333896 0.03812025 -0.21663952 -0.010393205 -0.08571745 0.04128834 -0.20941277 -0.25104633
00000000: 101d 433d 1a94 eabd d68d ea3c 081f eabd
00000010: 8d73 423e 9af3 313e ce88 753d f445 e13d
00000020: 29b2 493c bf1e a0ba 6814 433d d109 40bd
00000030: 5030 1d3e 002e f5bd 4ae3 3dbe 6dd1 26be
00000040: ecd8 2fbe 9068 3bbd dd92 e2bd 24c3 0f3e
00000050: 6158 2d3e a7df 173e 0029 fc3c ab9b cf3c
00000060: 317a 473d 48c0 233e d28c fb3d 8065 953d
00000070: 7744 e3bd c5ae d0bd 4d6e 12bb a454 4d3e
00000080: a91a b5bd 795e f33d 4bc3 5fbd 70f9 60bd
00000090: b6a6 af3c 9f02 883d ed98 a83d 3b03 8e3b
000000a0: 6605 5d3e 3f6e 3ebd 319a 2cbe 207a 03be
000000b0: 13c0 193e 73e4 abbd a41b d7bc f638 1b3e
000000c0: 749e 7ebd 98ae a4bd 4d35 4b3a 6923 58bd
000000d0: d83d e23d 3065 80bb de57 1abe 9565 033d
000000e0: 7ee5 36bd 112e 243d 1ef2 39be a322 6c3d
000000f0: 28ce 2ebd adce 3cbd 1f4f 0fbe 513a 50bd
00000100: 6ec7 0ebb c856 2c3d 9fd8 39be 4546 9b3d
00000110: 34d6 223e cb0d 213d 487b c63d d484 f1bd
00000120: 6867 89bd b948 3dbd 05a1 e0bd ddc4 d73d
00000130: 08d4 b5bc 386c 153e 6dfb ae3d 6028 013d
00000140: 1fde 94bc f726 05be 4070 0fbd 85a4 873d
00000150: 3ea9 e0bc dc94 fcbc 9f5e cdbd f82c 9ebd
00000160: b346 0b3e dbe1 133e 6314 9bbd b081 3f3e
00000170: 7d78 ce3d 3901 13be 981d 38be 5127 f9ba
00000180: f45b 1abe c90d 8e3d 1964 e63d 1c60 a03c
00000190: d84b 303d 5812 3e3d ccac 90bd fd32 573d
000001a0: 155d 963c 985e 01be a41b 1dbe def9 e73d
000001b0: 6f29 09be 3afe d73d c530 2f3e eea5 9638
000001c0: e66a 0a3e d028 a93d a9c5 e9bd 73c0 f9bc
000001d0: 1d89 8b3d 53c7 c3bd ff4c debd de79 c3bc
000001e0: a5d4 44be dad4 3e3e 7d5c f13d 0628 0dbe
000001f0: b590 9e3d 3240 63bd ab66 023e aace 933d
00000200: 7b78 cd3c 7b0b 833c 7700 aebb ca14 4cbe
00000210: 80ee aa3d a119 b9bd 3eae ef3d 4223 973d
00000220: f99e 1cbe 5ea5 5f3d ecbd 133e 2b9e 8a3c
00000230: 63b2 aa3d d1d5 c6bd 54c6 91bd a657 9abd
00000240: 0c57 c13c 785e 9e3d d313 87bd 2e9a a03c
00000250: fa4d e03d b119 c5bd ff7c 383e 894e 9ebd
00000260: 714b edbc 5ca2 e83d e345 a0bd b7d7 c3bd
00000270: 4211 a3bb 00fc 293e 8432 2c3d 00fc 10be
00000280: cded 80bd 8ce1 9cbc 3518 813c b165 58bd
00000290: 6eaa 02be 315f 8bbd 5a5b 593b 9ca5 283d
000002a0: 472f 323c 7a63 9a3d 323b 5d3d ddca 0fbe
000002b0: 1551 adbd e35d 23be b07e 03be 20fa ee3d
000002c0: 1acb 0fbe 4d5e 063e 9322 ad3c d0d6 14bd
000002d0: 8c5f 09bc 9fef 103e 2074 233e aae7 24be
000002e0: 7018 6bbd 76f1 d5bd 76ad 05be 1213 ec3d
000002f0: 1ea7 9b3d e015 3fbd 96f6 3c3d 8590 2c3e
00000300: 4fc4 f23d 0c80 11be 125a 623c 56ab 653d
00000310: e596 783d 6fbf b63d 651d fe3d 95c4 053e
00000320: c93e f6bd 656e b23d 12c6 ccbd 0361 02be
00000330: 11b4 833d f512 9abd 6970 d03c 6fc2 c3bc
00000340: f7b6 fc3d 1ddc 8abd e5ec 9c3d 08e1 16bc
00000350: f305 553d b256 e83d e444 b4bc db82 8dbd
00000360: 7a2e bdbd 3176 c93d 86ad 0f3e bf75 a3bd
00000370: 1007 233d 878d 20be bc37 5ebd 759b 45bd
00000380: 496c 07be d45f 7b3c aae7 05be fb54 30bc
00000390: b970 193e 2d56 18bd 84cc e5bd 5746 d4bd
000003a0: f75b fbbd 1076 4abd ca2b 8a3c cf2c b6bd
000003b0: eda4 093e bce0 b53d 53ff 05be 184c ad3d
000003c0: 0cc9 f53d 4335 f0bd ca9c dfbd 0510 a03d
000003d0: a9bf 28bd 6534 ecbd 7b12 33bd aee5 e73c
000003e0: 053b 7b3c fb23 1c3d c0d6 5dbe 4348 2abc
000003f0: a18c afbd f61d 293d 4d70 56be 2589 80be

model.rnn.bias_ih_l1 f4 [160]
0.10577319 0.053273562 -0.040326286 0.09849776 0.09595893 -0.006060503 0.27223754 0.105810724
0.0040475875 0.12577023 0.052046407 0.16388287 0.05655252 0.20423305 -0.013559502 0.07577525
0.019447416 -0.011654451 -0.0030352667 -0.0022105814 0.16121037 0.1736455 0.11137577 -0.118399955
0.006193552 -0.044283506 0.03755601 0.099975504 0.030126689 0.22010784 -0.048672408 -0.02404323
-0.01944565 0.19013551 -0.054994583 -0.046841513 -0.085491404 -0.123986185 0.12342578 0.13493691
0.06290623 0.18504828 -0.1200291 -0.07637398 -0.08702134 0.11907419 -0.06742142 0.11513424
-0.037666578 0.0257687 0.12267963 0.0574878 0.047142114 -0.06748386 0.019220164 0.19808155
-0.09361946 0.08105589 0.061478037 -0.042716082 0.1120452 0.12417803 0.12781666 0.115373634
0.13657711 0.14875205 -0.059767544 -0.018689739 0.12973632 -0.08154594 0.020466078 0.0930103
0.0074086306 0.1370622 -0.045231324 -0.02184219 -0.07628357 0.02919516 0.14476152 -0.040904567
-0.07686599 -0.08305136 0.10562432 -0.006479405 0.16782388 -0.010495771 -0.1984957 0.078017086
-0.13800594 -0.21041484 -0.042500157 -0.1299209 0.028617062 -0.183229 0.10690663 -0.023493035
-0.015541861 -0.06885817 -0.15070081 0.10412055 -0.094503164 0.13699901 -0.09847955 -0.030784143
-0.061365567 0.22278742 -0.063711524 -0.07950469 0.2206302 -0.016632972 0.12985952 0.12543495
-0.04054786 -0.04673935 0.13297129 0.10619198 -0.08110381 0.09539407 -0.029339222 -0.087268405
0.05155529 0.14091188 0.093544796 0.10427201 0.11155318 0.0019433827 0.13857059 0.10479917
0.1408921 0.105577044 0.01888867 -0.0038323805 -0.033739235 0.01964645 0.12815739 -0.04263169
0.16534631 0.008480901 0.01415264 0.017307516 0.1566708 0.037243683 0.20977882 -0.12867664
-0.05916088 -0.02111655 0.08029393 0.16245526 0.038789358 -0.08351168 0.084419005 0.090930514
0.17737399 0.021488708 -0.014619103 -0.059536416 0.043554813 0.04732773 0.0700167 -0.07026318
00000000: 9d9f d83d 6135 5a3d 2d2d 25bd 32b9 c93d
00000010: 1e86 c43d 2f97 c6bb b862 8b3e 4bb3 d83d
00000020: a0a1 843b e9c9 003e 9d2e 553d e9d0 273e
00000030: 9da3 673d 7822 513e ac28 5ebc 0e30 9b3d
00000040: 3050 9f3c 4ff2 3ebc 53eb 46bb 67df 10bb
00000050: 5514 253e 20d0 313e fb18 e43d ad7b f2bd
00000060: 48f3 ca3b 9f62 35bd 55d4 193d f5bf cc3d
00000070: 3fcc f63c f363 613e b85c 47bd 4ff6 c4bc
00000080: 7c4c 9fbc e2b2 423e 0042 61bd e3dc 3fbd
00000090: 1e16 afbd 78ec fdbd a8c6 fc3d e72c 0a3e
000000a0: fbd4 803d 4c7d 3d3e d1d1 f5bd f669 9cbd
000000b0: 3f38 b2bd 2bdd f33d 3e14 8abd 80cb eb3d
000000c0: 4548 1abd e118 d33c 753f fb3d 5478 6b3d
000000d0: 1718 413d fa34 8abd 9b73 9d3c e4d5 4a3e
000000e0: 8fbb bfbd a100 a63d 65d0 7b3d 0ff7 2ebd
000000f0: f477 e53d 0d51 fe3d 5fe2 023e 0349 ec3d
00000100: dfda 0b3e 7552 183e d0ce 74bd 391b 99bc
00000110: 99d9 043e 8f01 a7bd 7aa8 a73c 2f7c be3d
00000120: 19c4 f23b 095a 0c3e 7b44 39bd 64ee b2bc
00000130: 8f3a 9cbd b02a ef3c 5d3c 143e 8c8b 27bd
00000140: eb6b 9dbd d516 aabd 9051 d83d 3051 d4bb
00000150: 06da 2b3e 74f6 2bbc 7542 4bbe 6cc7 9f3d
00000160: 6e51 0dbe fd76 57be a514 2ebd fc09 05be
00000170: 546e ea3c 62a0 3bbe ddf1 da3d 7774 c0bc
00000180: 4aa3 7ebc 8305 8dbd 5051 1abe 283d d53d
00000190: e08a c1bd 7849 0c3e a5af c9bd 072f fcbc
000001a0: 765a 7bbd 6322 643e 307b 82bd 5bd3 a2bd
000001b0: e2ec 613e df41 88bc e5f9 043e 0572 003e
000001c0: 8315 26bd c371 3fbd a029 083e 2e7b d93d
000001d0: c119 a6bd f75d c33d cf58 f0bc c7b9 b2bd
000001e0: a42b 533d 344b 103e 6a94 bf3d 908c d53d
000001f0: fe75 e43d 1ab9 fe3a 73e5 0d3e f2a0 d63d
00000200: 0546 103e c738 d83d 69bc 9a3c ad28 7bbb
00000210: 2732 0abd 98f1 a03c b13b 033e 919e 2ebd
00000220: 8b50 293e 7af3 0a3c 79e0 673c 7ec8 8d3c
00000230: 4f6e 203e d58c 183d 42d0 563e cfc3 03be
00000240: ae52 72bd 9dfc acbc 2571 a43d ac5a 263e
00000250: 97e1 1e3d 2c08 abbd dfe3 ac3d c739 ba3d
00000260: 87a1 353e 1609 b03c f684 6fbc 75dc 73bd
00000270: 8866 323d b9da 413d ea64 8f3d 24e6 8fbd

model.rnn.bias_hh_l1 f4 [160]
0.008033601 0.028797492 -0.13549282 -0.12669687 0.1714289 0.10988366 0.020536518 -0.021300007
0.15308161 0.19802056 -0.043346573 -0.015863115 -0.07272724 -0.02728702 0.011816841 0.14358073
0.07628811 -0.06775624 0.07242592 0.17647369 0.10549269 -0.08203702 0.17518158 -0.11726163
0.004471499 0.006741862 0.25094965 -0.13258812 0.0985425 0.03496887 -0.026368333 -0.08569883
-0.04372457 0.11512155 -0.06520482 -0.100367814 0.0041704075 -0.12101407 -0.093022674 0.12640381
0.03805106 0.014557027 0.08878462 0.17011316 -0.110842794 -0.09114999 -0.038200587 -0.08617272
0.112489134 0.019085532 0.10448239 0.065018624 0.056257583 0.15039212 -0.13932835 0.1937584
-0.07749833 0.1157224 0.05121475 0.19344527 0.00856022 -0.07061501 0.16802423 0.15414408
0.1114164 -0.07084798 0.1754013 0.13645522 -0.0314524 0.16072845 -0.0646281 -0.11697263
-0.010331034 0.13266078 0.08230511 0.056361824 0.057408147 -0.09822688 -0.1327498 -0.10298613
0.14599411 -0.2106969 0.09472132 -0.15387103 0.16186991 -0.07901242 -0.1786354 -0.091962405
-0.041928664 -0.0381206 -0.17663458 0.05886964 0.13630964 -0.09354416 -0.1106042 -0.077553466
-0.16098328 -0.05958995 0.057672888 0.07320997 0.040244285 -0.056421697 -0.1550604 -0.08609589
0.07824107 0.19299223 -0.20469972 0.0055259056 0.17326696 -0.049839985 -0.1390951 -0.13359219
-0.13844149 -0.16872524 -0.10005792 0.14489524 -0.05829057 0.10128886 0.17055364 -0.06346562
0.16468419 0.16583768 0.087641485 -0.08476086 0.11373629 -0.0025853252 0.022435958 0.011030723
0.13785718 0.104733475 -0.036057774 0.04987284 -0.10426466 -0.053550303 -0.057384897 -0.07522172
0.17019808 -0.074915074 -0.07882262 0.056625232 -0.046256736 0.07860063 0.07133519 0.15333812
0.059380863 0.14734238 0.13839243 -0.06670139 0.0105803 0.009674268 -0.03369627 0.15986466
0.20673472 0.100379914 0.18613917 -0.025673913 0.06729956 -0.007812009 0.046417207 -0.04164293
00000000: 5d9f 033c b8e8 eb3c a1be 0abe d3bc 01be
00000010: 0f8b 2f3e af0a e13d 333c a83c 5a7d aebc
00000020: 6dc1 1c3e e7c5 4a3e 2d8c 31bd 5df3 81bc
00000030: 05f2 94bd 0789 dfbc 6c9b 413c d406 133e
00000040: f13c 9c3d c9c3 8abd 0a54 943d 85b5 343e
00000050: 8d0c d83d 0603 a8bd cd62 333e de26 f0bd
00000060: a785 923b d6ea dc3b 797c 803e 2ec5 07be
00000070: a6d0 c93d 853b 0f3d 6702 d8bc de82 afbd
00000080: 8918 33bd d9c4 eb3d 1b8a 85bd a48d cdbd
00000090: eaa7 883b 3ad6 f7bd ac82 bebd 0070 013e
000000a0: 6edb 1b3d 9980 6e3c b6d4 b53d 2532 2e3e
000000b0: 8c01 e3bd d9ac babd 3878 1cbd 537b b0bd
000000c0: b460 e63d 4359 9c3c ddfa d53d 7c28 853d
000000d0: 5a6e 663d 6400 1a3e 17ac 0ebe 9a68 463e
000000e0: 72b7 9ebd deff ec3d 8fc6 513d 8416 463e
000000f0: 2a40 0c3c 9a9e 90bd 8b0e 2c3e f2d7 1d3e
00000100: 482e e43d bf18 91bd 669c 333e ebba 0b3e
00000110: 3bd4 00bd 0096 243e bd5b 84bd 598f efbd
00000120: 7f43 29bc 3ad8 073e 958f a83d a8db 663d
00000130: ce24 6b3d 2d2b c9bd 90ef 07be 64ea d2bd
00000140: 7b7f 153e eec0 57be 40fd c13d 5e90 1dbe
00000150: 3ac1 253e 43d1 a1bd 33ec 36be c956 bcbd
00000160: 64bd 2bbd 5924 1cbd b2df 34be 4b21 713d
00000170: c194 0b3e 1594 bfbd 7484 e2bd 5ad4 9ebd
00000180: cdd8 24be 9714 74bd 683a 6c3d 1cef 953d
00000190: 31d7 243d 701a 67bd 27c8 1ebe 0b53 b0bd
000001a0: db3c a03d c19f 453e ce9c 51be a812 b53b
000001b0: e56c 313e 0325 4cbd f26e 0ebe 64cc 08be
000001c0: 9bc3 0dbe 4fc6 2cbe 2beb ccbd 6b5f 143e
000001d0: 18c2 6ebd 8970 cf3d 9da5 2e3e 43fa 81bd
000001e0: f9a2 283e 5ad1 293e 617d b33d 1a97 adbd
000001f0: 92ee e83d 8f6e 29bb 9dcb b73c 35ba 343c
00000200: 6f2a 0d3e 817e d63d 51b1 13bd 7747 4c3d
00000210: b688 d5bd 9057 5bbd 6d0c 6bbd d80d 9abd
00000220: 6848 2e3e 136d 99bd c16d a1bd dcef 673d
00000230: b477 3dbd 5ef9 a03d 2f18 923d ab04 1d3e
00000240: 5939 733d ece0 163e bfb6 0d3e bd9a 88bd
00000250: ff58 2d3c d280 1e3c 1a05 0abd 90b3 233e
00000260: 44b2 533e fc93 cd3d 449b 3e3e 1952 d2bc
00000270: 5ad4 893d e2fb ffbb f81f 3e3d c791 2abd

exp_avg f4 [1, 40]
-0.0005270762 -0.00017204882 3.1775653e-05 0.00030595172 7.511637e-05 0.00014609781 0.00025743703 0.00032456007
-6.230195e-05 0.00011305172 -3.6066525e-05 0.00038009533 8.345202e-05 -2.6838934e-05 0.0002147261 -1.3536827e-05
-0.00023032517 3.9330323e-05 -0.00017514228 0.00064653804 0.00019690667 -0.00017123096 -0.000101079524 -0.0001252464
0.00036379197 0.00016966059 -9.165219e-06 6.0211136e-05 0.00017120039 -0.00021490468 -3.0546908e-05 -0.0002380354
-5.3495155e-06 -4.5633383e-06 0.00020390558 0.00014713046 0.00023683757 -0.00015699706 5.030818e-06 -0.00019788851
00000000: 7c2b 0aba 0168 34b9 d946 0538 2568 a039
00000010: cb87 9d38 d531 1939 9df8 8639 b729 aa39
00000020: 1ba8 82b8 2e16 ed38 2346 17b8 8847 c739
00000030: f602 af38 2c24 e1b7 1928 6139 3b1c 63b7
00000040: 7183 71b9 9df6 2438 66a6 37b9 6f7c 293a
00000050: bb78 4e39 768c 33b9 a8fa d3b8 9354 03b9
00000060: 55bb be39 ebe6 3139 51c4 19b7 378b 7c38
00000070: 4184 3339 0958 61b9 7e1f 00b8 2499 79b9
00000080: fd7f b3b6 c71e 99b6 7dcf 5539 0847 1a39
00000090: 9a57 7839 949f 24b9 66ce a836 4b80 4fb9

exp_avg_sq f4 [1, 40]
2.0345925e-07 2.0239822e-06 1.6995376e-06 1.8499925e-06 1.3548042e-06 1.4560494e-06 1.393033e-06 6.320687e-07
1.377783e-06 2.3910245e-06 1.3262306e-06 7.445592e-07 1.902255e-06 3.3048195e-06 7.3458034e-07 1.7637934e-06
1.9389017e-06 3.90478e-07 6.1055647e-07 5.584357e-07 2.5219317e-06 6.9890285e-07 1.959952e-06 1.468965e-06
7.5989664e-07 2.2004763e-06 2.931485e-06 4.5280808e-07 1.6598896e-06 2.758765e-06 2.1161513e-06 2.3556577e-06
4.475403e-06 2.3191442e-06 4.2528293e-07 9.501303e-07 1.9676754e-06 2.4190801e-06 6.576995e-07 1.6687981e-06
00000000: 7476 5a34 c0d3 0736 ab1b e435 424d f835
00000010: b8d6 b535 7a6d c335 40f8 ba35 6eab 2935
00000020: 43ec b835 7d75 2036 f000 b235 b8dd 4735
00000030: fc50 ff35 5ec8 5d36 fa2f 4535 7bbb ec35
00000040: 141e 0236 e3a2 d134 1fe5 2335 69e7 1535
00000050: 753e 2936 3d9c 3b35 b887 0336 4129 c535
00000060: b3fb 4b35 e5ab 1336 87ba 4436 7819 f334
00000070: 5fc9 de35 3923 3936 3403 0e36 e415 1e36
00000080: 6b2b 9636 98a2 1b36 7152 e434 750c 7f35
00000090: 680c 0436 7b57 2236 c48c 3035 77fb df35

exp_avg f4 [1, 40]
0.006732902 -0.051414993 -0.001827538 0.012614671 0.012185041 -0.0031077652 -0.050906807 -0.028137466
0.0314567 -0.04885467 -0.041887313 0.046029504 0.020710424 -0.0487683 -0.046874736 -0.053218964
-0.010486702 -0.007968059 -0.04101499 -0.035928506 0.013828594 -0.022625452 -0.049075805 -0.006319627
-0.04995318 0.034790445 -0.03728904 0.0062616016 0.023861606 -0.041374214 -0.04542291 -0.01683481
0.04826133 -0.02457809 -0.056521825 -0.006005401 -0.04517219 0.0015220647 0.017098965 -0.0020106377
00000000: ad9f dc3b 8798 52bd 008a efba c4ad 4e3c
00000010: c4a3 473c a6ab 4bbb a883 50bd 8b80 e6bc
00000020: bed8 003d d61b 48bd 0892 2bbd 6f89 3c3d
00000030: e8a8 a93c 45c1 47bd b9ff 3fbd 21fc 59bd
00000040: 6bd0 2bbc 768c 02bc 56ff 27bd c529 13bd
00000050: 5491 623c 0359 b9bc b603 49bd e014 cfbb
00000060: b59b 4cbd 6d80 0e3d 64bc 18bd 1f2e cd3b
00000070: 6a79 c33c 0278 29bd 600d 3abd 28e9 89bc
00000080: acad 453d fe57 c9bc 6e83 67bd f4c8 c4bb
00000090: 7906 39bd 0480 c73a 2113 8c3c e7c4 03bb

exp_avg_sq f4 [1, 40]
0.006286754 0.18461722 0.014929228 0.0042196126 0.043677088 0.013822282 0.16006918 0.045331717
0.034097593 0.15023012 0.1211636 0.08716025 0.055480044 0.19263421 0.105089344 0.18371765
0.052918065 0.013880435 0.09186409 0.008059611 0.06522533 0.0075139473 0.15892692 0.031115398
0.11381186 0.112043515 0.13899632 0.03029391 0.06694996 0.16195531 0.06321793 0.010526547
0.07926661 0.07707925 0.06898637 0.0054785134 0.12860171 0.016271288 0.027248023 0.016098259
00000000: 1d01 ce3b 4c0c 3d3e b999 743c ad44 8a3b
00000010: bfe6 323d da76 623c 2de9 233e c0ad 393d
00000020: eba9 0b3d edd5 193e 9f24 f83d 1381 b23d
00000030: 0b3f 633d e741 453e 1539 d73d 7b20 3c3e
00000040: 9dc0 583d c46a 633c 3d23 bc3d 750c 043c
00000050: dc94 853d 8f37 f63b bdbd 223e b8e5 fe3c
00000060: 3116 e93d 1277 e53d 0d55 0e3e ef2a f83c
00000070: 101d 893d 9dd7 253e 6778 813d 8a77 2c3c
00000080: 8856 a23d badb 9d3d ba48 8d3d 1a85 b33b
00000090: 2bb0 033e 5d4b 853c 3f37 df3c 7fe0 833c

exp_avg f4 [1, 40]
-0.00034029232 0.0011524936 0.0012866331 -0.0007976908 -0.0014592587 -0.0014186276 -0.00030782475 -0.0025115244
-3.5090576e-05 0.0016528897 0.0014794342 -0.0004385928 -0.0011332151 0.0011542412 -0.0009941381 0.0010834167
0.0015017273 0.00044322867 0.0016074335 -0.0027969088 -0.0016186434 0.0015673678 0.0011210423 0.00083879515
-0.0004268727 -0.001453076 0.00029128444 -0.0006591922 -0.0009749335 0.0014358626 0.0024944467 0.0006237992
-0.0008871298 0.0017156794 0.0008546969 -0.0016056714 -0.0008497739 0.00027114144 -0.00063721975 0.00087076484
00000000: 4369 b2b9 450f 973a 3ea4 a83a 201c 51ba
00000010: 9944 bfba 3ef1 b9ba 8a63 a1b9 6398 24bb
00000020: 382e 13b8 c6a5 d83a 93e9 c13a eef2 e5b9
00000030: 6488 94ba e849 973a bd4d 82ba 6f01 8e3a
00000040: 9bd5 c43a 2561 e839 85b0 d23a 584c 37bb
00000050: a928 d4ba 2370 cd3a f0ef 923a 97e2 5b3a
00000060: e2cd dfb9 2475 beba 89b7 9839 a4cd 2cba
00000070: ae92 7fba 8e33 bc3a df79 233b 7586 233a
00000080: 468e 68ba a6e0 e03a bd0d 603a 6475 d2ba
00000090: 5cc3 5eba fd27 8e39 180b 27ba 0a44 643a

exp_avg_sq f4 [1, 40]
4.1831594e-05 0.00035579386 0.00026942705 0.00034436435 0.00022545365 0.00033754582 0.00028340844 0.00014527052
0.00020686527 0.0004620552 0.00026609254 0.00023125808 0.0002900629 0.00067726814 0.00019141671 0.0003425873
0.0004148015 0.00010677198 0.00018332657 0.00014565658 0.00034260048 0.00021025317 0.00037124264 0.00027379455
0.00020440265 0.0003768964 0.0005149179 0.0001000527 0.0003128271 0.00055242 0.00036975366 0.00026578436
0.0005843208 0.00041106952 0.0001221269 0.0002672885 0.00032481033 0.00029971785 0.00012312483 0.00026876197
00000000: 5574 2f38 d889 ba39 e341 8d39 cd8b b439
00000010: c167 6c39 a2f8 b039 7096 9439 c253 1839
00000020: f9e9 5839 0040 f239 5682 8b39 de7d 7239
00000030: 9513 9839 b28a 313a 08b7 4839 4a9d b339
00000040: b779 d939 c5ea df38 5a3b 4039 64bb 1839
00000050: 0f9f b339 6877 5c39 58a3 c239 158c 8f39
00000060: eb54 5639 2e9a c539 8efb 063a 62d3 d138
00000070: f102 a439 47d0 103a 7fdb c139 f958 8b39
00000080: 1b2d 193a d184 d739 310f 0039 db22 8c39
00000090: 4e4b aa39 7323 9d39 121b 0139 9fe8 8c39
